data/95ZMK8WA5/ens_bio/bioneuron_26/ens_bio_weights.npz (npz, 2200 bytes, 1 tensors)

weights f8 [50, 5]
-2.0564984140317e-06 -7.9325107780769e-06 -7.474453472504942e-06 -2.0346338282909485e-05 2.0453891563295985e-05 -0.0001241213712262724 -1.0222367841840265e-05 5.003145310342285e-05
-6.207330623484171e-06 -0.00011499856878386671 1.386393480493211e-05 4.097361018723146e-06 8.232310742131039e-06 -1.716284054238546e-05 1.213770015950068e-05 3.2751928514682e-05
-5.952522566929938e-05 -3.166358484103515e-05 -1.7558123234395204e-06 -1.278365333771597e-06 7.777360288765524e-07 -7.147429705741082e-05 -1.489377361133613e-05 -5.747700672222113e-05
1.0386322513541378e-05 -1.9324364557919934e-05 2.1535930317149732e-05 7.743327956468884e-06 1.95435299061639e-05 -3.1834610539132398e-06 2.197451680249891e-06 8.002316788586097e-06
1.989713268187144e-06 6.22445906608283e-06 6.696966374988723e-06 1.5602953562854922e-05 8.739655487175986e-05 -7.1775702304965005e-06 6.094258558774889e-05 1.7871033262464505e-05
6.775160556636446e-05 -9.716085744176303e-05 2.9623061329623418e-05 -4.337351794139765e-05 5.2140868915858765e-05 -9.293723532491857e-06 3.863617825739208e-06 2.008850978466206e-07
5.132189781341082e-06 -1.7472138584703132e-05 2.698030375012296e-07 -2.4411352811633235e-05 -2.9204792474376326e-05 -2.7404943932438287e-05 -2.7498275020259267e-07 2.269984748288611e-05
-1.6483070025458608e-05 -1.786416150939384e-05 -4.0198791765004956e-05 1.7339700606017345e-05 3.959530465535745e-05 -1.0743804564909472e-05 2.3123723536570598e-05 -5.328727893581089e-05
-4.172319120448001e-06 3.6458892694575147e-06 -9.839624898823137e-05 2.096440202019603e-05 5.2027575501853565e-05 1.6446354403492072e-05 -5.730187679003336e-05 3.149707066156269e-05
-3.580598597344755e-05 6.667426860918419e-06 4.458118442811913e-05 1.912306624503538e-05 -2.475061100633847e-05 -7.7251779205332e-05 1.4594790633774946e-05 -1.0476585479215134e-06
1.1401534094492301e-05 -1.563239265201464e-05 1.3143760836424434e-05 -9.759952431229705e-06 -7.448024931662435e-06 -5.256974024814969e-05 2.0260127679073903e-05 6.674324073541985e-05
5.302297353382007e-05 -4.836838571470373e-05 2.9229381250973043e-05 -3.338267864111133e-05 1.725434209716837e-05 1.3934990071806648e-05 1.6614766461821393e-05 -4.45733411491352e-05
1.7894577967616456e-05 -7.169470260049088e-05 -5.1680596506663013e-05 -5.182763762660402e-05 -4.766424620307354e-05 -7.270892149849595e-06 -4.450326139784121e-06 1.9130374443593737e-05
-6.192181000641243e-05 1.0328035158683726e-05 5.4896145956965255e-05 -7.18749119252272e-05 3.1588143034025206e-05 -1.65157058742793e-05 -1.3955321575751577e-05 1.2608341637020203e-05
5.533860948506253e-06 -2.1709717123058894e-05 -1.7788520593550866e-05 1.2287388163542686e-05 2.2176315717071856e-05 -3.304833373326893e-05 -1.4663507814357793e-06 4.217337681960146e-05
-5.9621463652226324e-05 1.5269653836398115e-05 1.192693510708715e-05 2.9738718836014326e-05 2.8060250005213718e-05 -1.738974886636469e-05 -5.048269670808309e-07 2.5055782675845694e-05
-5.8279957597551244e-05 -1.1874700381734728e-06 8.487001041232574e-06 4.5399723700397175e-06 1.2260569007837953e-05 4.833518503190012e-06 -1.4706344477681944e-05 3.924195347599733e-06
2.3177808162239737e-05 2.04740181465695e-05 -3.9606898527907914e-05 -3.4667312408501373e-06 7.038286220818753e-05 -4.100777848995878e-06 -1.3458662354263129e-05 -2.527852534978173e-05
-1.3202296535885438e-05 -1.0568786594136827e-05 8.099642761697862e-06 -1.4135642162160015e-05 2.405349077140868e-05 1.0161682943994186e-05 9.990353442485881e-06 -3.122019636910841e-05
4.2528139870576774e-05 -8.920274785394028e-06 -1.8557080602091555e-05 -4.943991000212008e-05 -3.709764965393438e-05 8.447754932478183e-06 -2.834679846240614e-06 -3.150811663922691e-05
-5.9352830062287775e-05 -4.13166133322245e-05 2.205121717490069e-05 -1.9153847897536533e-05 -1.1851499399043548e-05 2.8815496550775366e-05 -5.502648687253029e-05 3.439587801102845e-05
-2.030477139614597e-05 -3.312046859871996e-05 1.3049454604189596e-05 -1.4777601345516635e-05 2.2225717990200448e-05 -1.8280670834415565e-05 1.5977560385107837e-05 -5.8059279846868946e-05
-4.8237174715867634e-05 2.5823493567128442e-05 -2.288342524775684e-06 -1.429048491805036e-05 6.312433331437536e-05 0.00010412274454760578 -2.0443871132860967e-05 -6.8584284440045635e-06
3.813921821277891e-05 -1.837991249805626e-06 -5.378619498987079e-05 -4.1994740586006926e-05 -4.513482253998675e-05 2.5413016433245226e-05 -1.8648133189289975e-05 -1.5917527666900717e-05
8.916586072883155e-06 1.845288240967927e-05 2.096644025241495e-05 2.209126837925347e-05 -4.659900831811131e-05 -1.5393011836705196e-05 -4.6880306176176296e-05 1.9907795808426875e-05
-4.600132590635434e-05 7.334589384181706e-05 -6.793581698992316e-06 9.121418575914088e-05 -0.0001044312354270473 2.8008681914392595e-05 2.369240369712269e-05 -1.764708476544273e-05
-5.036923344770107e-05 -6.306412630519808e-06 5.7440371324118825e-05 7.968707889857109e-05 -0.00010706510363249651 6.0528791388829056e-05 -2.532253538906022e-05 1.3901239605696664e-05
-1.6728049512358165e-05 -1.7924173394405333e-05 -1.5170832630471147e-05 2.9067870088437724e-06 -3.159975587702915e-07 1.5853484570152462e-05 1.1572386923458343e-06 2.819910157734721e-05
-1.627622310222798e-05 -4.46888101805357e-05 -6.428614999035857e-05 4.917955329215157e-05 -3.5059029198296346e-05 -1.819259024366684e-05 -1.934395921564046e-05 1.410957757447507e-05
2.6057570588730576e-05 3.085280134540851e-05 -1.251167619668472e-05 -3.121469718012155e-05 9.07119651995759e-06 -4.403010249787979e-05 4.128059829089179e-06 2.7307229869454612e-05
1.440214751162049e-05 -4.674107617213141e-05 6.151542536284135e-06 4.0697182318658746e-05 8.124957820751216e-06 -5.469965440029208e-06 1.3944553695683145e-05 8.002057045373358e-07
-4.2990029279750696e-06 -1.1349206989980634e-05
00000000: 2df8 98f5 4b40 c1be e684 d0fa bba2 e0be
00000010: 1449 4620 a259 dfbe e543 65b8 ad55 f5be
00000020: 80bc b6b9 8c72 f53e 5f6b d675 d244 20bf
00000030: 40b6 c689 1770 e5be 97b0 88a3 1b3b 0a3f
00000040: 1d8e ab0c 1209 dabe 66ca 385e 6c25 1ebf
00000050: 20c3 cab0 2413 ed3e ee7e 5405 822f d13e
00000060: a751 4d2c b043 e13e 704e df6b 1dff f1be
00000070: 95ec b6ce 6074 e93e 8831 dfb1 e32b 013f
00000080: 60b3 272e 5735 0fbf 66a6 ad7d d099 00bf
00000090: 2c32 d910 2875 bdbe f112 8d8c 8972 b5be
000000a0: e3e9 3a9d b318 aa3e b494 ce12 8fbc 12bf
000000b0: cf4e 8ca8 083c efbe 8648 c4e9 6e22 0ebf
000000c0: 3078 f34b 1dc8 e53e 4738 7e38 5843 f4be
000000d0: 7b64 c7dc 0195 f63e bcb8 06e4 2a3d e03e
000000e0: 65e7 1226 2d7e f43e 9c37 0139 6eb4 cabe
000000f0: 63b4 42d6 fd6e c23e a15a 760b 36c8 e03e
00000100: 3b74 e96f e0b0 c03e c95f aa47 761b da3e
00000110: d7a5 9b19 d016 dc3e 768d ebcd 625c f03e
00000120: 0f7b 3c61 15e9 163f 5bf5 5d7b db1a debe
00000130: 80fd d74b 93f3 0f3f 968f f50d 38bd f23e
00000140: a39b 7bb8 bbc2 113f 336e 16d2 5a78 19bf
00000150: 56aa 1d46 e10f ff3e 2050 83ba 7ebd 06bf
00000160: 221e 3e9d 3a56 0b3f 25a1 dba2 877d e3be
00000170: 5434 612e 8734 d03e b235 e701 5cf6 8a3e
00000180: 955e cb95 a586 d53e 486f 9338 2452 f2be
00000190: 92da c94e 2e1b 923e c614 4264 df98 f9be
000001a0: ad08 990e 9a9f febe 083d 3268 75bc fcbe
000001b0: 1f20 d6ec 2a74 92be 014b 19a4 71cd f73e
000001c0: c293 78f2 a348 f1be 12fe ccd4 5fbb f2be
000001d0: 6ccf bef7 6313 05bf c6f9 0327 972e f23e
000001e0: 9abe fd4e 64c2 043f ae22 7641 0988 e6be
000001f0: bcb7 7e2e 3a3f f83e eb73 6bf6 18f0 0bbf
00000200: 4e7b d058 fe7f d1be 54e7 9ad2 7c95 ce3e
00000210: 6a83 91af 42cb 19bf 3b33 a6bc 96fb f53e
00000220: ac91 d5e1 0547 0b3f 862b 6bde c83e f13e
00000230: b69c 977e ed0a 0ebf 8456 771b 7783 003f
00000240: 67d3 5f4f ccc5 02bf ae68 1957 18f7 db3e
00000250: 391b 45d5 955f 073f 9952 1f1b 4f0d f43e
00000260: 8956 8909 f1f3 f9be d3b5 0276 4740 14bf
00000270: 75a3 37c0 849b ee3e 557e 60c1 a893 b1be
00000280: a8d0 f6e9 26e9 e73e bd85 dad7 4964 f0be
00000290: 0456 eabb 8090 eb3e 36e1 e8a5 d577 e4be
000002a0: 4186 0b81 413d dfbe ee43 6085 ca8f 0bbf
000002b0: b6f4 695f 893e f53e 5062 0e25 107f 113f
000002c0: 6e7e 847f 9fcc 0b3f 46a0 1414 e55b 09bf
000002d0: 0127 eec8 33a6 fe3e 775e a81a 8c80 01bf
000002e0: 9e54 3f5c ad17 f23e 9799 bd73 4a39 ed3e
000002f0: 804e ae0e fe6b f13e 9ff3 0e57 885e 07bf
00000300: e6e8 ca08 8ac3 f23e 9800 a39c 59cb 12bf
00000310: a4d8 50c6 7318 0bbf 5f55 af11 302c 0bbf
00000320: 5f87 6f07 63fd 08bf d4da a29d 0f7f debe
00000330: 5c3c a355 80aa d2be 77a0 4f52 450f f43e
00000340: 15bf 7598 803b 10bf 1d3c f857 d2a8 e53e
00000350: bbee 6536 09c8 0c3f 63ef a095 71d7 12bf
00000360: 51ae 8654 b08f 003f 3b2a 65aa 6651 f1be
00000370: cec7 f0ca 3444 edbe fa7c 9447 0d71 ea3e
00000380: 9c73 661d f035 d73e 17ba 9966 a8c3 f6be
00000390: 8c96 bcd3 11a7 f2be fe5f 25c5 bdc4 e93e
000003a0: f4da dfcf e840 f73e d12e bf19 ac53 01bf
000003b0: d5e5 0dbc ed99 b8be 38db 9031 6a1c 063f
000003c0: 9bb9 67e4 4142 0fbf d4ad 1f9f ea02 f03e
000003d0: 49e6 af7a 3903 e93e 9e59 7c32 ed2e ff3e
000003e0: 4967 8bb2 5d6c fd3e 64a0 5271 063c f2be
000003f0: 2b9e 9a3d 6ef0 a0be 306a 5246 dc45 fa3e
00000400: 03c0 5b18 348e 0ebf 2ae8 561d 25ec b3be
00000410: 7993 8d8a 6ccc e13e d1ee 471a c20a d33e
00000420: 3819 fec5 57b6 e93e 746b 0773 f345 d43e
00000430: 5357 2b98 68d7 eebe 7eb7 849a 9275 d03e
00000440: 4cba 4ad9 be4d f83e ccaa 4fd0 f377 f53e
00000450: 27cb c5ab f2c3 04bf 04e4 a3a7 bf14 cdbe
00000460: fd83 935d 5073 123f 07ab 623b 2d33 d1be
00000470: 2721 1778 9039 ecbe adc0 e108 a781 fabe
00000480: 9be5 bed1 edaf ebbe cf39 0ef8 122a e6be
00000490: 50d5 b66c 76fc e03e 044b 8cdd 03a5 edbe
000004a0: 6713 ab4c cf38 f93e 060f c011 834f e53e
000004b0: 08c2 d1b8 87f3 e43e d82c 6fc7 4d5e 00bf
000004c0: e8f1 5cc2 074c 063f 0116 2f3b 09b5 e2be
000004d0: eea9 64de 6075 f3be b163 635f b6eb 09bf
000004e0: dae3 4289 2973 03bf 520d dc98 5ab7 e13e
000004f0: 7af3 d9b9 6dc7 c7be c3c8 e9a4 f284 00bf
00000500: a9f3 5bb6 331e 0fbf cb9b 3b06 6ca9 05bf
00000510: d9f2 0b1b 541f f73e 830e ae67 9215 f4be
00000520: dca0 aaac b9da e8be 5891 48d8 1937 fe3e
00000530: 4551 37b1 87d9 0cbf 3ec6 905e 8908 023f
00000540: ae86 fd43 854a f5be 06c4 bba2 5a5d 01bf
00000550: 08a2 5962 df5d eb3e 6932 5210 aafd eebe
00000560: 5eb5 dab5 2b4e f73e e6f4 5522 2e2b f3be
00000570: 48a9 d496 f1c0 f03e 11e1 55aa 9570 0ebf
00000580: bce4 edb3 484a 09bf f552 26f7 f013 fb3e
00000590: b301 6f9b 2d32 c3be 27c0 af4a 25f8 edbe
000005a0: 7028 e6c9 338c 103f 0259 6221 8f4b 1b3f
000005b0: 8df6 6f20 dc6f f5be 8d10 a374 2ec4 dcbe
000005c0: f6a2 318f f5fe 033f f2c1 3bc0 1cd6 bebe
000005d0: 8b07 7196 0f33 0cbf aa54 a34c 7004 06bf
000005e0: 4742 9ab1 e4a9 07bf 9d1f 0b31 c1a5 fa3e
000005f0: 1471 72f4 d18d f3be 4a50 152c d4b0 f0be
00000600: cf81 2642 0eb3 e23e a524 686c 6859 f33e
00000610: ce0f 9ccd 22fc f53e 93f2 4867 142a f73e
00000620: efa3 e8bb 696e 08bf 29e5 03b8 0724 f0be
00000630: 6b05 090e 2b94 08bf 6599 984f f5df f43e
00000640: fd33 d185 311e 08bf 73ca 83dc 283a 133f
00000650: 0b5f a084 8d7e dcbe 49f1 70c7 47e9 173f
00000660: cfc5 9ef6 4260 1bbf 18cc 18f7 855e fd3e
00000670: 84df ad95 e1d7 f83e cdd2 556e 1a81 f2be
00000680: 8500 ddae 7168 0abf 156a 1381 7573 dabe
00000690: 88a9 6521 841d 0e3f 4776 5497 b5e3 143f
000006a0: 78ec 7d79 0411 1cbf 61f5 936f 09bc 0f3f
000006b0: 703f ae61 778d fabe 2e68 c8d2 2b27 ed3e
000006c0: cf7d 2ecf 668a f1be d0f7 0bd1 7bcb f2be
000006d0: e4fa 2a5c c7d0 efbe 63fe ce0e 4762 c83e
000006e0: 3e62 fbf5 cb34 95be 9ca9 022a a39f f03e
000006f0: e909 fa65 4d6a b33e 75ec 3b81 a391 fd3e
00000700: 6831 ea88 1d11 f1be 8058 66d3 076e 07bf
00000710: 696a ada5 2bda 10bf 0064 8c95 c4c8 093f
00000720: 9ab5 1812 8b61 02bf 3848 3248 8913 f3be
00000730: af6d 5bc1 9a48 f4be a685 6593 0597 ed3e
00000740: 6196 a99d c652 fb3e 4442 a12e fe2c 003f
00000750: d756 c2ae 273d eabe 6c70 0ed4 905d 00bf
00000760: cc2b a6c1 0f06 e33e a144 59cd 9e15 07bf
00000770: 5232 1072 7850 d13e a598 388c 3aa2 fc3e
00000780: 8156 ed14 1834 ee3e 7fda f725 7b81 08bf
00000790: e6a6 0823 2bcd d93e 9bab 6a89 4856 053f
000007a0: 52df 2bb3 0d0a e13e b7c7 b5a6 54f1 d6be
000007b0: f673 d7dd 6c3e ed3e 5ac5 18f4 b6d9 aa3e
000007c0: 08f9 41ed 0408 d2be 090e a621 0fcd e7be
