data/GQYY38F8J/ens_bio/bioneuron_49/ens_bio_weights.npz (npz, 2200 bytes, 1 tensors)

weights f8 [50, 5]
00000000: e52d 120b 911d 123f 752a c19e 3bc1 0c3f
00000010: 5c5f a80b 12f3 1f3f 7dcb 17be 3f5d 00bf
00000020: a90a a1dc fe92 103f 9fa6 a4b0 cf26 53bf
00000030: e745 c993 e02b 44bf d46d 406d e4fa 50bf
00000040: 311b 8b89 e82f 3bbf 265b 3ea2 12fd 37bf
00000050: 28f2 18e8 4e66 243f 6ac8 8ee6 f50b 2cbf
00000060: b088 a491 7c59 2f3f c3b8 330d ee04 1cbf
00000070: 99d1 141b 260e 05bf 6c24 f750 2554 42bf
00000080: 7a1f 9a12 b2b3 453f aaa2 93df 3e41 32bf
00000090: 44cc 3ad7 22ce 353f b4c4 7575 0c5e 433f
000000a0: b635 aeba f805 173f adc9 7dfd 4f14 37bf
000000b0: d45f a249 40a9 e93e ad22 85f7 21fe 31bf
000000c0: 1d0b cd68 8c76 3fbf a8bb 4bb3 a3aa 2b3f
000000d0: 6b72 4d40 d02e 11bf be7c 62d3 db44 31bf
000000e0: b540 2ed4 f39d 27bf 09d2 0eee 660c 2abf
000000f0: c697 bfce abe5 123f 5e48 cf45 a5e4 e8be
00000100: b5ae 99e1 675f 1b3f 1109 127d 6251 13bf
00000110: 00cf c8ef f523 0a3f e252 906e f624 43bf
00000120: 4259 5e54 9e58 2abf 5a3f f04d 3b46 1c3f
00000130: d4b7 4513 31e3 373f 3d8e 41de a301 463f
00000140: aaf7 b401 19b6 3ebf 1908 240c ce31 413f
00000150: 9c9f 692a d536 44bf 9985 8a52 fbe7 4dbf
00000160: 99a5 a64e 4fce 3fbf 0e20 4d75 6156 edbe
00000170: 6f02 6cab b4cc f9be f12d 5bfe c3dc 1c3f
00000180: 2eb8 ea9d 218f 1ebf 6d20 e4b5 d8aa 22bf
00000190: cabe d096 b098 393f 4b9a 1bd9 ee6c 2ebf
000001a0: def8 4180 e95a 263f 6bdd 0565 3fb4 fa3e
000001b0: 65f1 0a7e 2b79 06bf 29c5 ae2a e414 403f
000001c0: 6b1a 5c78 e9d7 4bbf 37af 388f 366a 283f
000001d0: 0a81 7b99 c1e7 2ebf b4ff 4d67 4c02 07bf
000001e0: 369f 7dae 47cc 3b3f dffa cd37 5943 49bf
000001f0: 19a7 6dd5 e71a 303f 15cc 6e2d 29bb 42bf
00000200: e909 df62 87e4 3fbf 4b80 8ac5 3f16 423f
00000210: a44a 326c d421 343f 52e5 fedc 7f19 40bf
00000220: 560d a9cc ad26 2cbf 63b8 c28b 98b0 303f
00000230: 6d76 0af7 6b09 43bf 6148 14b4 f8d7 103f
00000240: 46f5 4266 c10e 083f a5c3 1a8b 4eb9 353f
00000250: c036 0500 5f4e 30bf ef68 c334 782f 3a3f
00000260: c9ac 2346 175e 3e3f c58c e36a 5d44 463f
00000270: e628 c3e5 aec9 40bf 4a5e 0d06 56fd 463f
00000280: 446e 9f53 c831 13bf 97e2 fbb3 647d 27bf
00000290: e510 1e7e ef90 21bf eecc 4da9 da72 d9be
000002a0: 95c4 3056 ce2a 0ebf b59d 64c8 d191 4cbf
000002b0: 6918 374b ad53 4bbf 6c4f 8f6f f7bc 31bf
000002c0: 2801 ae35 2663 283f af4f 23b1 d067 443f
000002d0: b8b2 2e77 be96 11bf 437b dfe6 d746 343f
000002e0: 88ae daff 4111 35bf 1a7e b45a b54e 133f
000002f0: 33bf 4832 cbe2 343f af6c b7e8 a247 3dbf
00000300: 6243 a6db 9ff1 31bf dde8 0986 622c 47bf
00000310: fb5f 36cf be5d 3bbf 0c3e 5455 11ad 49bf
00000320: ed70 4238 b4f1 243f bb6a 9b1f 91ff 26bf
00000330: 90a5 24a1 f482 003f e944 8ec3 8175 363f
00000340: 9e37 f39d e056 1fbf 71d9 e02d 3dd7 48bf
00000350: d318 f08f 7d7f 3a3f 0c37 3219 c617 3d3f
00000360: c284 98a9 6335 27bf 225c 89eb 49c2 263f
00000370: 1ff7 0342 91e2 40bf 2311 9f0e 2051 32bf
00000380: 031b 194c 959a 35bf f360 8fbc 2ef2 433f
00000390: adc9 8aee 37d2 1c3f d3aa ab54 22e6 2d3f
000003a0: 18b2 fab6 172e 463f 0b21 2192 3b29 40bf
000003b0: 41d9 a285 e03a 4abf 43ea 6465 fafe 46bf
000003c0: 587a 31ea f969 293f 2c71 98a1 a535 39bf
000003d0: ceca 25dc d78a 3a3f 06f1 b90f 38d5 41bf
000003e0: bb53 8b57 276f 233f 8e43 2212 d191 23bf
000003f0: aeac 65c5 1877 393f 7df1 cd49 5854 20bf
00000400: 47eb 4a7e 9d5c 0cbf 0592 788d 0cee 38bf
00000410: a5ba cb62 ce54 093f ac45 86fb 084e 33bf
00000420: 397e af2f df2b 19bf f741 b24e d7dd 16bf
00000430: ef7f de43 702d 22bf 3157 e552 8264 3bbf
00000440: b3f2 5117 5c14 33bf 7cc1 3a62 b764 30bf
00000450: 6a15 d686 ecf8 2b3f e3f6 6990 43c6 12bf
00000460: 5db4 6aa8 473c 3fbf 7fae 416e cb35 443f
00000470: a7c2 fffb 1a5e 343f 58a5 2688 0ee1 26bf
00000480: 1580 6ddb 7e6d 4a3f 8343 dbec 5859 053f
00000490: d416 697a 47a0 23bf e793 628f ffb0 26bf
000004a0: cede 55b6 1128 2dbf e654 a664 2e70 323f
000004b0: 1756 2601 1d30 39bf e383 f1e9 5312 41bf
000004c0: c347 4c96 1454 223f 7618 e0d3 b692 2d3f
000004d0: 2e81 7852 c50e 0c3f ca76 2522 3ed2 3cbf
000004e0: 300e 254a 84d3 313f e929 d4d0 058e 2f3f
000004f0: b5f2 f722 c71b 28bf 8fde 3108 1755 0ebf
00000500: 5915 d1aa 1596 49bf 0cb0 29ea 5895 32bf
00000510: ced6 d079 04d8 d8be 6d56 b836 8ee5 343f
00000520: 1df7 7fdb 22be 3d3f 0995 17b0 a728 44bf
00000530: f049 5f68 ebc9 393f a335 efe1 c91b 31bf
00000540: 0f4a b164 b6d7 233f e406 2e21 25a9 273f
00000550: 50c8 6e18 b720 2bbf ac16 a1b1 f9d6 29bf
00000560: c781 9dce 4ff6 023f 5f31 4390 ce7b 0e3f
00000570: efc7 9b10 383f 14bf c9f7 e708 7c22 3abf
00000580: 04ae 9968 d295 303f dc63 28c6 e6c7 0bbf
00000590: 11a5 36f8 4ef0 323f 109e 80b1 e507 27bf
000005a0: 2827 be4a 5d0c 37bf 39d5 cedf 1135 49bf
000005b0: 2a26 99d5 9311 353f 8be9 81a3 1f15 45bf
000005c0: 0747 0fdd dcc9 213f 8bbf b3dd d6f3 323f
000005d0: b8e6 b6da 18f2 2c3f 7396 263c 154b 3f3f
000005e0: cd39 ee9c 9f15 2f3f 8a4a 3725 7766 0a3f
000005f0: 6f60 9653 7fd3 0fbf 4fdd 5286 928c 0e3f
00000600: 4f95 e2e4 fbd6 2dbf f3dd ca47 5e4a 0cbf
00000610: b9e3 9d8d 487e 113f 2df3 3f21 cd78 253f
00000620: 1b3d 89c1 f549 42bf 2fb1 4802 166a 40bf
00000630: 69e0 b411 fc80 423f 05ca 978d a2ec 27bf
00000640: 0170 9c07 8736 43bf 2610 b09f e8a4 40bf
00000650: bfae 5d30 3ab7 37bf c7e0 18d3 1125 363f
00000660: 941f 25ef 28bc 223f d8b2 83db 5989 47bf
00000670: ddc8 b4ff 156f 2c3f 62d7 0474 af5e 3abf
00000680: 9c94 584c 06ab 36bf fa29 27b0 164b 42bf
00000690: d21a 0e8b 919c 3e3f 519c 9ba9 7764 fe3e
000006a0: e05f 02d1 8977 233f 1966 a9b7 5497 373f
000006b0: 3a45 ec19 c457 493f 0650 1a07 1c9a 36bf
000006c0: 5002 b54e d0e0 3abf 7daf 5815 d187 333f
000006d0: 72c5 f3ed 603b 40bf 1cc1 94c6 724f 3a3f
000006e0: 3c74 0180 d9a2 27bf 5bbe 300e 03e8 f13e
000006f0: de7a cef2 a02d 1ebf 8e4f bd9a eba1 263f
00000700: ff83 f5e7 c609 bb3e 24ce 019b 2444 313f
00000710: c3f0 fad6 f535 1fbf 8302 d32d 1133 47bf
00000720: 8bf1 abc8 b710 45bf 36f2 8a41 926b 463f
00000730: 1402 6dc7 a26c 2c3f 6018 aaa1 84f7 10bf
00000740: 8656 d846 e12c 293f a957 cd5b 4f3d e6be
00000750: 0a61 ee6a 9cb3 22bf 754e 7a82 d9b9 313f
00000760: bbf2 2881 527d 0cbf 54c5 7c1a c66b 2cbf
00000770: a41b f7fe 2ae8 3b3f 8f51 e163 1b5d 03bf
00000780: 2282 9675 f236 223f 2522 e873 daa8 3fbf
00000790: ba6c 3529 53a4 3fbf aeb4 ac43 b2c1 373f
000007a0: d049 1104 c0af 01bf 97fe 9665 983e ecbe
000007b0: 55fa b7e1 a9f1 17bf 610e 4d25 3932 f93e
000007c0: 5d5f 0ec0 a131 09bf 1715 a28e 8d84 f23e
6.91051270839609e-05 5.4845458948256475e-05 0.00012187764779303167 -3.1212337272898905e-05 6.322556069541609e-05 -0.0011689213011529043 -0.0006155821389006139 -0.0010363798837776843
-0.00041484286479624976 -0.00036603646207693447 0.0001556369134493457 -0.00021397949902063627 0.00023917813889179828 -0.0001068849845073687 -4.0159738441766786e-05 -0.0005593473633150998
0.0006622905250006493 -0.00027854714387713175 0.00033272123912836773 0.000591045459186776 8.78270208614838e-05 -0.00035216286550290404 1.2236183739397425e-05 -0.0002745469023648733
-0.00048008850062701715 0.0002110791043814207 -6.554742874471393e-05 -0.0002635037120714659 -0.0001801834242454219 -0.0001987338683001746 7.20869172138031e-05 -1.186997740801695e-05
0.00010441848316993902 -7.369197489207428e-05 4.985899247281038e-05 -0.0005842402725898222 -0.0002010052941698402 0.00010785805669421886 0.0003644938290311404 0.0006715822351108302
-0.00046861753954263263 0.0005247360316220667 -0.0006168881271379936 -0.0009126641426357329 -0.00048531948291471446 -1.3989174172515685e-05 -2.460444621999114e-05 0.0001101011872279218
-0.00011657374077842016 -0.0001424207247924277 0.0003905707479274599 -0.0002321282923311733 0.00017055607179722922 2.546700699343261e-05 -4.286445596821362e-05 0.0004907716842038934
-0.0008497133246415217 0.00018627086648003731 -0.00023578871036190218 -4.388614335137879e-05 0.0004241633418957559 -0.0007709680208874656 0.0002457443237547804 -0.0005716277181505603
-0.0004866438420060558 0.0005519687066062399 0.00030719219302814183 -0.0004913210232110699 -0.0002147757680451649 0.000254666559849853 -0.0005809571431034229 6.425338235186005e-05
4.58863039809279e-05 0.0003314797169010015 -0.00024881190622215096 0.00039955792159464173 0.00046337192738006274 0.0006795364513688887 -0.0005123237601989655 0.0007015867268859801
-7.322106549117422e-05 -0.00017921308789660827 -0.0001340191220685689 -6.067430736378416e-06 -5.753938855724523e-05 -0.0008718752222067113 -0.0008339496766261004 -0.0002706626979123081
0.00018606034685931497 0.0006227272990835165 -6.709611424921935e-05 0.0003093983749504101 -0.0003214632159635818 7.365209483056086e-05 0.0003186937413230839 -0.00044677474281025036
-0.0002738013532957354 -0.0007071953842363827 -0.00041757496293248737 -0.0007835707316718467 0.0001597912306622382 -0.000175463166491271 3.149327325708683e-05 0.00034269731582366056
-0.00011955018952677788 -0.0007580803610441178 0.0004043275402526695 0.0004439219130255446 -0.00017706719954538845 0.0001736369356588339 -0.0005152901904066121 -0.0002794936432304487
-0.0003296484465846046 0.0006087043958542801 0.00010994402294776133 0.00022811097218008186 0.0006768813891163154 -0.0004931965706953823 -0.0008004757212550022 -0.0007017824780526999
0.00019389320104586344 -0.00038466733676202863 0.00040500421541548876 -0.0005442165124374405 0.00014827113388684955 -0.00014930417188854485 0.0003885684467578959 -0.0001245839856912726
-5.4095798792860995e-05 -0.00038039976559137183 4.831557121131217e-05 -0.00029456824588533037 -9.602117272277604e-05 -8.722902900815803e-05 -0.00013868327544930235 -0.00041797811254206107
-0.00029113052671174005 -0.000250143786824551 0.00021341216362828357 -7.16189134468376e-05 -0.00047661542377392345 0.0006167643846430453 0.0003107849006474352 -0.0001745538939535256
0.0008065099162699619 4.072001102673527e-05 -0.00014973518882948364 -0.00017312163953878067 -0.00022244659627878308 0.0002813447250898507 -0.00038433750264607727 -0.0005209836707643602
0.00013983489329710664 0.00022562486441319072 5.35158126775424e-05 -0.00043977753570865737 0.00027200679518932496 0.0002407438372887393 -0.00018393331400536552 -5.785442865485518e-05
-0.0007808309361584761 -0.00028355999726303936 -5.92322785757599e-06 0.0003188583566225759 0.00045383788119567216 -0.000615198019826708 0.00039350507028959505 -0.0002610557439169608
0.00015138722878534113 0.0001805169891576009 -0.0002069686417747762 -0.00019714162846378358 3.616744090951005e-05 5.814289218761497e-05 -7.723598187306368e-05 -0.00039878395264724954
0.00025307070664012964 -5.2987795033661056e-05 0.0002889817044101221 -0.0001757114303029138 -0.00035168912540283143 -0.0007692658688173488 0.00032148226964476506 -0.000643387268623828
0.00013571568572828143 0.0002891921592000849 0.00022083810232036648 0.00047749775344594416 0.00023715566063882282 5.035449126080279e-05 -6.070358581239463e-05 5.82678046980265e-05
-0.00022765946272788404 -5.3959848604841815e-05 6.67316229775579e-05 0.0001638174441040084 -0.0005581331234426919 -0.000500927683395191 0.000564692574164927 -0.0001825283459733902
-0.00058633416412901 -0.0005079398973753021 -0.00036187334659730156 0.0003379028813443982 0.00014293670353482098 -0.0007182778126924817 0.00021693366566350502 -0.00040237220311511144
-0.00034588722005175223 -0.0005582676679350411 0.0004670958833731645 2.898449984103615e-05 0.00014852101640339035 0.00035997217461200684 0.0007734019780817677 -0.0003448790003883765
-0.0004101284564122275 0.0002980123002511643 -0.0004953597343996653 0.0004014640058640649 -0.0001803293707806369 1.707677519052621e-05 -0.00011512083865603979 0.00017267228155992378
1.611601788763456e-06 0.00026346105278849037 -0.00011905968653541919 -0.0007079919702378121 -0.0006428620702930028 0.0006842102185014634 0.0002168606476633672 -6.47234632343576e-05
0.00019207239113032767 -1.0604616244396506e-05 -0.00014268192668676793 0.00027047691626445126 -5.4339485491249635e-05 -0.00021683495764927374 0.0004258255930519822 -3.6933325177432236e-05
0.00013896665295211422 -0.0004830869037566763 -0.0004828169851031728 0.00036249735028344 -3.3734366760146775e-05 -1.3468033261853584e-05 -9.13391053742688e-05 2.4028954004563767e-05
-4.805350182052082e-05 1.765993594251167e-05
