data/W49TSML50/ens_bio/bioneuron_18/pre_weights.npz (npz, 4200 bytes, 1 tensors)

weights f8 [100, 5]
0	0xbf238e238f4c6b7a	-0.00014919456557368674
1	0xbf205d6ebb95c99f	-0.00012485481947128744
2	0xbf2702e5c0a8be6e	-0.00017556242558346445
3	0x3f29f03a1e5b12ba	0.00019789418654716178
4	0xbf2cdc801bc8e411	-0.0002201944715965192
5	0xbf3087bc6e67ba8b	-0.00025223112461862017
6	0xbf2ad0d33b7d3683	-0.00020458773155456267
7	0xbee60f8891eeacfa	-1.0519350835588935e-05
8	0xbf1c69a9e7f5a5de	-0.00010838603519904659
9	0x3f0de0bd4e90fc9a	5.698754996119014e-05
10	0xbf287c9aec822fdc	-0.00018681899223726886
11	0x3f1ef90a8ea722f6	0.0001181519216181362
12	0xbf0d42a4f34ffb56	-5.580964936057499e-05
13	0x3f32613120ccb656	0.0002804512922008664
14	0x3f149b259a0b5655	7.860581400661569e-05
15	0x3f0f8a163e438a53	6.0156635102410906e-05
16	0xbf2a3f53a4f55f66	-0.00020025154160907137
17	0x3f152545c3bad470	8.066404637470533e-05
18	0xbed0de999489cfa8	-4.022009598803675e-06
19	0xbf1bc62cbf68d9b0	-0.00010594986074683485
20	0xbf223f26e3b301b2	-0.00013921117520078252
21	0x3f209590031d1b19	0.0001265276237580541
22	0x3ee3264b1290b3e6	9.131232746007215e-06
23	0xbf2697a5021a6a56	-0.00017236603985256127
24	0xbee3ac9d3fa5bf0d	-9.381425105841755e-06
25	0xbf3102cc5d74c893	-0.00025956620580126175
26	0x3f1dfc2834a78d72	0.0001143836536026588
27	0x3f3096c9f136b37e	0.00025312834005824364
28	0x3f1e838bfa799486	0.00011640111790141476
29	0xbf240061c15ad82c	-0.00015259927083882804
30	0xbefcfb94ae0845ba	-2.7640092300334455e-05
31	0xbf13653fe62ebe33	-7.398798474755261e-05
32	0x3f2464ea0e2a82a9	0.00015559537049105357
33	0xbf158a3800325ea8	-8.216826249662446e-05
34	0xbf12f3126e2d5ad1	-7.228660574063883e-05
35	0x3f21bfe55947d02d	0.00013541865031607825
36	0xbf2626fdca1ef649	-0.00016900871292861917
37	0xbf309e8dfd8e440c	-0.00025359121860285615
38	0xbf34364329722fa2	-0.0003084100694159491
39	0xbf33a3e252d1643b	-0.00029968524433382813
40	0x3f2a5ffa0e759509	0.0002012245888451186
41	0x3f271b88874787be	0.00017629663092494184
42	0xbf31590a5d4a3dfa	-0.0002647066406007145
43	0xbf32c7da422798b8	-0.0002865703446829448
44	0x3f0b07bed28af4e7	5.1556120813847817e-05
45	0xbefdc45710b6d3fb	-2.8387979040995337e-05
46	0xbf2f3fbf75aa8846	-0.00023841106561401005
47	0xbf1511ce20017016	-8.037396037380325e-05
48	0x3f0acbcfb91825b0	5.110957784999358e-05
49	0x3f1ce1a29e8a66d9	0.00011017375039514987
50	0x3f2386560e845d96	0.00014896202561296969
51	0x3f2177e86e35bd1c	0.0001332732418677173
52	0x3f219dfae77a6d47	0.00013440788074068675
53	0x3f349ab7b8ca9427	0.00031439767261992813
54	0xbf30f87e1c0c5d46	-0.0002589519390751759
55	0xbf206ce5c24cdb7d	-0.00012531571078408166
56	0x3f2bf56465849f08	0.0002133069090259831
57	0xbf151a97d7a2b554	-8.05049111558172e-05
58	0xbf3045f6551ffbc9	-0.0002483106992485188
59	0x3f303962e0990e87	0.00024756111142585534
60	0x3f302b04e8a18b3d	0.00024670476762460645
61	0x3f2cef42d918916e	0.00022075358406071659
62	0xbf2413510b748249	-0.00015316356960061648
63	0xbf3278c76c1f15c1	-0.0002818571921319978
64	0xbf32af901f7e752d	-0.00028512257221698334
65	0xbf2d5bc686a7856e	-0.00022398756421097447
66	0xbf28293924c618cf	-0.00018433401636403507
67	0xbf333c9fbdb3b1ab	-0.0002935304634792644
68	0x3f30a623877cff4d	0.000254043268331107
69	0xbf2470d58a77c970	-0.00015595061016388965
70	0x3f2d65f7ad6f8df9	0.00022429130942135093
71	0x3f31fa102f1d1be8	0.0002743043433963131
72	0xbf2a89a4b53aafae	-0.0002024663505059121
73	0x3f233718c758163e	0.00014660050844399365
74	0x3f21c1654fa23730	0.00013546334941277318
75	0x3f32bf8d5e8662aa	0.00028607560536778964
76	0x3f201298af1212ef	0.00012262452904478842
77	0x3f32004a183f9e57	0.0002746754546465216
78	0xbef00164f262f1c2	-1.5263983322398726e-05
79	0xbf22bc29e74874a2	-0.00014293681637492667
80	0xbf001623e3fb12f6	-3.0682535450609756e-05
81	0x3f0acf72b972eadb	5.113667355645886e-05
82	0xbf160554908267b6	-8.400276795086825e-05
83	0xbf05f8b41c839832	-4.190730720825298e-05
84	0x3ede87db3da151c4	7.279083513795881e-06
85	0xbf2321c23438d7bf	-0.00014596458105281364
86	0x3f175c152b0cdf87	8.911017608858987e-05
87	0xbf20fe4e7a86b94e	-0.00012964923850007154
88	0x3f265079bf49f888	0.00017024503872059928
89	0x3f2fa85b9aef3fe1	0.00024152868488025363
90	0x3f1376942e16b157	7.424621028090848e-05
91	0xbf22b6b06d73e784	-0.00014277366310705083
92	0x3f1a6c1761447c9c	0.00010079281520746153
93	0x3eec98a1d87d97d9	1.3635740074579367e-05
94	0x3f02c1e4074156b2	3.577687394399949e-05
95	0x3f352c9fa6f10e85	0.00032309434658748414
96	0xbf16dfc3a63fbb87	-8.725768708449213e-05
97	0xbeeb748279366257	-1.3091619428349703e-05
98	0x3f34f6ad78d8fb03	0.00031987891347633207
99	0x3f1adbad166e00c2	0.00010245555823296378
100	0xbf137d3e2c02a877	-7.434551207788515e-05
101	0xbf2e1012982f2d74	-0.0002293608377768975
102	0x3f159c14fccf9194	8.243444536010772e-05
103	0xbf06bf5cb822e2c4	-4.338742930216002e-05
104	0xbf26efdb9b22fae2	-0.00017499500024161565
105	0xbf1008958b52ad02	-6.116307015939865e-05
106	0xbf121c8a61915e1d	-6.90898381362427e-05
107	0x3f0411ce3a7d3c13	3.8279634564923743e-05
108	0x3f125c4be26d160e	7.003987466899111e-05
109	0x3ef58b03b95864bd	2.0545030187422932e-05
110	0xbf234d5b4252a79a	-0.00014726389887203818
111	0xbf1e1dcd52c5ef20	-0.00011488500303430101
112	0xbf1f4b71a8861ff0	-0.00011937981810750098
113	0x3f288b301c273c16	0.000187253592299958
114	0xbf2282a51d02c367	-0.0001412226251935836
115	0x3f07ece5cd9e12d8	4.563404372873663e-05
116	0x3f2d824ea9ec591c	0.00022513590098389373
117	0xbf225c270e870a7e	-0.0001400754620260631
118	0x3f2f7aa5716693d4	0.00024016637389681508
119	0x3f149a4d166aefac	7.859321122344218e-05
120	0x3efebad8ebbac672	2.9306290101066596e-05
121	0x3f228b397c6a28fd	0.00014147831662498353
122	0x3f0926063dbe49b2	4.796701952538024e-05
123	0xbf287a5737f3a0c3	-0.0001867515056581723
124	0xbf0e5519c98f6c38	-5.785450884562181e-05
125	0x3f165d4cccab21ca	8.531361815323279e-05
126	0xbf2942ed040830e9	-0.00019272940882365051
127	0xbf2385bfd27b58bd	-0.00014894453601383374
128	0x3f2dbca5b9b9eb66	0.0002268745710017575
129	0xbf24b4513064a8cb	-0.0001579617603025329
130	0xbf2122e504384097	-0.00013073964702004358
131	0x3f2ce847e84a216c	0.00022054555678986275
132	0xbf031bcea1da6007	-3.644680348918743e-05
133	0x3f2d4d27f79f4809	0.00022355187303319004
134	0x3f2393e908aac3ee	0.0001493665661960459
135	0xbf15b70e755068ea	-8.28363966579902e-05
136	0xbf31b2b59adeff6d	-0.00027005132403345214
137	0x3f24b31a666e9190	0.00015792557971140405
138	0xbf04b875e12a3b21	-3.952131023254023e-05
139	0xbf1329f3223e961d	-7.310434790371756e-05
140	0x3f09faf6d31b3cf1	4.95535445118547e-05
141	0x3f06e3c8bdccc3f0	4.365879406121448e-05
142	0xbf1161a2026b1e77	-6.630469634238434e-05
143	0xbf147afc04dc2ab0	-7.812655641374166e-05
144	0xbef42edfd1dcf882	-1.9248106688290075e-05
145	0xbf214de25c7a48cc	-0.00013202083777181237
146	0xbf1d684fe9a833c2	-0.00011218059299995724
147	0x3f2476c7118ffb82	0.00015612773930226079
148	0x3f230166c572eb8b	0.00014500026256833125
149	0xbf18e201500601be	-9.492047320769963e-05
150	0x3ee69cb278a5b354	1.0782288673205687e-05
151	0xbf24dbfe03d6d76b	-0.0001591441704655265
152	0xbf10192fb00733d2	-6.141046106407304e-05
153	0xbf222a71356563bd	-0.00013859397831586336
154	0x3f1691d49d70d739	8.60963840388613e-05
155	0xbf1141f3f8c39fb4	-6.583263001724745e-05
156	0x3ecce1d0dedac29e	3.443013830338743e-06
157	0x3ebbebda705ed13d	1.6642392792589796e-06
158	0x3ee19aa9499a82ca	8.394310771210433e-06
159	0xbf218c87b64828ae	-0.0001338878311261718
160	0xbf27f89791dc687c	-0.0001828846952143837
161	0xbf28a66480e5e36c	-0.0001880643544145648
162	0xbedb993731f23979	-6.579994788270788e-06
163	0xbf021914f70604ea	-3.451915006547921e-05
164	0xbf28da0da0d3f3ac	-0.00018960396156577958
165	0x3eeaff4891826beb	1.2873268630910934e-05
166	0xbf1ce37881312822	-0.00011020110132267715
167	0x3ef175b6718796c0	1.6650977245810964e-05
168	0xbf03bd01015d5309	-3.764781301521774e-05
169	0xbf008ca4d6fd837f	-3.156545687833019e-05
170	0x3ef92eb73b2d0370	2.401588762812899e-05
171	0x3f195ade4b5ef10a	9.672147538614478e-05
172	0x3effab69ad3a54fa	3.020246624759347e-05
173	0x3ee0bbd178fbf5e3	7.97923328787592e-06
174	0x3efea37f56f10f58	2.9219304846130875e-05
175	0x3f1c1d9625b6a5a5	0.00010725239683630776
176	0xbec1284e363c23b9	-2.0453266403913523e-06
177	0x3f07146b30fe087c	4.4021149846266435e-05
178	0xbef481f3880e1a39	-1.9557592625863414e-05
179	0xbf2e07ba5ede6926	-0.0002291121485854055
180	0x3f181c8382022945	9.197762165250475e-05
181	0xbefc13aafe470438	-2.6776149654631816e-05
182	0xbf344c7c194aaaa9	-0.0003097346282553795
183	0xbee6918e8a3511e4	-1.0761538141176295e-05
184	0x3f2c5b7a9863afea	0.00021634933018022047
185	0x3f14d7838287f5b7	7.95053498520913e-05
186	0x3f0e235164a5adc1	5.7483598157794236e-05
187	0x3ec9d13123bc31d3	3.07764483221103e-06
188	0xbf18b6686a911a55	-9.42708235395021e-05
189	0xbf290750a193e101	-0.00019095286624071925
190	0x3f0331a5f9510cdd	3.660953294872826e-05
191	0x3f1583e845e10506	8.207421476049215e-05
192	0xbf0474a4dee18877	-3.9016038372322844e-05
193	0x3f1bfe06282f7046	0.00010678207949815872
194	0xbef3a5b5eeb2a5a7	-1.873713237602261e-05
195	0x3ee6efad191a336b	1.0936849125253817e-05
196	0x3f115a4eeb5ce3ec	6.619555173593945e-05
197	0x3f07a94e9cfc55f6	4.5130454621549536e-05
198	0xbeb47b8399e0b24f	-1.2208507551666542e-06
199	0x3f139326719727d0	7.467195646096371e-05
200	0x3f237bf94919bf34	0.0001486532024048637
201	0x3f27bb220467d4ad	0.00018105306862962103
202	0x3f201b63fad6310d	0.00012288661438864708
203	0x3f28d5db7b7fef4a	0.00018947891453524108
204	0xbf0196fa684ff050	-3.3549801663896304e-05
205	0x3eadf76ffa4032ce	8.930728552250415e-07
206	0xbed6ef76e7602614	-5.468227405111478e-06
207	0xbf1de8cadec07311	-0.0001140950986954876
208	0x3f2cdee2627b7aef	0.00022026551709238655
209	0x3f14a305318f5da3	7.872313689404621e-05
210	0x8000000000000000	-0.0
211	0x8000000000000000	-0.0
212	0x8000000000000000	-0.0
213	0x8000000000000000	-0.0
214	0x8000000000000000	-0.0
215	0x3f0f2ccba71f0e61	5.9461560240528474e-05
216	0x3f26a18379f64beb	0.0001726601594610183
217	0x3f2ac33426d2f129	0.00020418178192994324
218	0xbee1d6e39f097073	-8.506493913866737e-06
219	0x3f17f999777c6fff	9.145735918675289e-05
220	0x3f0832cc8b1d2105	4.6154849214165675e-05
221	0x3ebe540ea465dba7	1.8077104343130759e-06
222	0x3f31d71b0097d3af	0.0002722206996559851
223	0xbf27654135bf2e84	-0.0001784937002170425
224	0xbf2d08e9e61e9672	-0.00022151808940156257
225	0xbf2b4fc9344659ad	-0.00020837145906389462
226	0xbf294b1e254e4c2d	-0.00019297354688471835
227	0xbf10339659239640	-6.18038668878879e-05
228	0x3f0e635b6c4fd976	5.796072722568078e-05
229	0x3f19acf8f4d52720	9.794492253436789e-05
230	0x3f22becd21eead0e	0.00014301542338777295
231	0x3f2c726729ee6a94	0.0002170325214734993
232	0xbf216b10cd43806e	-0.00013289051151499663
233	0x3f0c8e9d17e924e0	5.446831618322891e-05
234	0x3f1f894b488cb527	0.00012030145638837875
235	0x3ef3cad7361d0794	1.887545238977264e-05
236	0x3f33f22f84f840f9	0.00030435238019867157
237	0xbf0364710147bb9e	-3.698797096151413e-05
238	0xbf32243a8f8c1a7c	-0.0002768176050697358
239	0xbf0305aafcdc8143	-3.628185332460673e-05
240	0xbf08a204924a9877	-4.698349429092888e-05
241	0xbf12a1fac69ca728	-7.107823480781135e-05
242	0x3f204af087042027	0.00012430368543214882
243	0xbeff45018832c65a	-2.982097113308209e-05
244	0xbf2b13280e110ff5	-0.000206564559478761
245	0x3f026e7657e05faf	3.5155283498677365e-05
246	0x3f09a6453f3bcd00	4.892252755253103e-05
247	0x3f1be2e3081984d5	0.00010637770358236665
248	0x3f2a43b2abef0ae6	0.0002003818135261827
249	0xbf0b8d0d93e93469	-5.2549340115428545e-05
250	0xbf032ff0164966fa	-3.6596788764510114e-05
251	0x3f11a04f20d1c521	6.723864517412362e-05
252	0x3f300e8723a9e3b7	0.0002450065545996321
253	0x3f21aa5c089a2dd3	0.000134776815958622
254	0xbf31aa3ee242a290	-0.00026954684495676066
255	0x3f30b1415f6bd8a9	0.00025470586790222544
