data/W49TSML50/ens_bio/bioneuron_15/pre_weights.npz (npz, 4200 bytes, 1 tensors)

weights f8 [100, 5]
00000000: 5bf0 1aeb 3690 103f 41b5 5131 ef6d 213f
00000010: fcc2 c790 6c66 d2be 4055 8752 2693 203f
00000020: a0af be9a e411 fc3e 5e31 492b f841 2e3f
00000030: 36fb 164b a309 303f fb2b 1c50 978d 2f3f
00000040: 91a3 cb91 4d36 e13e 7258 ce2e adc0 103f
00000050: d612 634e c62f 013f 3d53 56af dae6 2f3f
00000060: 1dac 672d bb7e 193f 3f1b d135 2ecb 20bf
00000070: 5758 9d61 29db e3be 1f02 1a70 d298 df3e
00000080: c3dc f960 c383 1d3f bc01 a682 7f1e 20bf
00000090: 0909 21f0 fd13 2e3f 8e63 5301 8ba2 14bf
000000a0: 702c dccf 4a70 313f 3fab dc18 51a1 30bf
000000b0: e132 525a 9474 313f b372 26d2 706c d83e
000000c0: 5290 4c40 072d f1be bdfc 8d90 2b7d 223f
000000d0: 6668 ebee 74f4 263f d7f6 8450 4b01 15bf
000000e0: 24dc b293 1369 243f 90b4 b08d a7fc f1be
000000f0: 98ae be29 a6ed 1a3f e820 3b2c 27b5 12bf
00000100: e505 d8db afde 21bf 103b a089 dbab 1dbf
00000110: 5f9b 0bb2 2386 33bf 2860 4fcc 7028 193f
00000120: 8d8e 6a47 ac55 183f 584f de02 c7b5 153f
00000130: 1f1b 0325 3887 263f 9173 38f8 6094 1f3f
00000140: f737 083d 7d19 0c3f 04f2 f505 e3d9 1e3f
00000150: dd69 520c 6bad 273f f22f b866 ea76 20bf
00000160: 3656 3e6b 9b62 183f 9ba3 2ef3 fcd5 143f
00000170: 2278 2295 08c7 f93e 7254 4b74 ee16 2bbf
00000180: 21ef 08e5 cd77 253f 6d82 5b9f 31c4 133f
00000190: 121e 87f3 feb0 2c3f 2ee1 fb4e bed1 143f
000001a0: 785f 99d6 f4d9 e6be 6a30 1a68 67e6 e03e
000001b0: 83ee 74f5 e9ce 03bf 345b b634 ed0a 16bf
000001c0: 10a7 7cea 578e 2fbf 54cc 0930 1e0a 28bf
000001d0: ad33 085e 35de 2d3f c23d 9588 11f5 30bf
000001e0: 1c60 8524 7ed1 323f f32e c4ba 914b 26bf
000001f0: f9c5 ad87 9d09 31bf 27af 4c41 cdc4 2bbf
00000200: 7d8f 594d 7e86 223f 1f22 6d6d 2f65 183f
00000210: 455e e4fa 871d 1ebf 706d 629b 7245 30bf
00000220: d85a a207 8f4d 213f 52d0 c455 9379 20bf
00000230: 3685 c4f9 0a6a 17bf 74fe 076b 8b57 0c3f
00000240: 2a1a 361d da40 f93e 7b7c b564 07ed 2ebf
00000250: a205 33a4 a2bc 06bf c33d 2d57 c291 0f3f
00000260: 36f5 716e c456 32bf f926 a2c8 0e67 213f
00000270: 2e82 2fc6 cb64 26bf 3aff 7e84 c695 293f
00000280: ca88 d5a0 33b9 26bf 6d54 4e4f 5327 0bbf
00000290: 9795 27ef 7b41 27bf 7fdc 134b 70bf e2be
000002a0: 15ee 0e47 852a 203f 6413 58f6 2489 30bf
000002b0: 995a 3066 7704 e2be dd4d 3aa2 66d2 2dbf
000002c0: 59e3 39eb 719c 253f 74a0 4d2c 74b5 26bf
000002d0: 9850 b410 e8d1 01bf 7a0c 735f 5668 fabe
000002e0: eebf 3e12 b5e3 d03e 1c8d e726 6c91 20bf
000002f0: f2c0 85e3 b864 27bf ad98 2a75 6d5f 1b3f
00000300: 74f6 1f75 9586 36bf 8071 5496 4c13 273f
00000310: 81b0 c792 5d54 323f 04eb d3e0 ed06 2bbf
00000320: 173b f701 4753 24bf 8327 43d4 a5be 263f
00000330: c162 d4a4 d37b 21bf a6a6 ad7e 4eb1 27bf
00000340: 60d7 b805 9f05 f13e 0bc2 6a93 0a7a 10bf
00000350: f999 77dd 5f4f 0abf 1970 76d3 3ccb b5be
00000360: f657 1271 5feb 00bf 8e10 c138 26ff f5be
00000370: f7d8 7ea1 a5ec 313f e205 2eec 3d3c 1e3f
00000380: 7e34 16b7 ca1f 0cbf cac8 466c 6605 043f
00000390: 22f2 4a7f facb 303f e09b edec 9409 1f3f
000003a0: a97a 935e 1477 223f 5147 3eba 1d0f 323f
000003b0: fceb 310d 0082 31bf 9198 16b7 d5f0 0c3f
000003c0: 76cc 7d16 486f 253f 32a1 4d52 65ae 233f
000003d0: e2be 9f0c a9b7 21bf 88d0 6f93 0636 ca3e
000003e0: d520 d5d4 161a 193f ee5d e35b 901b de3e
000003f0: 3385 1e3b fb66 193f 7e11 de6b 2e81 a5be
00000400: ca20 6b56 0c63 193f 8a18 f2ea 4a01 2dbf
00000410: 57ac 02be b6d3 273f 8e1d 3d85 87ad 163f
00000420: 0ad3 bbc5 3f03 313f b421 ddde 7f4f 163f
00000430: 0131 ab25 16fb 1bbf bc34 b783 a47c 2dbf
00000440: 15c9 13dc e89d 303f 2392 3139 2924 19bf
00000450: 07db 2ee5 cff0 31bf 6347 c1d2 97a8 1cbf
00000460: 6178 a38f 4f08 173f fc48 ee8a 5ac0 f5be
00000470: 9091 dc7d 93e8 17bf 1fdb e4fa 962c 02bf
00000480: b628 eb28 c451 e2be 84a6 f8ac 1267 15bf
00000490: caf5 337f fbb4 03bf aece 5fcc 5c34 373f
000004a0: d178 6158 7d0e 10bf 8b19 8eed eb63 f0be
000004b0: 76f3 2105 d380 103f faab 92a3 94fc 23bf
000004c0: bc24 6d56 d858 043f 7283 9f81 565c 25bf
000004d0: 5059 ce05 e725 233f 88fb 4c8b 23d0 2e3f
000004e0: e8f3 7603 ebf0 e9be e4ec 6d77 553c 193f
000004f0: 7b78 4162 2284 193f cc46 5f90 4577 f1be
00000500: 3005 870f 06f8 68be dc02 bd78 57de 2b3f
00000510: a164 2d82 9d4f 263f 7ce2 0ede 39fb 10bf
00000520: 5826 3623 a452 2e3f c5e8 4d61 63ba 26bf
00000530: 6f9a 75bb f9f3 fa3e ff01 8f67 a337 23bf
00000540: 6a0d 2e9a 368e 1b3f 5f67 a0af 9f27 22bf
00000550: 0654 6c32 3b7b 0cbf 3664 5d6f 04b9 1c3f
00000560: f2f7 3a34 9616 e3be 063d 9f5d 815b b43e
00000570: 38ff 1198 df38 193f 545d e142 c731 fa3e
00000580: bc80 4769 f65e 2f3f 2305 185d 1319 0f3f
00000590: 238a 6fdc b7e3 323f 7d5e 0f5a 4b09 1dbf
000005a0: bf56 dcb3 fae9 2e3f 1d5b 9a29 3aab 123f
000005b0: ba95 32c9 6e11 0a3f 5d4c 9801 04be 033f
000005c0: 96b9 8201 3d67 313f 5f30 b4e3 479c 03bf
000005d0: e995 8c6b aed7 e6be b9c3 a6d9 186c 00bf
000005e0: 82f8 f715 cc71 1dbf daf9 feed 38b3 243f
000005f0: 83a1 2a56 6103 33bf 747d 8abc 6066 2ebf
00000600: c1ae 19e8 14d1 12bf 4f19 dc10 b5b4 173f
00000610: 25aa 0bc9 818f 2d3f 0ee4 6673 97a1 01bf
00000620: 8c61 1404 eebc 203f 4375 86bc fc8c 15bf
00000630: b351 739b bd00 02bf 5b4a a901 b7c1 083f
00000640: 9bf9 0c4a ec78 2bbf 7320 fa6a 0a99 1cbf
00000650: b991 cbd9 87b0 09bf 5bcc ee2d f6d9 153f
00000660: e7d2 b0d8 1018 11bf 8483 7c9e 4462 193f
00000670: fde0 fa6a 0289 143f 1e8b 1445 738f 0dbf
00000680: f32b f8ac 0ce3 103f 6cb7 722c e2de 213f
00000690: 0000 0000 0000 0080 0000 0000 0000 0080
000006a0: 0000 0000 0000 0000 0000 0000 0000 0000
000006b0: 0000 0000 0000 0080 445f 147b d593 16bf
000006c0: 2d62 606f cddc 1d3f e2ea 3afe 8dce 173f
000006d0: c7fe 1945 77b6 183f 593f 3a3e 5c89 df3e
000006e0: 0a88 7d34 9f1d 243f c335 3ded 8229 213f
000006f0: a069 4ce4 7284 2ebf e0af ccf1 5e6a 293f
00000700: a4ca b047 8796 1b3f 6017 3d92 5698 21bf
00000710: c916 b9ac 14c9 293f e0cc 2e92 6fab 22bf
00000720: 5d88 ed42 cb32 1cbf c1b8 82f9 eea3 253f
00000730: a13b 25cc 9c6f 053f 655a 0667 3cec f23e
00000740: 2cdb cc20 a566 173f d85d 9eb5 3c05 183f
00000750: d0ba eb5d 9cdb 133f c60d bf9b 8eb9 31bf
00000760: c343 10dc 08b5 2e3f ab3e bd8e ddab 233f
00000770: e889 7c81 4866 0abf a81b 4091 a455 113f
00000780: a188 edf2 e061 213f ba28 3fca 3a64 163f
00000790: ee6f e7ca 7278 2dbf da2f a3e8 c862 073f
000007a0: 2eec 407d 4950 1c3f 4815 3c31 2c8b 2dbf
000007b0: ddc0 b45c 97b7 21bf 1dad 6064 b662 22bf
000007c0: 0ec1 179c 4777 303f 420b 5123 9939 203f
000007d0: 099c e131 f71d 313f a1e8 4646 4629 2ebf
000007e0: d166 ba0b 6859 2b3f e3e3 42b2 4a26 31bf
000007f0: 9c2d c668 c3c9 20bf f2dd f772 0660 17bf
6.318412013234366e-05 0.00013297600586118823 -4.386924285602148e-06 0.00012645571520290312 2.676953742734823e-05 0.00023084787757666597 0.0002447150864916427 0.00024073097306884214
8.20737892000422e-06 6.390625976701746e-05 3.27808755158692e-05 0.00024339122289220887 9.725587310753553e-05 -0.00012812556352256342 -9.468126382177764e-06 7.5333025520989575e-06
0.00011258964536319236 -0.00012297922632954577 0.0002294776423373351 -7.871602459220818e-05 0.0002660925527925911 -0.0002537558547028202 0.00026634809393825785 5.823039176536151e-06
-1.638020696072301e-05 0.00014105946345563904 0.00017513205917546736 -8.012792762187734e-05 0.00015571941353240235 -1.7153674758120312e-05 0.00010272337607258387 -7.136394111307046e-05
-0.0001363362952560419 -0.00011318709803752 -0.0002979123255912232 9.597004380113071e-05 9.282936103232661e-05 8.281733673093144e-05 0.00017187652929903042 0.0001204666314653226
5.3595671151027086e-05 0.00011768768444215405 0.00018064433803462082 -0.00012561427443846769 9.30220947437881e-05 7.94826162705667e-05 2.4583315572195123e-05 -0.00020667706316737953
0.00016378773081437376 7.540276404994504e-05 0.0002188979358506015 7.941936541644844e-05 -1.0896392910783362e-05 8.058555297972738e-06 -3.778125272410357e-05 -8.408615865672099e-05
-0.00024075339501310926 -0.00018340700627880963 0.0002278747697491956 -0.00025874784531240366 0.000287144943759811 -0.00017009881901974104 -0.0002599725336756838 -0.0002118588023675091
0.0001413373162676388 9.3060512296302e-05 -0.0001148809667238455 -0.00024828002950424196 0.0001320111367177554 -0.00012569354556435597 -8.931819906312231e-05 5.4058019831157526e-05
2.4083450467249846e-05 -0.000235945847047756 -4.336711256193038e-05 6.02137978576961e-05 -0.0002798299378311166 0.0001327710672891986 -0.00017085063436096795 0.0001951985198029806
-0.00017336611964952612 -5.179141036319103e-05 -0.00017742765301346767 -8.939651112245407e-06 0.00012333752559166912 -0.0002523150672860046 -8.591388171591985e-06 -0.0002275228772431322
0.00016487970934855425 -0.00017325442436378106 -3.398885209030081e-05 -2.518421930798292e-05 4.026766223505492e-06 -0.00012640423979269004 -0.00017847783034197863 0.00010441880776088332
-0.0003437151800652412 0.00017605123427067923 0.0002796867800316586 -0.0002062001589491978 -0.00015506974976494593 0.00017352842599499202 -0.00013339003127368044 -0.00018076022328310687
1.623340391017998e-05 -6.285371351100897e-05 -5.0182450362080225e-05 -1.299017481893287e-06 -3.2271242283929346e-05 -2.097766586951814e-05 0.000273504674164995 0.0001153385920087606
-5.3642629505559224e-05 3.818720645955424e-05 0.00025629869132240597 0.00011839839429016131 0.00014087794924129885 0.0002755591942725693 -0.0002671480298840898 5.520012099262493e-05
0.00016353373507236078 0.00015015589556389427 -0.00013517321195832046 3.124599199372651e-06 9.575619079272024e-05 7.178228257318892e-06 9.690197364744107e-05 -6.408874566465073e-07
9.684336474003182e-05 -0.00022129096530338163 0.00018178563823787144 8.650912905948922e-05 0.00025959307616511883 8.510797462436029e-05 -0.00010673830676494538 -0.00022496708139244602
0.00025355277109819055 -9.590627296202822e-05 -0.00027375293319258125 -0.00010932375579500229 8.786187746376426e-05 -2.0743733951508213e-05 -9.120369165011564e-05 -3.466449503480004e-05
-8.735370355412611e-06 -8.164454924810589e-05 -3.7588048053631746e-05 0.0003540731962623317 -6.125106855978396e-05 -1.5631026005569155e-05 6.295478786628818e-05 -0.00015248598518743923
3.880892000169544e-05 -0.00016296916947935617 0.00014608807660172274 0.0002350848568770348 -1.2369673739404425e-05 9.626647611853421e-05 9.733638631945374e-05 -1.6656785213181935e-05
-4.650809332400728e-08 0.0002126199509522507 0.00017021939955944468 -6.477871603650405e-05 0.00023134473449841725 -0.00017340148101735987 2.5704411851813104e-05 -0.00014661664661554105
0.00010511596933153946 -0.00013850998203751138 -5.4323905990617856e-05 0.00010956849641043171 -9.101977077260297e-06 1.2133981415090918e-06 9.621491155264734e-05 2.498097108402421e-05
0.00023934133481784924 5.9314635688432234e-05 0.00028823126598190497 -0.00011076471720571943 0.00023585496267546598 7.121603484914721e-05 4.972094861814152e-05 3.765535093349572e-05
0.0002655528965175511 -3.7404006855452176e-05 -1.0892155260909318e-05 -3.1322964065500854e-05 -0.00011232193127594557 0.00015792913381847026 -0.00029011846906226035 -0.00023193293443045002
-7.178011039748589e-05 9.043078554435878e-05 0.00022552928250914417 -3.362887803199525e-05 0.00012770085781067494 -8.220951634148759e-05 -3.4337793687253154e-05 4.721965543254678e-05
-0.00020959743872057683 -0.00010909200750053461 -4.8998971782929437e-05 8.335652408568551e-05 -6.520846197661697e-05 9.683173959419532e-05 7.833554513581374e-05 -5.638189817094005e-05
6.441845766162728e-05 0.0001363421526767121 -0.0 -0.0 0.0 0.0 -0.0 -8.612623675607634e-05
0.00011391643406034246 9.081594140073924e-05 9.427168813580098e-05 7.518902723227386e-06 0.00015347069188026446 0.00013093684412483598 -0.0002328291176574961 0.00019390496245230617
0.00010523987468572888 -0.00013423973825349 0.00019672753693294177 -0.00014243828726776594 -0.00010756841286999179 0.0001651028840163379 4.088589914152193e-05 1.804618517694603e-05
8.92675672731046e-05 9.163077393591708e-05 7.575170409855202e-05 -0.00027045947694778435 0.00023427708768555656 0.00015008048591845977 -5.035313387071247e-05 6.612603129961417e-05
0.00013261671980574922 8.541687799304673e-05 -0.00022484208370954169 4.4605022667093284e-05 0.00010800789397162676 -0.0002254001088816493 -0.00013517115289963288 -0.0001402709623915332
0.00025125025066953597 0.00012378687248045846 0.0002611855032967352 -0.00023011191218619712 0.00020865817156306155 -0.0002616817821592938 -0.00012808332793344264 -8.916892397069895e-05
