data/UE7GEKCGH/ens_bio/eval_480_bioneuron_31/ens_bio_weights.npz (npz, 2200 bytes, 1 tensors)

weights f8 [50, 5]
000000 d3 aa 50 cd 77 18 f2 be 87 46 16 c8 bc bd f4 3e
       -1.7257288011200363e-05 1.978031332822716e-05
000010 0f 26 a4 e5 4d 90 e5 3e 5f 13 f6 89 a5 97 e1 be
       1.0282367999286797e-05 -8.388695561087419e-06
000020 e0 85 2d 0e 5e 4c d2 be 69 eb 16 9b fa de 21 3f
       -4.362657110985765e-06 0.00013634499695832782
000030 2a a2 ce a2 e0 49 04 3f 9f 28 75 3c 0b fd 12 3f
       3.8697402806879146e-05 7.243519859404184e-05
000040 2e a3 6f 32 df a9 19 3f 57 bb 08 2d 0c ef dd 3e
       9.789871965860668e-05 7.136769184997271e-06
000050 86 82 a3 97 9c 9c ed be 50 27 96 4d e8 1c e1 be
       -1.4119989590389832e-05 -8.160075980940103e-06
000060 3f 29 0b b7 e3 7e f8 3e 6f 56 ab 02 46 65 df 3e
       2.3360883860936958e-05 7.485294228633956e-06
000070 88 ac f5 51 37 af f0 be 61 13 41 c1 c1 18 18 3f
       -1.5911519878935898e-05 9.192164026312683e-05
000080 fb 03 4b cc 61 65 fd 3e f5 3a c4 5d fb 7b 13 3f
       2.80342326444173e-05 7.432672231664688e-05
000090 2d 58 61 cc 3e 54 15 3f 93 bc f0 10 aa c0 07 3f
       8.136399546407386e-05 4.530447960637246e-05
0000a0 1e 8d cf 79 af 9a ed be 1e 7a 37 36 88 71 dc be
       -1.4116401695524332e-05 -6.7814552013588114e-06
0000b0 f9 a1 df 98 46 08 d4 be b9 46 52 88 16 d8 11 bf
       -4.776078993608696e-06 -6.806981589793205e-05
0000c0 7c 72 3b 3a 99 2c f7 be 3e aa e1 a5 a9 b1 e6 3e
       -2.210065180362424e-05 1.0821340023355331e-05
0000d0 71 52 aa 94 6d df ea be 85 8e 52 39 e2 94 f5 3e
       -1.281393328626224e-05 2.0581795599951373e-05
0000e0 4e a0 2c 27 bc 60 00 bf ed f4 81 c8 96 e3 04 bf
       -3.1238309836035234e-05 -3.984264282140015e-05
0000f0 7a 2e cb 2e 04 e5 e2 be af ff 50 6c f6 2a e9 be
       -9.009645020616913e-06 -1.2000953015456202e-05
000100 b2 8d da bb a5 13 c8 3e a5 b9 e6 7b a1 45 b6 be
       2.870171981710176e-06 -1.3275143683034337e-06
000110 c3 aa c4 ce 41 e9 e7 3e 51 b7 6d 12 19 bf 00 bf
       1.140172977239418e-05 -3.1941368709860676e-05
000120 df 32 8a 7f 53 49 17 3f 2b f4 cc d8 60 b0 0f bf
       8.88306821115836e-05 -6.044192841734465e-05
000130 f6 4c ff db 1c b6 f5 3e 9a b8 c9 8a 32 b1 15 bf
       2.070558343787457e-05 -8.274909004921325e-05
000140 17 e7 4c 0f bb 58 fb be ad 82 07 ac c7 3e e3 be
       -2.6079754167108214e-05 -9.176842810044767e-06
000150 c3 bd 28 f5 2f b6 00 3f b2 98 0d ab 77 2c 15 bf
       3.18749795450396e-05 -8.077125927527759e-05
000160 3c 12 20 ec b4 95 17 bf 60 97 b9 61 c7 45 e7 be
       -8.99688411948951e-05 -1.1097227847044623e-05
000170 e0 19 9f b3 3c f3 d3 be f3 a0 63 6a e7 17 e8 be
       -4.756485219864552e-06 -1.1488616405278397e-05
000180 37 3f 89 1b 90 90 f3 3e 77 7b e4 71 6f e6 df be
       1.86583508557374e-05 -7.605585578467482e-06
000190 02 76 c0 dd 4e 12 e2 be 9d e6 c8 b4 8d 4c a7 be
       -8.617170287601557e-06 -6.943654198905749e-07
0001a0 c6 d6 f0 79 b3 f3 f1 3e 89 cc ea 61 c4 44 03 bf
       1.7120320645789046e-05 -3.6751978986692786e-05
0001b0 7b 9d a3 09 8e 9f e5 be 22 e8 5d bc 91 5f 10 bf
       -1.0310774360934878e-05 -6.245924950390493e-05
0001c0 75 9c 5f 17 a6 13 10 3f 4b cc 39 0d 67 32 15 3f
       6.132794609890905e-05 8.08596990340842e-05
0001d0 ed 3b 46 86 29 3e 12 3f 4e 8b 79 a7 ea 61 05 3f
       6.959083981981891e-05 4.0783856942969336e-05
0001e0 b2 e7 37 ed f4 89 04 bf cc 45 b5 1c 6d 7e 0f 3f
       -3.917483050126738e-05 6.006975635365237e-05
0001f0 99 f3 ce 21 05 6c ed 3e 12 b4 15 38 50 cc ea 3e
       1.4029480604688288e-05 1.277832939435879e-05
000200 52 42 5a 01 4a 72 02 bf e6 4d ab 8c 24 d9 06 bf
       -3.518379541589803e-05 -4.357950964153558e-05
000210 3a 7d 7d 91 7f 5d 13 bf 91 86 36 ff 04 d6 01 bf
       -7.387248149147855e-05 -3.40194964352339e-05
000220 df 61 50 ae 27 c1 01 3f 4e 53 43 cf ab c6 02 bf
       3.386404367961329e-05 -3.5812490666897915e-05
000230 2c b8 28 a5 1f 12 0f 3f 51 8f 1c 62 8f 5c e0 be
       5.926283906308757e-05 -7.801801135416379e-06
000240 c5 99 d8 04 5d 41 ed 3e 42 69 94 46 88 d5 ed be
       1.3950026324383098e-05 -1.4226012540908957e-05
000250 35 b2 cd a6 e6 d3 f3 3e 62 76 ae a5 6a 72 f6 3e
       1.8909204686877983e-05 2.140706997587892e-05
000260 59 fd b6 4a 5b f2 13 3f 05 89 8a 93 7b 5d fd 3e
       7.609064294110869e-05 2.800480544585487e-05
000270 7d e1 ad c0 9b 19 10 bf 4f 1b 09 7d 22 fe fe 3e
       -6.141675127747065e-05 2.9556955100564036e-05
000280 ca 15 df 0b 1f 1f ef 3e 7b e9 45 1a 16 6d e5 be
       1.4839919796015301e-05 -1.0216769461325551e-05
000290 2e 61 e9 db 38 28 da be 13 95 da f1 41 cf 03 bf
       -6.236342811570795e-06 -3.778381345157836e-05
0002a0 4a 87 3e 0c ae c1 01 bf f4 2e fc 81 9d 02 19 3f
       -3.386795427152854e-05 9.54064021209641e-05
0002b0 ca 34 57 47 ac c3 17 3f 90 00 7e 23 a8 8f 18 3f
       9.065379148083804e-05 9.369338738274475e-05
0002c0 74 12 41 2e c1 44 12 bf 63 5a cb 59 c3 d5 cf be
       -6.968907433797263e-05 -3.795029171231675e-06
0002d0 2f 6f b0 af ec ea f1 3e 92 21 22 d8 d2 de f3 3e
       1.708762554751482e-05 1.894989464593236e-05
0002e0 87 8b 68 fd 4f 0e 08 3f 0e 08 f4 da 6c 50 00 3f
       4.588300332766028e-05 3.11167926785456e-05
0002f0 65 f8 6d 2c f4 de f3 be d6 18 7c 52 84 97 06 bf
       -1.8950379650821756e-05 -4.3090558675061626e-05
000300 a6 05 ac d6 76 3f f2 be 10 66 aa d6 af ca 11 3f
       -1.7402560312800755e-05 6.787012322675306e-05
000310 7f b8 50 4a 6e a0 fd be b6 21 3b ca 92 f2 e5 3e
       -2.8254206558546866e-05 1.0465408485941428e-05
000320 8c 02 53 f8 0e 7a 11 3f 2d ef d0 97 8e f9 f3 be
       6.666866655092636e-05 -1.9049484297747172e-05
000330 1d d1 d0 12 e2 db e2 be 49 e8 53 ff 33 4e 06 3f
       -8.992633036532732e-06 4.2544328531194326e-05
000340 b8 61 0b ec 67 b1 00 bf 16 65 a7 0a 6e d4 08 3f
       -3.183935542034076e-05 4.7359092906604724e-05
000350 26 98 39 92 07 d4 06 bf b7 bd c2 16 0a 3c 0b bf
       -4.3541413359091376e-05 -5.1945741547650336e-05
000360 ec 65 63 1b 3e d3 11 3f c5 8e db 5e 78 c3 0c 3f
       6.7997613629876e-05 5.48621281788709e-05
000370 0c 2b 8c 60 50 22 00 3f a9 bf 2f 9b a2 b3 08 bf
       3.0773237147915534e-05 -4.711475357754787e-05
000380 57 19 67 f9 85 59 0d 3f e9 15 8f 84 f0 c5 fd be
       5.5980111187947205e-05 -2.8393937359335727e-05
000390 21 01 32 95 85 99 0d bf 9d 15 a1 a3 74 26 15 bf
       -5.645693695388783e-05 -8.068167599713798e-05
0003a0 76 7c 7e 8d 59 da 05 bf 8c 85 3d e5 11 56 f6 be
       -4.168115418611781e-05 -2.130147033996758e-05
0003b0 31 07 91 25 98 51 f0 3e d5 f0 d7 5c 17 01 11 bf
       1.556275160319933e-05 -6.486611456319191e-05
0003c0 de a5 38 db 1b f6 fb be f8 d8 cd 35 a0 19 08 3f
       -2.6666033319388642e-05 4.596729443211324e-05
0003d0 7d d4 59 d7 07 c9 ec 3e 8f b9 ee 27 f9 5c 06 bf
       1.3725889157026886e-05 -4.2654374730377515e-05
0003e0 ec 57 d7 48 b5 69 06 bf 5b 86 d7 77 a2 6d 10 bf
       -4.274925695894869e-05 -6.266883971008925e-05
0003f0 a0 ca c6 5b 8a d6 ea 3e da 12 17 c7 14 54 04 3f
       1.279737886581328e-05 3.87734261369282e-05
000400 8d b8 08 91 a6 1d 0c 3f 5a fe fe 52 87 a8 09 3f
       5.362667628038094e-05 4.8939351813267944e-05
000410 69 7c b5 42 ed e9 f2 3e 9f 6d 29 a5 c1 76 e8 be
       1.8037582930726876e-05 -1.1665292878485301e-05
000420 40 f6 88 52 c5 04 ea be 11 5f be fe 68 11 e3 be
       -1.2406652403314168e-05 -9.092334913237838e-06
000430 60 a0 e8 e2 c8 5f e1 3e 85 04 46 3d b8 14 d2 3e
       8.28464461928596e-06 4.310831134169838e-06
000440 53 b8 54 19 da 2c e0 3e 12 4d 0e 78 4d c7 fc be
       7.712937796524601e-06 -2.744534095062724e-05
000450 57 fc aa 5d bb 4c fa 3e 06 26 fe 69 e6 31 fc be
       2.5081380821797717e-05 -2.6888773049493448e-05
000460 0e a2 46 be 1d 92 02 3f 0a 08 87 fc 0b 60 15 bf
       3.5420925800725656e-05 -8.153985175510261e-05
000470 f9 c6 d1 5f 0a 05 0f 3f 38 45 3d 13 74 f4 b3 3e
       5.916536245188608e-05 1.189404497521229e-06
000480 b8 49 13 e9 a3 23 14 bf d7 65 cc cc 8c 79 02 3f
       -7.68250267982111e-05 3.5237893462002484e-05
000490 39 82 8d 38 b4 81 e7 be d0 b0 f6 ab 7f b3 df be
       -1.120884714261957e-05 -7.558147160063348e-06
0004a0 15 5f c3 d4 62 76 02 3f cd f0 7d 06 a2 c8 fe 3e
       3.5214320264818706e-05 2.935764533117183e-05
0004b0 48 2e 37 01 1d 86 e5 3e 27 4f cd c2 bb 78 03 3f
       1.0263385809581392e-05 3.713915825778588e-05
0004c0 5c 43 b1 bc dd c8 04 bf 3a eb b4 8f a1 e3 07 3f
       -3.9643542174011835e-05 4.556500240445465e-05
0004d0 0a 9e d8 19 d5 5f 03 bf c9 ad 68 19 68 59 ec 3e
       -3.6953631234400914e-05 1.3517973269725353e-05
0004e0 57 42 cf b8 c1 a9 bf 3e 23 51 1e eb 32 e0 05 3f
       1.8872685558676708e-06 4.1724733264166565e-05
0004f0 80 c0 86 92 1b 54 03 3f 37 3c 96 a3 4f ed e5 be
       3.686627525512163e-05 -1.0455606672702979e-05
000500 af 01 04 89 00 b4 03 bf 4d d7 8c c6 4d f5 0b bf
       -3.7580744107759834e-05 -5.332606889966885e-05
000510 83 a9 96 b7 ec 68 14 3f d1 ae 15 fe 0a 22 12 3f
       7.785744482783322e-05 6.917183011062178e-05
000520 10 7d 6c 25 8e 85 11 3f b2 21 df 13 48 0b f2 be
       6.683998195143961e-05 -1.7208164756062155e-05
000530 84 e9 79 c6 5d 21 fe 3e 10 88 ac 67 61 f3 08 bf
       2.8734528682219855e-05 -4.7589693130470454e-05
000540 b4 e3 1d 9c 21 3e f8 3e f0 98 4f b6 db e4 0a 3f
       2.311964067966731e-05 5.1296191294446475e-05
000550 13 5b 0e 90 dd 9b f5 3e e3 fa 77 0e 5f 94 fb 3e
       2.060780480269825e-05 2.630193276153659e-05
000560 9b 96 84 62 28 22 01 bf d8 7c 4e 10 9b 97 ff 3e
       -3.267942185151731e-05 3.012867911744436e-05
000570 85 3b e4 4f af e2 db 3e 5e ea 1e 50 7a d3 eb 3e
       6.648418319223498e-06 1.3268511341970101e-05
000580 29 49 33 c2 c5 7a 0a 3f 62 39 77 de d3 bb 04 bf
       5.0505790818571664e-05 -3.954639742752526e-05
000590 b0 b9 7d 13 12 16 0a 3f 53 0a 3c 3b 5c 97 04 bf
       4.975550331108873e-05 -3.9274694612974205e-05
0005a0 fd d4 e1 9a 0c ec c1 be ce 8a 5a db 28 99 0a 3f
       -2.13647691454466e-06 5.073219237529889e-05
0005b0 ae 7f 0a ff 52 94 1b 3f ba b0 d7 03 72 01 c9 be
       0.00010520702904637136 -2.9809052921517348e-06
0005c0 b8 43 c0 16 dd ac 17 3f 15 e5 eb dc 96 c0 06 bf
       9.031390590076474e-05 -4.339657208691554e-05
0005d0 1d c2 4b 2a d5 1e 07 bf e4 38 bd a2 62 ea 0c 3f
       -4.409873989697311e-05 5.51520682551142e-05
0005e0 5f 45 7a 59 d0 8d ed 3e a8 6b c9 de 46 1a 11 bf
       1.4092426496222885e-05 -6.52414088987823e-05
0005f0 d5 f4 a4 79 9a 75 dc be 80 f1 54 60 fa dc c2 3e
       -6.785246933480392e-06 2.2486681269513298e-06
000600 20 7a 26 f9 a7 1e e3 be f2 d0 21 1e 29 63 94 be
       -9.117007526535331e-06 -3.0379513139075565e-07
000610 82 c4 d5 37 6a 37 f8 be f3 ec 63 d4 9d bc f5 be
       -2.3094620237033594e-05 -2.072981194432568e-05
000620 99 2c 62 8f 23 51 05 3f 23 3c a1 42 e8 b8 0e 3f
       4.065885325229522e-05 5.859812547780892e-05
000630 c6 e7 dd 1c 4e 1b 00 bf fb 40 1b f6 b0 08 14 3f
       -3.07210171816698e-05 7.642345510850197e-05
000640 22 47 1e 40 55 44 0d bf 16 3a 93 42 43 1d 13 bf
       -5.582223094714583e-05 -7.291529677220412e-05
000650 e1 d7 53 6d 9d 5b 06 3f 14 54 0d 5b bd b4 20 bf
       4.264425448667598e-05 -0.00012745677443129543
000660 aa 53 39 98 06 51 09 3f 27 e2 12 af 23 59 c9 3e
       4.828740477750362e-05 3.0217410019429516e-06
000670 22 5a ed 20 08 de 01 3f 42 41 10 4b 58 5a 0a 3f
       3.407919222435755e-05 5.02641863776598e-05
000680 27 bb e6 15 59 ac 0b 3f 8b 9b b3 c2 f4 2d 13 3f
       5.2782505679407816e-05 7.316404723987765e-05
000690 79 5e c8 6f bb 36 e1 be 11 fc e2 68 ad 74 1d 3f
       -8.208178308640627e-06 0.00011236484917541446
0006a0 16 fa e8 94 8b f1 fe 3e 15 17 0d 34 c0 49 11 bf
       2.951005563489082e-05 -6.594882598872879e-05
0006b0 07 f6 5e 9d 03 48 18 bf ea b3 5c 10 b5 39 f1 3e
       -9.262582838594917e-05 1.642743975265377e-05
0006c0 e8 2f 4e 90 26 01 0c bf 7b df 8f 50 a0 38 05 3f
       -5.3414334650530974e-05 4.047621957420276e-05
0006d0 3c a4 f8 f2 13 ca 11 bf a0 31 e5 54 fd d5 03 3f
       -6.786104926760709e-05 3.783397061116471e-05
0006e0 06 3b fe 8e 41 b0 f0 3e 7f 01 15 1b 19 59 f1 3e
       1.5915394157735143e-05 1.6544379552786613e-05
0006f0 1f 82 5f dd ae 04 ef 3e 64 13 65 27 15 15 ac 3e
       1.479067479332e-05 8.369193682874736e-07
000700 2e bb b9 72 dc 47 f4 be 9e c8 29 3c 57 a4 12 bf
       -1.934118988205639e-05 -7.111341896307236e-05
000710 8f 28 1f 44 47 db 05 3f ce 05 9c f7 3f 9e 11 3f
       4.1688072556293335e-05 6.720796036676429e-05
000720 97 fe 70 13 5f 39 ea be 31 a5 a5 11 f3 32 11 3f
       -1.250462865531815e-05 6.56090600493944e-05
000730 ac 02 73 f7 bc af c2 3e a7 a8 fe ac 27 a6 05 3f
       2.2276016654335217e-06 4.129227238476698e-05
000740 4f 99 8f 0b 77 b8 fd 3e 08 ee 51 67 ec bc 08 bf
       2.8343740925773378e-05 -4.71839565898379e-05
000750 ec 34 cf a7 3f ee b0 3e 73 2f 6b b4 3d 9b d2 be
       1.009145903940838e-06 -4.436113903504588e-06
000760 a1 c4 af 40 5b 2a d2 3e 0a f4 e5 f0 c2 6b 01 3f
       4.330981947285211e-06 3.322781241175278e-05
000770 ce bb 06 71 44 6c 01 bf 88 d6 3e 61 95 60 0b 3f
       -3.323158137235432e-05 5.221801634950918e-05
000780 b4 5c 3f 40 8c 13 07 3f 7f 01 ad 24 a3 39 ee be
       4.4014661426389044e-05 -1.4412472543080073e-05
000790 8a c9 45 0c d3 a0 08 3f d0 61 7f f2 e8 a6 07 3f
       4.6974602386468006e-05 4.5112594591226554e-05
0007a0 05 55 43 26 3b 19 0d 3f 55 70 ca 60 0a e3 df be
       5.550109634248384e-05 -7.602423931853885e-06
0007b0 e1 95 7c c2 10 79 c8 be 66 e4 51 b7 60 ad b0 be
       -2.917398450724292e-06 -9.940419805328252e-07
0007c0 63 1a 95 d8 41 fa b1 be 0d b5 12 f3 04 e0 cf 3e
       -1.0715465087060987e-06 3.7998051075268444e-06
