data/95ZMK8WA5/ens_bio/bioneuron_10/pre_weights.npz (npz, 4200 bytes, 1 tensors)

weights f8 [100, 5]
0	0xbee8c8345c51a3ea	-1.181700180037829e-05
1	0x3eaadc97ff0e58b4	8.005408728025305e-07
2	0x3ee81a1475d9aaf7	1.1492669439413276e-05
3	0xbef865df2e133ba3	-2.326768561005842e-05
4	0xbef2458f1bd6634f	-1.742526523216002e-05
5	0xbedc3e8cc4ca0bc3	-6.73397432804623e-06
6	0x3ef435d8ac4253c1	1.927407971942844e-05
7	0xbee7ec534d09b8bd	-1.1407444987923302e-05
8	0xbed58455b8c99f59	-5.1300365951702205e-06
9	0xbef5b3301515ebc7	-2.069468729846613e-05
10	0xbec54a4a74c21b0f	-2.53798945066013e-06
11	0xbee7e6eb978add36	-1.1397377180129465e-05
12	0x3ef7725f275d6fa7	2.236057704095543e-05
13	0x3ef1598bc40a00e3	1.6546048075217415e-05
14	0x3ef96eb8b500fe88	2.4254327684268665e-05
15	0xbebf7aa411c9a71d	-1.8762985468885993e-06
16	0xbef31a00233e0bdc	-1.8216671562775472e-05
17	0x3ef715d681f55a6f	2.201586187075072e-05
18	0xbef8bfa7d5b9e63f	-2.360215635952554e-05
19	0x3eed35e72c1d62c2	1.3928679780826433e-05
20	0xbefbf9b4df2fb122	-2.6679435858699013e-05
21	0xbee4075a62105e86	-9.550439303437267e-06
22	0x3ef720bfd271d326	2.2056509945095293e-05
23	0x3ecaf2746dcd8a46	3.2123433428160633e-06
24	0x3ed11e2e619b2de3	4.081224256057239e-06
25	0x3ee121b82950cfa7	8.169038929840682e-06
26	0x3ebb7a5fad42a786	1.6378177650024693e-06
27	0xbef82abbf7eefb99	-2.3047381087822406e-05
28	0xbee561daeed4f060	-1.0195849848508738e-05
29	0x3ec72752b37ea6f8	2.7601248823908637e-06
30	0x3ef9d9abaff0edc5	2.4652744283521774e-05
31	0xbee38921cafbcc06	-9.315334267045668e-06
32	0xbf0022f6547da657	-3.077806701308184e-05
33	0x3edf5bebad09d2f9	7.476583690481326e-06
34	0x3ef2aa4eaa63cf20	1.7800581780982113e-05
35	0x3ef59fbd2996b932	2.062223447801235e-05
36	0x3eefb5055f428c14	1.5119129763546366e-05
37	0x3ef89cb6bc62810d	2.3471988037316672e-05
38	0x3eec33061be19e2e	1.3446479780478736e-05
39	0x3ea95b28e66878b3	7.556704531596589e-07
40	0x3efb0acb939224ad	2.5789421873177624e-05
41	0x3eeada46b58b7065	1.2804337232656842e-05
42	0x3ecf7e710ae1e3b9	3.7543669214015624e-06
43	0xbeb24d8a968f884b	-1.0909376106861878e-06
44	0x3efa0923de9ee3dd	2.4829581810801325e-05
45	0x3ef3ff8d120192ad	1.9071813881404543e-05
46	0xbeb1294f80280d4b	-1.0228973229560724e-06
47	0xbef451a76ef533b8	-1.9377671319365414e-05
48	0x3efb8d829ad040b5	2.6276373024159474e-05
49	0x3efae2b4815b18de	2.564007453178466e-05
50	0xbedde6ff0e4e6f91	-7.129270874008709e-06
51	0xbeb34ca2624027d9	-1.1503310668480823e-06
52	0xbedd3ecac8d44714	-6.972618519245224e-06
53	0xbeef4f7b81b33475	-1.4929999500168923e-05
54	0x3ee8e4b31a3803eb	1.187007803249599e-05
55	0xbee33856b34062bd	-9.164844961205365e-06
56	0x3ee4d0be4a41a14b	9.925557897542131e-06
57	0xbec001858fb3c322	-1.908057240755996e-06
58	0x3efc2a2946232570	2.6859943667278117e-05
59	0x3e9b8058aadcdf60	4.098020934708865e-07
60	0x3f006313052e0588	3.1255739165746024e-05
61	0x3eda11b57a65a424	6.215375753939666e-06
62	0x3ef49c7964893f2d	1.9656398111244484e-05
63	0xbef53ef43c96c17f	-2.0261682754431264e-05
64	0x3ee50a3b82cb0f0a	1.0032639772623447e-05
65	0x3efa285e3dad9e47	2.4945915224531994e-05
66	0x3eea4cdaab45cbf1	1.2540918171243992e-05
67	0xbee286cc99faa951	-8.83415196935704e-06
68	0x3effe0bceff93ddc	3.040111823643202e-05
69	0x3efcecc7d92776d0	2.7584957544727143e-05
70	0xbf01a443ea08892f	-3.3648798538859325e-05
71	0x3ef6525cbf3f5dfe	2.1287658412775724e-05
72	0xbee8a001edafa4f2	-1.1742129052155139e-05
73	0xbef8eebc89cfe8f8	-2.3777546278560554e-05
74	0x3ef3428d04f24807	1.836773327263538e-05
75	0x3eeb54084339e058	1.3031125582360786e-05
76	0x3ef97b7ce8969cd8	2.430188627547129e-05
77	0x3ef31a3d1a46446d	1.8217558719839053e-05
78	0x3effcf66eb78f2ad	3.0336536580787932e-05
79	0xbefb660b2127a20e	-2.61293481091125e-05
80	0x3ef7365f0f574e4e	2.213705825744447e-05
81	0xbef4c217aeb2caf7	-1.979653727053173e-05
82	0xbeecb0ec9ac38de4	-1.3680987500603232e-05
83	0x3eefe4e737b5014c	1.5208317327820027e-05
84	0xbee39be5c4624aac	-9.350287779851439e-06
85	0x3ef41ea9a5a6d002	1.9187713726956386e-05
86	0x3ee519db99b8bb26	1.0061744254744714e-05
87	0x3ef61a7cdf2ab7f5	2.1079509631753664e-05
88	0xbee3823bf7b9d61e	-9.30248619755285e-06
89	0xbef1c2a04944c98a	-1.6937502168087817e-05
90	0x3ee184676bfc0d43	8.352853341892153e-06
91	0x3ede598406cefc25	7.235925392145289e-06
92	0xbed3161a4541e0ec	-4.550537671226185e-06
93	0xbeef1b13c3b6cce8	-1.4832387129049042e-05
94	0x3ef5bf90cff21cb5	2.074079838767776e-05
95	0xbf02029714838e7e	-3.435157356237744e-05
96	0xbf021167b3e0e6bd	-3.446195340512995e-05
97	0x3eff8808f148a021	3.0070673419896444e-05
98	0x3edec2137e1e08dd	7.333304866354563e-06
99	0x3edf99deddd3ad24	7.534279089709069e-06
100	0x3ef570970c1edfd4	2.0446591186134972e-05
101	0x3edfd0e4d18d9391	7.58552348476418e-06
102	0xbef6e1ae341fc8d0	-2.1821560274256507e-05
103	0xbec330c94bdf5433	-2.287694399231402e-06
104	0x3ed2191715a2cf2c	4.314901469171754e-06
105	0x3ed717555562dac1	5.505358180160875e-06
106	0x3ed51ae90a30f1ed	5.031852341960409e-06
107	0xbe6e110e6fdb9280	-5.600345607900172e-08
108	0x3edbdf9fc42f265a	6.645567796456631e-06
109	0xbed60330a3babc96	-5.248179657676248e-06
110	0xbed2c1c2d76d0f70	-4.471988510005315e-06
111	0xbebce806b31d25b0	-1.7229528563470933e-06
112	0x3efb7a66f35af0f0	2.6205190087878175e-05
113	0x3ed17b08a293f2cd	4.167699935605975e-06
114	0x3eecb3324f04b691	1.368521995511886e-05
115	0xbef67250159d5e9e	-2.1406683436835294e-05
116	0x3ef59d318d40b6b7	2.0612752294527354e-05
117	0x3ef2ba1050eb5a71	1.7859279121202506e-05
118	0xbefe07c45214acd4	-2.8639163365412636e-05
119	0xbee771f0424c656f	-1.1179481654676884e-05
120	0x3ef380d0e23e9c4b	1.8599688828804366e-05
121	0xbeeda33cc7e83be5	-1.4132330986375448e-05
122	0x3ee44f70df8ede2b	9.684713392007254e-06
123	0x3eda015ffa5e8632	6.20016354516274e-06
124	0xbef02aa1a031bb59	-1.541760321937687e-05
125	0x3ef1b8973a8901f4	1.6900117460362824e-05
126	0x3efaf321037eb307	2.570125818095444e-05
127	0x3efb90c81a9b1235	2.6288560241354535e-05
128	0xbeefb0b85c5c15e9	-1.5111118851783355e-05
129	0x3ef00f5db687082f	1.531603212057852e-05
130	0xbedb91d259026cd0	-6.573108649511608e-06
131	0x3ed3c04f66ddc6b4	4.709055799399852e-06
132	0x3ead01d4c949a300	8.64480528562061e-07
133	0x3ef7fdd0d5e491b2	2.2880046679622872e-05
134	0x3ef98e93a3c080bd	2.4372997572297913e-05
135	0xbef9865d6050e371	-2.4342405613195438e-05
136	0xbefc49e4bd0f7a9c	-2.6978155634677968e-05
137	0xbef81bc839f65947	-2.299168010962943e-05
138	0x3ecad82e22061ad0	3.200108281645318e-06
139	0x3eb36b00c49844d1	1.1574018280484213e-06
140	0xbed75dce03ceb3f7	-5.570989796516323e-06
141	0x3ee3726b657f803c	9.27302896508452e-06
142	0xbeba8adbc5701136	-1.5820512737639185e-06
143	0xbee0d9b7deb847a3	-8.034926358955178e-06
144	0xbee24ab383d8fcb5	-8.722210732446627e-06
145	0xbefa63d716ae66cb	-2.5167465917164463e-05
146	0xbf00bb66b6b7a7c3	-3.1913826059895154e-05
147	0xbeaad333bf7bb6d9	-7.99447547243053e-07
148	0xbefbc8df5c2ed7ed	-2.649751491975293e-05
149	0x3efe6a8f083b07e8	2.900719165555696e-05
150	0x3ef2d56c19452c49	1.7961197572174512e-05
151	0x3ef29961faec23c8	1.77375329100426e-05
152	0x3ef0bbd64da95047	1.595853687270967e-05
153	0xbeeb63fde6c02b71	-1.3060852516862919e-05
154	0x3ee76eed1a3a9392	1.1173870752509579e-05
155	0x3ef3dcd5d7142078	1.8942487661128123e-05
156	0xbee6f79051a9d601	-1.0951540891239281e-05
157	0x3eee9a25bd5c7bb6	1.4592236691477827e-05
158	0x3efa72646fb48a86	2.5221676861817667e-05
159	0xbee2655817a94232	-8.771836964489418e-06
160	0x3ee481ff60dffa56	9.778882510855555e-06
161	0x3ef632f840ce6b19	2.117071203465012e-05
162	0x3ef62aaa9d2fac98	2.113977991406428e-05
163	0x3ef5d3e9068505a2	2.0816587864352255e-05
164	0xbef357d66afe9aa3	-1.8447032459479662e-05
165	0xbef065aa525c2c05	-1.5637521889860107e-05
166	0xbef263b2a1c37d26	-1.7537540870968562e-05
167	0xbef0705c6ae1eb97	-1.567736642769552e-05
168	0xbef0a025db578789	-1.5855386399261525e-05
169	0xbeec45ce21c5fad2	-1.3481462752149539e-05
170	0x3ee6c72a4f71c366	1.0861391713330812e-05
171	0xbee275eb9318fa36	-8.802712360919938e-06
172	0xbef83a1eb4e34459	-2.3104697270796444e-05
173	0xbee93df536bde67f	-1.2036334474652174e-05
174	0x3ef31e952a1f2494	1.8233741350380335e-05
175	0x3ee1fcb74027c6d8	8.57695159070823e-06
176	0x3ec3db7df59a9a8b	2.3671854421814987e-06
177	0x3efe6da8449513a0	2.9018734754932365e-05
178	0x3ed19fbd0ef01651	4.201883924364445e-06
179	0xbec35f6d437c034e	-2.309413073109748e-06
180	0xbefacb54ffbb8628	-2.5553003054739964e-05
181	0xbf0042af345d1378	-3.101441556777653e-05
182	0xbee50368a9abb4a7	-1.0019929779637246e-05
183	0x3ebe3883dbdca00d	1.801297784218353e-06
184	0x3eb68c97fa7dda61	1.3440366987950847e-06
185	0x3ed125e9848eceb2	4.088424312809613e-06
186	0xbee0f715269e09ad	-8.089621775790623e-06
187	0x3eefde471a6a7ab2	1.5195976471202774e-05
188	0xbef282c49feaa028	-1.765328669969826e-05
189	0x3ef6e8bbed79add7	2.1847837017236818e-05
190	0xbefc91366bbd70a5	-2.724383988038426e-05
191	0xbee6bace7450c52f	-1.0838371631379823e-05
192	0x3ee69c87d5611713	1.0781978442629973e-05
193	0xbedadc71d477762f	-6.404188133993885e-06
194	0x3eda0b3275f08dab	6.209311179925147e-06
195	0x3ee70a3d995798c6	1.0986329281825388e-05
196	0x3ed6c7c466dc5c91	5.4312564381687516e-06
197	0xbee2b42a2658adcd	-8.918651654607913e-06
198	0x3ee923e61e66a7e4	1.198779586960084e-05
199	0xbed8fbcbfd5fc4cd	-5.956549975026301e-06
200	0x3ef3580047bc6f24	1.8447641635706922e-05
201	0xbee684a2fefda02d	-1.0737472592573037e-05
202	0x3ef0b033def4a278	1.5915194976264733e-05
203	0xbef3c3fc9bb44106	-1.8849919553310723e-05
204	0xbe8c7ab90cf9d96d	-2.121879618570572e-07
205	0x3ef2a7f6b005f348	1.7791850952064773e-05
206	0x3ec357630b933dd6	2.305669195658043e-06
207	0x3efc24709d7d1144	2.6838630076812518e-05
208	0xbef7e9ab0989a640	-2.2804990836544506e-05
209	0xbedc8ab876e4b904	-6.804913807818709e-06
210	0x0000000000000000	0.0
211	0x0000000000000000	0.0
212	0x0000000000000000	0.0
213	0x8000000000000000	-0.0
214	0x0000000000000000	0.0
215	0xbef2ffd6e7341f63	-1.811921397368246e-05
216	0x3ee049f5ee9feabb	7.767157018880523e-06
217	0x3eb6436c3e74aa87	1.3270002854985103e-06
218	0x3eeff8c9f0a89964	1.5245357208715136e-05
219	0x3ee750b921848984	1.1117613255399969e-05
220	0x3eeb1400164afa4b	1.29118568080708e-05
221	0xbefcc82e25785c0e	-2.7448610437099583e-05
222	0x3ed7008f55e0d8dd	5.484148770709525e-06
223	0x3ef9951ed7940bd1	2.4397374976291832e-05
224	0x3eedf2c2ff291a2e	1.4280456501880841e-05
225	0xbee28d147e57abc1	-8.845850923718914e-06
226	0xbee59f9b1e9e94bd	-1.0310869544680857e-05
227	0xbee3258eabd1ed65	-9.129861945781062e-06
228	0x3ee7cbaf6d8c0091	1.1346648010057937e-05
229	0x3eec0d579009231a	1.3376291918680518e-05
230	0x3ef6f25ffaf958b4	2.1883751911332738e-05
231	0xbecf75781b69033d	-3.750188820178875e-06
232	0xbef134c916c0199d	-1.6409104702597166e-05
233	0x3ed831e3a352a951	5.768508846740816e-06
234	0xbeccaa6ada8dff8f	-3.4172168920653744e-06
235	0x3ef0b98f54a0c927	1.5950053502141904e-05
236	0xbee2250740c1d02f	-8.652039490388088e-06
237	0xbefb585aa25c23b2	-2.607835099069687e-05
238	0xbea8080e4e8d0c07	-7.161935658767589e-07
239	0xbefcd80fff12ede0	-2.7507776341846135e-05
240	0x3edf49d3c6a9c1b2	7.459732936796283e-06
241	0x3eec44037e5aa162	1.3478125718905432e-05
242	0xbef863ed8c19598e	-2.3260444100914284e-05
243	0x3ef06e1e16cb0fda	1.566900884843168e-05
244	0xbee09370314f6cb1	-7.9040196769214e-06
245	0x3ecdba1913d5e509	3.543728012086874e-06
246	0xbef266cd3f9e1b5b	-1.7549104064619593e-05
247	0x3ee6558b6f4c021b	1.0649756839510108e-05
248	0xbebe83614e467687	-1.8187286566559851e-06
249	0xbef8c4245dd762a4	-2.3618869695459858e-05
250	0xbef155e493e8a2bf	-1.653243929858566e-05
251	0x3eb8efccc7fbcc2b	1.4863442458462263e-06
252	0xbee84f2338c66d6f	-1.1591497035826345e-05
253	0x3efa89900531707c	2.530799276843951e-05
254	0xbee500a6e4bd80e8	-1.0014794632418449e-05
255	0x3f025ac32dc848c3	3.500850809613897e-05
