data/GQYY38F8J/ens_bio2/bioneuron_29/ens_bio_weights.npz (npz, 2200 bytes, 1 tensors)

weights f8 [50, 5]
0.00015146227561145504 -0.00011488233212366717 9.996538318290603e-05 -0.00014888009469425463 -8.015733835656031e-07 -0.000283303688617895 -0.00027656994351068527 -0.00021337143815594728
-0.0007679535867896893 0.0009485211263467796 0.00016511013009009397 0.0002346080078661601 -5.038782571705362e-05 9.485560906057518e-05 0.00020275686849998746 -1.242980907983779e-05
0.0004725351203553969 -0.00045387269269886053 0.0007145010730196519 -0.0007853859359085034 -0.0003529748351087734 -0.0005246539213545147 -0.00026139195123319234 0.00039474912755531924
0.0003845247574167152 -7.544919529296796e-05 -0.0003253450094102222 -5.152469834213068e-05 -0.00021254131162963926 0.00012024368276826453 9.837738023289982e-06 6.145251510087957e-05
8.354503638343115e-05 -5.221161983761747e-06 -1.6905266159832274e-05 -0.0002739212786054328 -0.0008239605831046215 -0.0006355499611854963 0.00033426464897654494 -0.0005302500253961698
-0.0002004502791587732 -0.00011810449024677953 0.00042114098540494067 0.0006574819513373378 -0.0007315743830104706 3.4949294527105714e-05 0.00016812099239442554 2.5795176854455816e-05
-8.201039529123748e-05 9.90433536490803e-05 1.6284204439840062e-05 -9.266150518075796e-05 -5.513900412996862e-05 -7.4627058806567155e-06 -1.2235978902530579e-06 0.00011598910994285426
5.9116917452614315e-05 -0.00035382032623637545 0.000646447754326721 0.00034203414005762957 -0.00039086352087253085 0.0006876522417385796 0.0011092277285360264 -0.00012444637785492805
0.0005716916874459467 -0.00032653556360288043 0.0005666500057473471 -5.295266210659888e-05 0.0005601276766355885 -0.0004197291531166636 0.00032748263842269164 0.00016926146211561862
0.000461180455413198 0.0002993066441924063 0.0005034852778201075 1.3587988393435298e-05 0.00034023818614546355 -0.00047911499386951977 1.937331604397476e-05 -0.0002851225576561114
-0.00020589523234543076 -0.00018039906335482148 0.00023958400199593457 -4.161897618737762e-05 -0.00014978171683081412 0.0009808280228115582 0.0006492415841490777 -0.0002707978936275909
-0.0010576193405459138 -0.0011251053877217821 -0.00010914629941792855 0.0001555805179969679 -0.0001648516863609859 -0.000490911763572051 -0.00012909349995470748 -0.000464876313810647
4.7111221472906715e-05 0.0006682664789323477 -0.000586877253375659 -4.819494323404069e-05 0.0002330267832634635 -6.483958293687934e-05 -0.00026792056093559604 0.0005925499222547014
-6.748687157593324e-05 7.423491682683798e-05 0.0002661514130220304 0.0002947232367782271 6.951164957986253e-05 -0.0006792118423938402 0.00028666650743013603 -0.0005855063968678242
-0.00040455942704066474 -0.00035730333822180923 -1.5599591142461544e-05 -0.0005550436327237205 -0.000611453440823602 -0.0004047323342954195 0.0010216189752361798 -0.0009770845870768487
0.00035128031141951494 -0.00036735499700543505 0.00043593472608304906 0.00021486466199076352 5.336429727043998e-05 -2.872055100797964e-05 -0.00030173681932903304 0.0001466120932438407
-0.0005491544629909516 -3.4321766648866764e-05 0.00014677418042731308 0.00011699941346926085 0.0003054275705283965 -0.00020656522886951787 0.00015145316022285594 -0.0003058536698509491
0.0003597518705844093 -0.00014394064518107142 -0.0002689896862408404 0.0004045189537829078 0.0005461280786040835 -0.000615081235670206 -0.0008427951987606999 -0.00013409335264788881
-0.00021322700519069786 -4.698520985514893e-05 0.0001106890462825466 -0.000187627193303881 -6.869701084463858e-05 -0.0001812122637240336 -6.022280163804959e-05 0.0002727214683915588
0.0005653493378221401 -2.0133532123268194e-05 -0.0002341722574371363 -0.00014130272026956876 2.9395213357521387e-05 0.0003887218732889733 0.00047821352233012166 -0.00015567173612582728
0.00041813533867269203 -0.0006554019371618963 -0.0004419091405571812 -6.597121784446062e-05 0.00022762929451609784 1.0447680680858723e-06 -0.0002568728847740709 0.00012457122246017438
0.0005890474072481892 0.0006887121713086083 0.000209210882217982 0.00016136542350220716 -4.646408508661682e-05 0.0002612927673991099 0.00032671505581240135 -0.0005747559557184008
-7.182734341657652e-05 0.0006516627828539978 -0.0002998285278602218 0.0006493744176378635 -0.0010389425670069869 0.0014107740858516288 -0.0003691870032493082 0.0009770944455879265
0.0011321279793936694 0.0001293516717600299 -0.0004442619601700552 0.00010193657735845545 4.5691314961417034e-06 0.00040224326230788005 -0.00017241148094836886 -0.0001179018008420831
6.0089973045602446e-05 -0.0002411949490413944 0.00017249154605050913 0.0005460464309892983 0.00035382478323919294 0.00012426092795502413 0.0005348218732565736 0.000781952613660214
3.1029930950693776e-05 0.0013603084990708699 -6.0806543168687444e-05 0.0012060222518129153 0.0008088059693486101 8.609527672922757e-05 0.00014424297960451235 0.0003495666069748253
0.00021074955686366833 -0.0001285790205526567 6.947390108704366e-05 0.0010186790424872513 -0.0011153087054897601 0.0007079793162271535 -0.0007955631233321458 0.0003467946240150541
0.0005598929839723484 -3.582002478511007e-05 -0.0005501927540448065 -0.0002637097879772995 0.00024290902403348893 0.00026293497007919686 0.00017747856051913364 -0.00010585351377705264
-6.522328297221835e-05 -0.0007968450423731556 -0.00010727601341296098 -0.0005440669153610459 -0.0004301327306734803 -0.0006606732396305572 -0.0002673301635662331 7.59939163998618e-05
-0.00018674075629296287 0.0002653151172107256 0.000490112669214947 -9.026885250616885e-05 0.000106833670531786 -3.516522753988249e-05 -0.0001228352953880712 0.00025530315784046945
-0.00012622539013960174 0.00016059100654275133 -0.0003236773555772956 -0.0002682632302685481 0.0002529977917989252 -9.040941937176959e-05 -0.00014061108847431713 6.946836880584607e-05
7.448973411924803e-05 -0.0001517221768019549
00000000: f68d 680a 3bda 233f 77e6 fb6f 9f1d 1ebf
00000010: 011f bd34 9034 1a3f bd7d 8546 9683 23bf
00000020: 3428 f182 76e5 aabe d3c3 d313 0c91 32bf
00000030: 9f89 c8dc 1220 32bf 3154 93b2 8ef7 2bbf
00000040: 0b3f 22c5 0f2a 49bf 3303 ce9b c514 4f3f
00000050: ec9a cb37 2da4 253f 8985 3c71 23c0 2e3f
00000060: 85aa 3182 f06a 0abf 4dcd 7cf4 a6dd 183f
00000070: 45eb 0d3d 6493 2a3f de7c a8f3 3311 eabe
00000080: 9b00 5de3 d2f7 3e3f b603 275f b8be 3dbf
00000090: fef8 eb5e ab69 473f 835c 6974 4bbc 49bf
000000a0: 8cb0 835f ef21 37bf 4c35 8bb7 1d31 41bf
000000b0: 3bb7 c9e1 6d21 31bf 6d2f cd97 cade 393f
000000c0: 628a f241 4133 393f 1db4 1f4e 4fc7 13bf
000000d0: a3ab e22c 6252 35bf 9cff 8e27 8703 0bbf
000000e0: 8e02 0af7 b3db 2bbf fc33 7bbd 6a85 1f3f
000000f0: f3b6 1f6b 98a1 e43e 4453 a32b 021c 103f
00000100: ce44 c9cb 9ce6 153f a70a f213 2ee6 d5be
00000110: 0a05 6a0b f9b9 f1be 6e04 ecee a2f3 31bf
00000120: 9aef f9e0 e1ff 4abf ad92 2d26 61d3 44bf
00000130: 5cde 4dbc 07e8 353f 179b 4642 0f60 41bf
00000140: 6ab8 73c9 fe45 2abf 6f8b 46b1 dbf5 1ebf
00000150: 26c2 62c2 9299 3b3f 4a2d 46bd 5b8b 453f
00000160: 0cfe 5906 e4f8 47bf 4891 b89d d052 023f
00000170: 2c96 0554 3409 263f eaae 450e 570c fb3e
00000180: f387 e2dc 9f7f 15bf 6de1 f6db aff6 193f
00000190: e749 1702 4213 f13e a7e9 9289 684a 18bf
000001a0: 49a7 7ac1 a1e8 0cbf 6c34 fdf8 044d dfbe
000001b0: 1b85 a91b 5087 b4be 226b 4fbc e567 1e3f
000001c0: 6f71 19d1 89fe 0e3f f723 d7ba 1e30 37bf
000001d0: 84e2 50fb cb2e 453f 75f8 1672 616a 363f
000001e0: 00a4 120a 9a9d 39bf d432 d4f1 7188 463f
000001f0: 7b1f 5834 702c 523f fbe1 f83e ba4f 20bf
00000200: 01c3 ec8c b2bb 423f 5b52 1091 5b66 35bf
00000210: ef69 199f 6791 423f fac6 a99d 2fc3 0bbf
00000220: 81ff bf06 b15a 423f d74b 5efc e281 3bbf
00000230: db2b d738 3f76 353f bb02 76e3 782f 263f
00000240: f2d6 3af9 5239 3e3f f466 8f3f 889d 333f
00000250: 5649 b066 8a7f 403f 98c7 92e7 fe7e ec3e
00000260: c55e e1e1 3f4c 363f 3026 cd3a 3766 3fbf
00000270: 5993 2424 7c50 f43e c7ef 7b0f 90af 32bf
00000280: cc87 2294 b2fc 2abf 56d8 9827 30a5 27bf
00000290: 571a 0ce8 1a67 2f3f f881 0822 01d2 05bf
000002a0: 5d45 9126 d7a1 23bf b282 fb11 e411 503f
000002b0: bcf9 80af 3b46 453f f01e d218 3cbf 31bf
000002c0: a139 ac1e fa53 51bf 6c81 11b6 086f 52bf
000002d0: e7dc 5a25 af9c 1cbf 1ca8 2f79 6a64 243f
000002e0: 7d57 0634 819b 25bf 0e37 21fc 1016 40bf
000002f0: 297f 8ab8 a8eb 20bf fe2f 8390 5477 3ebf
00000300: 012d 773e 29b3 083f 51ff 0456 d3e5 453f
00000310: b4f6 144e 153b 43bf e3fb e2a3 9d44 09bf
00000320: bf15 90d3 148b 2e3f d858 848d 4fff 10bf
00000330: 1da7 110c f68e 31bf 8445 c744 ab6a 433f
00000340: 8071 14a0 f7b0 11bf 8cce f328 d275 133f
00000350: 5ae2 5d9d 4771 313f 9a3d d0a9 a250 333f
00000360: c171 ea0b d938 123f 37b4 3753 a441 46bf
00000370: 659f 3646 77c9 323f cc27 bf69 952f 43bf
00000380: f258 2882 6183 3abf 979f 0427 8e6a 37bf
00000390: 6852 98bd 7b5b f0be 5027 0d20 0b30 42bf
000003a0: a7bc 0344 3e09 44bf 47da b123 4886 3abf
000003b0: 2671 9b05 fbbc 503f 01f3 3396 3002 50bf
000003c0: 4fb8 0373 8105 373f dfa5 bab2 3113 38bf
000003d0: aa97 4764 c591 3c3f 1696 8364 a929 2c3f
000003e0: 5c05 db4a 6ffa 0b3f 9569 a13c 9d1d febe
000003f0: 1263 61c5 4dc6 33bf 059f 964a 7c37 233f
00000400: 2877 c03a a4fe 41bf 4944 21ec 96fe 01bf
00000410: d401 139c ec3c 233f b4ae 359e b2ab 1e3f
00000420: cc45 3d6d 3904 343f c88e 12ce 2d13 2bbf
00000430: 9ef7 74bd ecd9 233f 212a 6682 5f0b 34bf
00000440: 8e5c d284 a293 373f 251e 2cba d8dd 22bf
00000450: 160c c6e7 e5a0 31bf 1a10 57ad b382 3a3f
00000460: 530f 571e 41e5 413f 64b7 52e5 ac27 44bf
00000470: a682 6fe8 e09d 4bbf 903c e320 6d93 21bf
00000480: eb44 2007 b6f2 2bbf 61c9 8d84 3fa2 08bf
00000490: a304 d255 3704 1d3f c7fd 7251 b997 28bf
000004a0: 6658 dea8 2d02 12bf b2d0 1e7e 79c0 27bf
000004b0: e929 44b5 f792 0fbf 8a02 a4c9 81df 313f
000004c0: 936f 5875 7e86 423f a700 d8ca 8d1c f5be
000004d0: a3cc e85f 84b1 2ebf f40e f21f 5585 22bf
000004e0: d868 33ae b7d2 fe3e b3ef a6bb ab79 393f
000004f0: 7e97 5c70 1757 3f3f 9b0c f907 7a67 24bf
00000500: 5acc da9a 2567 3b3f bd61 63f1 e879 45bf
00000510: 008f 764e 01f6 3cbf 675f 79e4 404b 11bf
00000520: d429 49c0 f8d5 2d3f 0bec a1a3 3e87 b13e
00000530: 7161 aba3 9cd5 30bf 5097 29a7 ea53 203f
00000540: 0354 caac 494d 433f cab7 4520 5691 463f
00000550: 35d8 4fcb f36b 2b3f b860 ec6e 8626 253f
00000560: 6919 9dce 4d5c 08bf cb53 02e4 c31f 313f
00000570: fcd0 d57a 5e69 353f e812 3904 67d5 42bf
00000580: 077a 1d5d 40d4 12bf e183 912b 8b5a 453f
00000590: 6ea5 b8b8 49a6 33bf 858e 7cf1 5847 453f
000005a0: 0d00 4116 a405 51bf 64c5 e323 371d 573f
000005b0: d579 e51a ee31 38bf 45fe 162c 3b02 503f
000005c0: 2b54 5e29 7d8c 523f 1547 5866 52f4 203f
000005d0: f34b fc96 7a1d 3dbf adbd 6710 d9b8 1a3f
000005e0: e8b8 5d4d 112a d33e fb20 1aa8 855c 3a3f
000005f0: 052f 2158 2b99 26bf d1ad d883 41e8 1ebf
00000600: 6d70 9cc0 2381 0f3f 074f 10d6 289d 2fbf
00000610: 47b4 2619 db9b 263f 25d3 16c8 91e4 413f
00000620: 9de7 5ddf 3130 373f ae5e 543e 8149 203f
00000630: 2a9f 373a 6986 413f 346c 8b73 7e9f 493f
00000640: 3870 1d4f c444 003f f4d1 0521 8c49 563f
00000650: 2918 12ea 50e1 0fbf b064 4e88 6cc2 533f
00000660: 77eb f497 c180 4a3f fa06 7197 c191 163f
00000670: 24b6 99c2 fde7 223f df0f 0d25 c1e8 363f
00000680: d8f6 a3e8 949f 2b3f 7513 5f60 65da 20bf
00000690: 69e5 4988 5036 123f e0ee 0b4b a6b0 503f
000006a0: 04bb 8f9a f145 52bf 0455 3501 f632 473f
000006b0: e1e2 5dcc aa11 4abf 9f04 8e91 3fba 363f
000006c0: c909 1807 b958 423f d44f 11ae aec7 02bf
000006d0: 1a91 4bf1 5907 42bf 4c48 3dea 5048 31bf
000006e0: da44 d5a0 acd6 2f3f 7f75 f318 513b 313f
000006f0: 1d87 f139 3143 273f 498c f484 b5bf 1bbf
00000700: 0864 1e78 0f19 11bf 2afe cfb2 6b1c 4abf
00000710: d119 84e0 2b1f 1cbf f924 ddcd f6d3 41bf
00000720: 09cf dc02 6e30 3cbf b02e 91fa 20a6 45bf
00000730: 80dc 4b4f 0e85 31bf e735 e38a ddeb 133f
00000740: e9fb d8e1 fa79 28bf bcdf 65c0 3f63 313f
00000750: f56f 5cf1 5c0f 403f 6f7c d313 d7a9 17bf
00000760: b964 f37b 7c01 1c3f ba81 9604 cc6f 02bf
00000770: 3135 2927 ab19 20bf 964d a7b6 46bb 303f
00000780: fdac 5bd8 6b8b 20bf 9c1f 053e 8a0c 253f
00000790: d1e2 1aa8 6736 35bf 382a fccc b594 31bf
000007a0: 2a73 e23d 9994 303f 015f 70ff 45b3 17bf
000007b0: 0623 8b0d 206e 22bf da02 0f7d f135 123f
000007c0: db97 41e3 eb86 133f fda3 2b93 f3e2 23bf
