data/95ZMK8WA5/ens_bio/bioneuron_12/pre_weights.npz (npz, 4200 bytes, 1 tensors)

weights f8 [100, 5]
00000000: 0951 0b6c 1d87 6e3e 1303 d763 6616 d5be
00000010: ff29 673a 517d d23e db07 1aaa 7205 cf3e
00000020: b44b cbdd f7e1 ebbe 1037 3300 7a00 f2be
00000030: 8f9f 4e98 341f f0be 262e 48d8 a88b efbe
00000040: 2de6 adbe e4d5 ddbe f190 3796 be8e fbbe
00000050: 8996 84eb 77e3 f13e bb1b 5c22 7154 fbbe
00000060: 58fc a0bd 6dab fcbe e95b af6c 5030 e7be
00000070: 48ef da88 e6ea f9be 3d88 500e b21f f7be
00000080: 1481 12f9 dfe1 efbe d20c 3dde 40f4 ed3e
00000090: b50d 7168 276a fbbe 91b2 e280 7af5 833e
000000a0: e07b b2bb 14dc e23e 9b9e b41b cbfb f83e
000000b0: 078b 19c6 f34c ebbe 663a 3705 8bfb e23e
000000c0: 9494 274f 1d10 d0be 1546 9164 1073 fb3e
000000d0: ef34 e7c8 b183 d6be 1871 ffc6 4659 ee3e
000000e0: 5e7e 93f9 5d45 eebe 881f 089e 3a76 fa3e
000000f0: c669 0785 d718 f93e dd91 a138 b0c0 f33e
00000100: 81d5 f209 e2d3 e8be 5942 ff0e 7b10 d03e
00000110: f106 51fa 8c40 dabe 7760 a5c5 d036 f13e
00000120: 00ec 129c 72cf f93e a8cf fc89 8aaa fbbe
00000130: a556 8a18 6155 f5be 70a3 8dab 6316 fdbe
00000140: b531 ae9a 43d2 da3e 5213 91f2 af62 f7be
00000150: c975 dfa5 943a ecbe 0ca1 248e dd49 e7be
00000160: 496f 48e8 9faa e1be 6664 ddfd bcfd e1be
00000170: 4deb 32e4 4771 cfbe 9e1a 299b 41ea fd3e
00000180: fc74 c000 e50a c7be fc30 9c5d 59a5 c03e
00000190: a0a1 70b8 6e3b fd3e 2368 d88f bdf0 f73e
000001a0: bb14 eadf 6967 edbe b746 d3fd f155 f13e
000001b0: 0bbc c64c 5698 d13e bc19 c739 b657 eabe
000001c0: 8c32 3384 a529 fabe 9f47 25be 53d9 adbe
000001d0: 3350 3dc7 d6af f93e c7d8 5203 f656 f8be
000001e0: 7843 d764 3b2b ea3e 6a0e b867 c452 f4be
000001f0: 8522 a69f 8c74 f3be 0c91 7de8 9872 00bf
00000200: 7cb4 6691 19d1 f9be bcbe 9dce c6c5 fd3e
00000210: fc10 b39c f9fb fcbe 0619 3f49 48b3 c1be
00000220: 8f52 60d5 1b90 f13e 5043 f7ef 8d81 e4be
00000230: dbcd e09b 4c53 ee3e f408 f8bc c9cb fdbe
00000240: ae07 1f44 085e e9be 402c 6ebb b628 fa3e
00000250: a94a a549 ec15 ff3e f2fe 88d9 f70b b43e
00000260: a44a 5278 0588 c23e 8446 a43a 8889 f6be
00000270: 3860 087b d7db fbbe 2f52 d17f 0db9 e6be
00000280: 7d76 fa4f 743b e23e 0cb8 ff71 6616 ebbe
00000290: 40eb ae7e 950e 7abe 1a75 30e0 900f e2be
000002a0: f381 332f c84e b93e a09b cf31 aad6 f0be
000002b0: 61e6 7334 54bc f1be 853a b936 6518 dc3e
000002c0: 1335 8d7f 24d2 d03e caf3 90d6 ff57 f5be
000002d0: 1f1b 0f09 a3d9 ec3e 6a35 d7f7 49a6 d63e
000002e0: d8a6 ded0 2f33 f43e 2b50 4618 b12f e0be
000002f0: 8617 67ef 641d f03e d30f 8d5e dca5 ffbe
00000300: d77e 6445 255d fe3e d058 0141 6565 b1be
00000310: 926d 31a2 0bc2 e2be 32dd ce96 ca13 fa3e
00000320: 62c5 e16d 7ee2 e2be b4a9 6dd4 5a58 f9be
00000330: cf92 20cf fa80 a0be 1b50 bfca 4f0b bebe
00000340: e70b 38b3 ef31 e33e 1835 b86d 6f4b d5be
00000350: 0d3f 9c4c 69d6 da3e 9a19 88f1 6a0d d2be
00000360: 91b6 9c12 e458 cf3e a740 9140 72d6 d53e
00000370: 2799 9e43 9566 e1be c430 9431 2129 f6be
00000380: 9b5b 382c 1d2f f23e 911d 705e 8b0f ac3e
00000390: 1c24 4919 b1c3 d03e cb6a 23e9 e6da f83e
000003a0: 1860 79d2 4a9f c9be c1ac 3b39 3ef6 f3be
000003b0: dd2b cda1 fc07 fbbe 7b98 672b b756 f0be
000003c0: bd63 73a2 14c8 ef3e 8ec1 7db3 5776 e63e
000003d0: 8697 dcc6 dff4 9d3e 109d 537c ce49 c93e
000003e0: 7b60 32f1 325b f03e ffc2 2ed3 2d51 dabe
000003f0: f37e e588 97c1 fdbe 477a d203 7793 f9be
00000400: 4d0a c549 4a95 f0be 2a63 0c20 df15 febe
00000410: 81be 2978 e71c f93e cfd2 c8e5 60ea fa3e
00000420: a36a a93b 7156 febe 10f0 ee67 bd3f b13e
00000430: 3ef4 a4f8 9f27 c03e 17ae aa0d cc5a fbbe
00000440: 83fc a149 d1c4 dcbe 9042 db8a 8125 ea3e
00000450: a685 ab24 f4b2 f0be 6c0b 5821 479f f03e
00000460: f197 001e c224 d2be f745 b74e 28ff d93e
00000470: 2dc5 370e 7993 dfbe d176 6429 a566 ce3e
00000480: 8812 871e a8cb e1be 70f2 eee3 3975 d2be
00000490: 242f 08f4 f4bd b33e d36e 94de acc4 cfbe
000004a0: c857 fe73 daf8 c3be 2b2f 71b3 444b c0be
000004b0: 009f aac2 c28d dc3e a137 f24f 682a e43e
000004c0: d83c 48f5 622e e3be 3fae 6659 e924 f53e
000004d0: f114 4d94 d909 e4be 13eb 2089 a55c f73e
000004e0: 237a 5ed2 c4c3 ddbe 58fc e97b 146c fbbe
000004f0: 8f5e ccb0 fa57 f33e 419b 1a3a 7a6c e4be
00000500: c15a 473a 713c e5be 9a0c de54 fd58 ca3e
00000510: 97f5 2814 b118 e5be ea61 09eb d01a e43e
00000520: 94b2 8195 0338 e8be 941d 6b53 715a d0be
00000530: decb 9450 e564 c83e 297a ae51 4945 bbbe
00000540: 5caf be42 5905 f13e 9849 e8fd f61c e93e
00000550: 2c94 e442 e8ed ebbe 21eb 15bd efb9 e7be
00000560: a9ec 065e 80b3 b1be 7dc0 415f a2f5 f7be
00000570: 0fd8 4fb0 9fd0 e43e 4872 f76e eaf8 f73e
00000580: e467 dc28 b019 fd3e cd9f 1c15 9108 ecbe
00000590: 9766 df6e b873 f7be 15be 5913 8644 eabe
000005a0: 5fc4 cf13 32b2 f0be 0920 c53c 0e2f f63e
000005b0: 1120 f87a 3c02 c93e 33ee c2ce 5ec6 ef3e
000005c0: c1c6 ca91 a1a8 bf3e cecb 49df 85e3 ecbe
000005d0: d546 598e 06fd f6be 1be5 a991 7820 e23e
000005e0: 7803 90a3 f024 d83e f0ff 2a97 6d53 f23e
000005f0: d81b 6b0f f078 d83e e46f 6b1b f204 e7be
00000600: d7bb 54d7 b59b fbbe 0cf5 b59e f29e ddbe
00000610: 2458 a0c5 9fc9 e3be e103 86eb 7b65 e8be
00000620: c0a2 0a84 c731 eb3e 6eb1 7afb d87e c9be
00000630: a103 25cd f208 ea3e 99b2 bf40 1f7c ca3e
00000640: 6887 670a 38ac e1be 4ee2 6dac 64a5 f4be
00000650: 36e1 1296 4a1a ecbe 787a 593c 783c f63e
00000660: 6722 8458 e063 ec3e 017d 47c3 0910 f43e
00000670: 449a 17f2 8bde e7be 5769 4a17 2c69 fd3e
00000680: 09d3 c2cd 7364 f23e 10df 8efd a220 d6be
00000690: 0000 0000 0000 0080 0000 0000 0000 0080
000006a0: 0000 0000 0000 0000 0000 0000 0000 0000
000006b0: 0000 0000 0000 0080 0ee7 6b59 fa79 ef3e
000006c0: a08d 5419 aa78 e4be a481 2c59 51a9 d2be
000006d0: 9376 c8b1 4405 d1be 647d fc79 d4eb ed3e
000006e0: 9156 e5c3 dd3b f43e 0a97 1418 6079 fdbe
000006f0: 826b 810c 813c f13e f747 634d 5d8a f7be
00000700: 62df fe91 2133 fb3e 44cd aca6 98f2 e93e
00000710: 467d 042e f7c6 d7be a7c0 cbef 84b1 ce3e
00000720: 5272 a1ee eb05 c2be 8a79 950d 0215 f7be
00000730: 04db 4853 472d 9fbe 0809 90a8 c6be a73e
00000740: 2c96 4af2 f62a de3e 43ed 234c 55f9 f2be
00000750: 434c 7a25 2192 813e ac1d 1677 877b dd3e
00000760: 154d f403 03f1 843e db27 06b5 6855 de3e
00000770: 95a1 a761 c864 00bf e98e cf8b 9628 02bf
00000780: ac22 4177 2e09 a2be 2ceb fe87 f24e f03e
00000790: 791d 513b 3dc2 d03e e051 31eb f33c f13e
000007a0: 399a 8832 a464 d13e cb29 6b68 dcc2 e6be
000007b0: 95e2 ae09 3692 eabe 9b86 f10b bfa7 e03e
000007c0: d0cd a2ac 7bd8 f8be c982 0a5e 08b7 e7be
000007d0: d833 018b d47e f5be ea82 1f36 3f79 f7be
000007e0: 2c8d 56ed 9bd9 fd3e ea55 d998 79e8 f8be
000007f0: 62c2 7268 b524 f6be 8163 3bef 1956 e0be
5.686244497973339e-08 -5.027651750422857e-06 4.408245251894763e-06 3.698024855947909e-06 -1.3295501895360186e-05 -1.7167913040342395e-05 -1.5375038419001735e-05 -1.5042088088022017e-05
-7.113342671222163e-06 -2.628097116809473e-05 1.705984934221317e-05 -2.6063777247588754e-05 -2.7341502438324054e-05 -1.1057246771457477e-05 -2.4716930559817095e-05 -2.205258433119632e-05
-1.5202676680481832e-05 1.42832349819877e-05 -2.614466077611811e-05 1.487053968343309e-07 8.9930016343147e-06 2.3826187072333205e-05 -1.3017937990860493e-05 9.051604286461692e-06
-3.8297050530589285e-06 2.6177853474534664e-05 -5.367858774763355e-06 1.4471405137266499e-05 -1.4434321018829535e-05 2.5235969475928137e-05 2.39344011009142e-05 1.8837632105210784e-05
-1.1838754572538912e-05 3.830046111333816e-06 -6.259000575660596e-06 1.641666708826524e-05 2.4614660792048743e-05 -2.6384521901692527e-05 -2.0345223250637025e-05 -2.7739961953629694e-05
6.394706740031296e-06 -2.230214810007857e-05 -1.3460555404460905e-05 -1.1104839761147854e-05 -8.424044843961499e-06 -8.57885600751198e-06 -3.7482384712383727e-06 2.852922779996802e-05
-2.746886826456212e-06 1.9843453004151175e-06 2.7877958498263877e-05 2.2831337437613627e-05 -1.4020900377840315e-05 1.6532634494143268e-05 4.194990833302467e-06 -1.2561142107692161e-05
-2.4950677709511526e-05 -8.895675558762123e-07 2.449690914770059e-05 -2.321213851948984e-05 1.2478292002267416e-05 -1.938181820372449e-05 -1.8553992029465248e-05 -3.137139452638786e-05
-2.462081564551633e-05 2.8393330388564188e-05 -2.7641561058514862e-05 -2.1100427804759333e-06 1.674931021263204e-05 -9.778057118577148e-06 1.446027169658183e-05 -2.8415724782967494e-05
-1.2096077742888012e-05 2.4947202941255154e-05 2.964557334312704e-05 1.194879450619411e-06 2.2091070968702654e-06 -2.1493182125692612e-05 -2.656818077370634e-05 -1.0835105053321862e-05
8.693811195666128e-06 -1.2916326852487773e-05 -9.706977237195538e-08 -8.612062634633924e-06 1.5084589762224767e-06 -1.6058477843385413e-05 -1.6914043297489005e-05 6.698440170162445e-06
4.010407786148436e-06 -2.0354983835558183e-05 1.3756820665634211e-05 5.400077382101057e-06 1.926417194623203e-05 -7.71822738768892e-06 1.5368291281146338e-05 -3.0181783503793594e-05
2.8957223855318285e-05 -1.036886946100642e-06 -8.94450665194535e-06 2.486926080155528e-05 -9.00494654507378e-06 -2.4171005203946306e-05 -4.918523741665839e-07 -1.7907730507265145e-06
9.15291966574988e-06 -5.077044729085289e-06 6.398569164081452e-06 -4.304030675422732e-06 3.7368810311886644e-06 5.206508839242371e-06 -8.29730753422167e-06 -2.1134054894609398e-05
1.7341650858506215e-05 8.362746343201464e-07 3.9969494492553854e-06 2.3703657071698006e-05 -3.0544084841759124e-06 -1.9037138897209886e-05 -2.5778959855043158e-05 -1.5581829495924377e-05
1.5154631070423097e-05 1.0710847717838154e-05 4.463872248387509e-07 3.0146011079538605e-06 1.559853178587131e-05 -6.274486895316939e-06 -2.8377741324247173e-05 -2.439120747920801e-05
-1.5814938352019023e-05 -2.8691707487291076e-05 2.3949534361410264e-05 2.56686602019992e-05 -2.8932252215655774e-05 1.0281195554759057e-06 1.9258004090570455e-06 -2.6087452037399936e-05
-6.85902082342351e-06 1.2467626528873678e-05 -1.592544348739057e-05 1.5852145301319313e-05 -4.3257682307614465e-06 6.198098371838673e-06 -7.528320768100406e-06 3.6240765651913733e-06
-8.485571883273522e-06 -4.400709768978385e-06 1.1767160260659513e-06 -3.7870720360886597e-06 -2.3808578645907157e-06 -1.9423981956530126e-06 6.807745232130296e-06 9.615733232128643e-06
-9.146307697908992e-06 2.016466677338805e-05 -9.555090068178651e-06 2.2279644845672632e-05 -7.096462729365543e-06 -2.615183597720299e-05 1.8447560296312864e-05 -9.738798158421431e-06
-1.0126162870810974e-05 3.1408805289414927e-06 -1.0059572223326467e-05 9.586692017269635e-06 -1.1548426002338804e-05 -3.898928574392643e-06 2.908006199087053e-06 -1.6254574066520587e-06
1.6232388744860104e-05 1.1974880121311257e-05 -1.3317740095228769e-05 -1.1313588319285913e-05 -1.0550723957686921e-06 -2.2849568225458562e-05 9.925335243448516e-06 2.2861792727245958e-05
2.775225089299967e-05 -1.336739720476923e-05 -2.2365601516449894e-05 -1.2525401511725155e-05 -1.5922619457546155e-05 2.1156130786154112e-05 2.9812735744573565e-06 1.515144546037411e-05
1.887006482775516e-06 -1.3775234927159831e-05 -2.192342880952862e-05 8.643550747355338e-06 5.756448950401036e-06 1.7476931541748843e-05 5.834677941413611e-06 -1.0976466780325497e-05
-2.6329272676036408e-05 -7.062170407021574e-06 -9.435460174994004e-06 -1.1633120593714258e-05 1.2967324552208364e-05 -3.0393002495491562e-06 1.2414433886777562e-05 3.1572403766860115e-06
-8.427014404458358e-06 -1.9689624220361247e-05 -1.340041188978344e-05 2.1206102039145945e-05 1.3537474629747235e-05 1.9133233040477714e-05 -1.1381780100583616e-05 2.80483522653111e-05
1.7540351891570517e-05 -5.2756040184660146e-06 -0.0 -0.0 0.0 0.0 -0.0 1.5009153498269096e-05
-9.761498214694655e-06 -4.449223882458187e-06 -4.058022366607749e-06 1.4267545168032948e-05 1.92965055643897e-05 -2.8108713654571015e-05 1.6437858704736453e-05 -2.244995706563582e-05
2.5939684860281662e-05 1.2372799763937994e-05 -5.66892842382368e-06 3.658942544830583e-06 -2.148524676433188e-06 -2.2012770249596417e-05 -4.645715592529171e-07 7.076626654669799e-07
7.192571307134499e-06 -1.8094976220501114e-05 1.309127977034868e-07 7.029184290081364e-06 1.5602597789512504e-07 7.232100714191541e-06 -3.126846805285019e-05 -3.463468008371528e-05
-5.375106710915306e-07 1.555289099973015e-05 3.995596604750858e-06 1.643953028136909e-05 4.1468454488381674e-06 -1.0853374317849968e-05 -1.2670105481991665e-05 7.941846318529433e-06
-2.3694645997008647e-05 -1.1308179581449682e-05 -2.04996401296681e-05 -2.238618925065858e-05 2.8467212208516435e-05 -2.375422041319366e-05 -2.111758524553571e-05 -7.78977071240624e-06
