data/95ZMK8WA5/ens_bio/bioneuron_7/pre_weights.npz (npz, 4200 bytes, 1 tensors)

weights f8 [100, 5]
00000000: 76e4 7c1e d7ea d23e 7727 43c5 505c ea3e
00000010: 7b04 7ec3 90c4 e5be 9ac8 b56d 8174 f4be
00000020: b479 767f 1c1d 83be 59b0 99bf 18b0 fb3e
00000030: d727 dcc6 8c0a ebbe 7dcf a0eb 2684 e8be
00000040: 4d8e b893 79c4 e5be 7a85 c55b 2772 f8be
00000050: a861 f852 dd77 ecbe 2fa1 d9cd b8b2 e93e
00000060: 8b00 c960 027f efbe 77a8 be50 2275 e5be
00000070: f507 71a0 4354 fdbe 86e3 01b9 018c ddbe
00000080: 9f0c 47e5 a975 d3be e780 f65c c791 f9be
00000090: 2144 e131 f6de f03e 4d5f 4151 a08b e9be
000000a0: 4410 7740 4d76 c6be 2c87 4225 15a2 f0be
000000b0: 8459 7ac4 0c33 dc3e ba1e 8398 f963 f6be
000000c0: 613b de71 3fa2 f33e d771 6353 be9b efbe
000000d0: c319 c8d6 4e0a ebbe 09f6 3595 8a30 d2be
000000e0: 93f8 55f0 7080 fb3e 0e26 79ac cd34 f0be
000000f0: a3c2 f1eb e18f f8be d050 07f7 1f02 e4be
00000100: d9f5 77c5 f257 f13e ae07 fe50 c448 f8be
00000110: 900f e4b8 f1d8 b5be 41fd f1e4 09e6 d1be
00000120: 63a4 1458 f3f3 eabe 6fea 2e65 2a0a febe
00000130: 44f5 d08d bc41 f8be 71b9 6ffd 8ec8 ffbe
00000140: 3a3d 605e a182 e5be 9ee0 7d33 53a6 f5be
00000150: 5c7b 536b 4fce fbbe 6a23 f87e 9a92 c93e
00000160: b3da 7d9e 5d73 e13e d2e9 d6dd 582b e23e
00000170: 492d d4c4 c017 cd3e abd8 0c43 1f88 f53e
00000180: e99c d0cc 5260 ebbe 6bdb a4ca b02a f23e
00000190: 748a 3867 dd74 eebe c1a0 38d5 984a f53e
000001a0: 1601 c992 fca0 f23e 3d3c af39 edf5 003f
000001b0: 9372 bc24 fe49 b0be a2e9 93b0 cda6 f1be
000001c0: c052 957f 789e f5be b13a 2535 3271 f7be
000001d0: 16ad 091b 9e6b f83e a995 db53 eba3 85be
000001e0: 66b8 efa7 9d6a 00bf 3a36 39e2 8f5d fbbe
000001f0: 52b7 e631 ba64 f43e cf10 0b03 f01d e03e
00000200: 25eb 477a b583 d13e 2fb7 1ca1 57ae d8be
00000210: 0113 d3f2 e3f2 f83e 89e2 beec 4c30 f8be
00000220: 3f39 40ce 1814 ea3e 1a44 db7c 8b8d ecbe
00000230: 8256 27ee d02c e13e 5713 d3d7 73ff b03e
00000240: 03f4 aca8 214b fbbe 0479 8115 c244 ff3e
00000250: b27c b140 dfa2 01bf b292 291f 0d2f e4be
00000260: 8bbd 6f6d 4a52 d6be 5ab2 5554 cdc8 f33e
00000270: 1be7 9aab 6a06 dd3e f9fa 0879 4280 f13e
00000280: fd27 e393 b6d1 e83e 6492 73ac c1d8 f5be
00000290: b85a b62b b957 f53e 14fd 2a10 79fb f33e
000002a0: bff0 8eb4 d209 b93e cb67 5163 724a a13e
000002b0: cfe6 6d7a a889 d8be 1828 6adb 0146 e3be
000002c0: f7a0 2f73 0af2 f73e 15a3 a19f 558c d5be
000002d0: ef44 a38c c72c d73e f7c8 d0ba d67b eabe
000002e0: f839 d47c 5c41 f0be f676 b665 b1d4 c23e
000002f0: 9f0c 1287 35fa d33e 7e74 f31d 4f8d c3be
00000300: c2f5 d0a0 5532 fbbe ef66 c7c5 429e 01bf
00000310: bcbd c326 c98e f2be 59b8 b772 67e0 b63e
00000320: 82ce 90d2 f5b9 f6be ffc1 dbf9 26ca e8be
00000330: a52e c568 3c89 f03e 7d8c 692f dffc eabe
00000340: 1e05 0766 05a6 ec3e 1ac8 28c0 aa0e c93e
00000350: 4431 8a9c 48e5 debe d0ba 4259 3dc8 d93e
00000360: 440f ddd9 40cd d83e 761e 04e2 e7a8 b43e
00000370: 3fd7 e506 8fd6 e8be a662 bbed 801a c53e
00000380: d79a 4fb7 bf72 e03e 5260 c124 c56a f1be
00000390: 76a4 800f de02 ebbe 0f28 703f 2626 b13e
000003a0: a6c0 cc99 14d0 e83e 9787 2519 4a0c c1be
000003b0: fa31 108a 7b77 8e3e 2f1e 9a92 b90c e23e
000003c0: d99f d640 866f ecbe b63f a825 1dde ee3e
000003d0: d6c8 ae44 94fc e7be 3a96 16b6 dd02 f13e
000003e0: cbcd 7b18 ac41 dd3e 7f12 c8cd 531a eebe
000003f0: fa44 b2b2 9ea3 de3e 630f 1366 bf36 fd3e
00000400: 168e 2101 879c f8be ca1e 591e 2c05 7a3e
00000410: 2934 6b76 ccfa f0be 56fe 0398 dbf1 f23e
00000420: c91f babc 631a f1be 564e d9e0 ca88 adbe
00000430: 1378 a1b5 464a ed3e 3719 55f0 a2c2 f83e
00000440: 7a30 473f 4c76 a03e 2249 cec5 ddab f23e
00000450: 673d 23f3 9955 febe 0e6a 1633 65f2 f3be
00000460: 6f71 dcf8 01b6 abbe ad29 540b bb02 e5be
00000470: 10d2 9fd0 3a34 e0be 6ddb 03b4 fecb e0be
00000480: 9d93 bd95 2377 c7be a2b6 1025 400e ee3e
00000490: e288 eb50 5cf2 01bf 5b3e 6acb 7af7 fbbe
000004a0: a051 9073 1ffc f9be 7992 691b 66ac f5be
000004b0: cb5d f568 85d3 c7be 54bf 3a24 68fb f2be
000004c0: 1db1 975e 0d97 f2be 62c6 999d 0bda e23e
000004d0: 748b 4b12 e922 d0be 286c 798e a7b5 c63e
000004e0: 17d0 3da1 6608 f6be 1ad4 d61a 8b16 fd3e
000004f0: 1172 8d1f 7772 ddbe 277d 534e e094 e1be
00000500: 81aa 22d2 877e d33e 5d00 12f0 4b83 e73e
00000510: f089 1b69 14c2 d7be 09e2 b79d 03bb f5be
00000520: 84d9 91cf 7c9f cabe d6e8 6a67 636b db3e
00000530: 3807 b902 6698 e5be fded ceec 46d3 e83e
00000540: eb1b 4738 f0ea e73e e358 e0fb 7d40 f23e
00000550: 67da a781 ffff 78be 17af 37b0 202b f23e
00000560: aec7 40ce 6acb b63e 4687 ee31 c949 f13e
00000570: a2c6 3786 28aa cb3e 8f2b 356c c1d3 eebe
00000580: 7911 40e8 0be4 ccbe f157 bf3e bc21 f43e
00000590: 2f37 7db1 9205 f23e 8090 0448 3759 bd3e
000005a0: 0922 d08c b1a3 d6be 6fe3 5f32 6a18 f9be
000005b0: 8abc b0d0 4e5d fe3e d819 71f7 4955 f4be
000005c0: a5fb 3ad4 76ce f53e 1f1f 2e0a 6b30 ef3e
000005d0: 0675 3b68 19f7 f13e 8683 b6c0 ab47 d4be
000005e0: 98db e23b 0ecb e8be 8b4c 3c77 e304 f6be
000005f0: 85f7 116f 95c4 d4be f1f5 12a1 83ad b0be
00000600: a747 0ccc f352 f3be 1d82 916f 4f9f e13e
00000610: 8fd7 00a1 4ffa d7be d5f1 2ce0 cc58 dbbe
00000620: bae3 91b8 e2ad ecbe 349d 5ede 0950 c1be
00000630: 1bf8 d889 0824 e8be cce1 d47a a123 e43e
00000640: 3493 d77c e367 f5be 6299 9cf6 77bd a83e
00000650: 3720 25dc a132 f43e 4538 b72e 1ab1 dc3e
00000660: cb7e ca94 0a9f e53e 0956 4d0f 4897 e83e
00000670: b403 e705 90cc e23e 45a0 5071 6dd5 e53e
00000680: 4105 8cbf 51a3 fabe d1ae 5d87 6582 e7be
00000690: 0000 0000 0000 0000 0000 0000 0000 0080
000006a0: 0000 0000 0000 0000 0000 0000 0000 0080
000006b0: 0000 0000 0000 0080 95af 372a 9ab0 ed3e
000006c0: c613 e357 816d 8f3e e91e c3b0 0216 e63e
000006d0: f224 dca7 e559 efbe 39df c55e 4ff2 e53e
000006e0: 8ffa a8d7 e413 f5be 0b6f 43bd 5e5d e5be
000006f0: 9e66 fb50 e1cc de3e 92a2 5d2e 5e7b d23e
00000700: bbf5 3bb8 e290 eebe 3f66 410b 87d3 ef3e
00000710: bc3e afe6 7a58 fa3e 4ffe 2b3c ef64 f0be
00000720: 96fd 9e1e c53e ebbe f43d b7b3 35de 003f
00000730: 46bb 225f 50eb e1be b3d8 ff22 5e44 f5be
00000740: 0db9 85f1 f0f1 f13e 480f f359 eeb9 e5be
00000750: 2d69 d2ea f114 f2be 1f90 fb8a e42e f9be
00000760: bb57 d193 1ba4 fd3e 9c7f 2fba 4504 d5be
00000770: 0832 b45a 37a1 ecbe 0185 a130 ffc5 d03e
00000780: 6a5d ddaf 20f1 dabe ab53 403e 5ac1 f0be
00000790: 47c5 9868 1919 f83e c1f9 f2e8 87f8 e13e
000007a0: 60bb cb13 7483 f73e 6365 4716 da1a d43e
000007b0: 5918 2639 95f2 e9be c72a 9371 abcb e8be
000007c0: 5636 2d07 5b1c ecbe 8c81 da4e b0c3 eb3e
000007d0: 1c5d 964d 3429 c7be 38da 3489 0c72 f63e
000007e0: bb37 062e e406 ebbe 3d38 d2ec 6d66 d23e
000007f0: 0acb 39e4 03ea eb3e 26e5 4979 d526 e3be
4.5102465049902355e-06 1.2569717150152e-05 -1.0379712065635427e-05 -1.9507503436107765e-05 -1.4240828226110593e-07 2.6405217772682312e-05 -1.2894254008983322e-05 -1.1690244139918094e-05
-1.0379543360867312e-05 -2.331343942907824e-05 -1.3574705547234774e-05 1.225382441845442e-05 -1.5018525140964258e-05 -1.0231759482188581e-05 -2.797046365921731e-05 -7.044530221483256e-06
-4.639535820807855e-06 -2.4384926118892986e-05 1.6089386115251376e-05 -1.2181003093455741e-05 -2.6776929222556017e-06 -1.586259379904931e-05 6.72326411401412e-06 -2.1353270796691254e-05
1.8724232283380704e-05 -1.5072046704416829e-05 -1.2893803352132042e-05 -4.3367420688978406e-06 2.6227687177187374e-05 -1.5455497104610283e-05 -2.342418769924144e-05 -9.540701030021434e-06
1.6540096423147764e-05 -2.3159261274503517e-05 -1.3022088043998624e-06 -4.267356032205365e-06 -1.2852159445646786e-05 -2.8648099327214406e-05 -2.313307128453303e-05 -3.031104264644133e-05
-1.0256898303166913e-05 -2.0646769570004644e-05 -2.6517772046537463e-05 3.0484998132556767e-06 8.321117050275528e-06 8.66380917840119e-06 3.468130251099069e-06 2.0534255045855678e-05
-1.3054019655524322e-05 1.7325172543904333e-05 -1.452279250375064e-05 2.030505613795429e-05 1.7765859569475016e-05 3.234987453703444e-05 -9.709020955601604e-07 -1.6833854748357664e-05
-2.0617509993786252e-05 -2.235619769779912e-05 2.3289090395212346e-05 -1.6123287054703556e-07 -3.1311928061814734e-05 -2.6097752323919604e-05 1.9448724850760456e-05 7.685157556898765e-06
4.17577931388183e-06 -5.884414820118453e-06 2.3793020933709882e-05 -2.3068116931065342e-05 1.2435199501251006e-05 -1.3615088302472824e-05 8.189708243937268e-06 1.0131514891913932e-06
-2.6029093116653617e-05 2.9820047842903978e-05 -3.363841832348373e-05 -9.624382959213865e-06 -5.321847956970571e-06 1.886785800790862e-05 6.920114793801544e-06 1.669026784356217e-05
1.1834713060560742e-05 -2.0834641671368245e-05 2.03539554895725e-05 1.9056621577415408e-05 1.4924032305371817e-06 5.153062320282054e-07 -5.850250011424451e-06 -9.190304678403273e-06
2.2836181596292697e-05 -5.13748681827614e-06 5.525331468984555e-06 -1.262843383118384e-05 -1.550227880380871e-05 2.2448100886603065e-06 4.762978378927657e-06 -2.3307786559527435e-06
-2.5936717112031713e-05 -3.3604061829795955e-05 -1.7698056056168177e-05 1.3635503347503312e-06 -2.1673590854655405e-05 -1.1820629704812657e-05 1.577003290380179e-05 -1.2868776576974026e-05
1.3660678804041647e-05 2.987062090364413e-06 -7.366094401672487e-06 6.146952177639705e-06 5.913202952904075e-06 1.231419339888226e-06 -1.1843738516796965e-05 2.5157367938673332e-06
7.843130996177377e-06 -1.6610212967144433e-05 -1.2879944264981005e-05 1.0221613118166006e-06 1.1831671878320963e-05 -2.0322806417041774e-06 2.269948185255111e-07 8.606770808285747e-06
-1.3559170862389936e-05 1.471883404227646e-05 -1.1437720010086196e-05 1.6223140283286158e-05 6.975300841583147e-06 -1.4354153273118647e-05 7.3049402927888e-06 2.786050606996773e-05
-2.347129345316002e-05 9.693281518521914e-08 -1.6193086959149505e-05 1.8067128167763236e-05 -1.631077229416448e-05 -8.801920913883016e-07 1.396662780822278e-05 2.3613260983234795e-05
4.90608839381827e-07 1.7806389553573093e-05 -2.8929119431362305e-05 -1.902280491137593e-05 -8.258511898537539e-07 -1.001866653862069e-05 -7.72668001401084e-06 -8.009364706113812e-06
-2.797292081457198e-06 1.4331658492929101e-05 -3.423065401421552e-05 -2.6671140143151545e-05 -2.4781088743779122e-05 -2.066939642943403e-05 -2.8403108626553036e-06 -1.8102701018817807e-05
-1.7728851082241947e-05 8.989210005003182e-06 -3.847210142212939e-06 2.7071938466911162e-06 -2.1012130744194135e-05 2.774053580419456e-05 -7.020742935317824e-06 -8.383535212207347e-06
4.647793760674037e-06 1.1211813673251016e-05 -5.664378152055939e-06 -2.072384255133629e-05 -3.1737087025598873e-06 6.537314780780652e-06 -1.0297444610011053e-05 1.1837625970892956e-05
1.1404861432929742e-05 1.740638958133083e-05 -9.313222940747241e-08 1.732680085623971e-05 1.3586639449167381e-06 1.6487337343946343e-05 3.2978869499649096e-06 -1.469954020784871e-05
-3.4440525400488767e-06 1.9199160234815942e-05 1.718689881551673e-05 1.7493069038388494e-06 -5.397660243218913e-06 -2.393281024379599e-05 2.8957828402006776e-05 -1.939121235874385e-05
2.0796299635913004e-05 1.4872137688262295e-05 1.7132979805424747e-05 -4.835120317820616e-06 -1.1822312327642613e-05 -2.0999046184644098e-05 -4.951454443900376e-06 -9.940737338143367e-07
-1.842883353037725e-05 8.402970239796776e-06 -5.716747651309918e-06 -6.520003355711382e-06 -1.367532765271679e-05 -2.063828776283474e-06 -1.1511209147770836e-05 9.60311066454467e-06
-2.0414175926480874e-05 7.373127861351411e-07 1.9262106215195604e-05 6.840659561869733e-06 1.0309817889463977e-05 1.1725875518268766e-05 8.964096363752113e-06 1.041112003903622e-05
-2.5403944138529094e-05 -1.1210137227122594e-05 0.0 -0.0 0.0 -0.0 -0.0 1.4157224831522027e-05
2.341550206561662e-07 1.0531415249550673e-05 -1.4949398287738482e-05 1.0464917942639925e-05 -2.0101271255729968e-05 -1.0187495640349571e-05 7.343366874323956e-06 4.406429729410801e-06
-1.4574985250255233e-05 1.5175952604962117e-05 2.5125146219383566e-05 -1.5634799420459398e-05 -1.299152150468947e-05 3.2173169951851046e-05 -8.544538080049906e-06 -2.02818502543437e-05
1.7113764529446763e-05 -1.0359903909302714e-05 -1.724416386093238e-05 -2.401654700080757e-05 2.826790408890616e-05 -5.010769117824636e-06 -1.3651729054342025e-05 3.99909618850722e-06
-6.423450711632578e-06 -1.5979083301049097e-05 2.298168559472971e-05 8.569156561552616e-06 2.2424211453871286e-05 4.793379364953279e-06 -1.2372774823143374e-05 -1.1823456178912905e-05
-1.3404256809980392e-05 1.3239101885276887e-05 -2.7610009111879083e-06 2.1405700477228877e-05 -1.2887439368804731e-05 4.386929231560126e-06 1.3310490550843337e-05 -9.132239747732819e-06
