data/UE7GEKCGH/ens_bio2/eval_25_bioneuron_4/ens_bio_weights.npz (npz, 2200 bytes, 1 tensors)

weights f8 [50, 5]
1.0733975581224077e-05 -4.846821657496226e-06 1.1460542433779013e-06 -2.1100921782097462e-06 6.4703420069690335e-06 1.960114571045207e-05 -2.494712380860493e-05 4.096518357345192e-06
-2.0117203821385785e-05 1.2839328117563163e-05 -9.988483369700272e-06 -3.57868623429979e-06 -2.4397707258174647e-05 1.3320882907149438e-05 -1.8980239962569937e-05 3.1100119592777044e-05
-9.906826549907868e-07 3.6054233627118815e-05 2.6175406735789098e-05 -1.813279438396807e-05 6.498838631435397e-05 2.5827575435840804e-05 -1.1152336807411673e-05 -3.517573188656032e-05
5.3146998274593484e-05 -1.3379565125952983e-05 -1.984013912212133e-05 3.098541602908111e-05 1.0948783504557536e-05 -1.610754813810573e-05 5.733075952603074e-06 -1.0030741124982623e-06
-1.1212229985883304e-05 -9.2137997184538e-06 -1.1468197207573413e-05 -7.168152516803903e-05 -4.361025545314668e-05 -3.217387285899967e-05 -8.831075000535902e-05 -5.8348220508975165e-05
-5.56693496954896e-05 -5.5859337055163383e-05 8.119839787703334e-05 2.1193883215292306e-05 -7.642372010939076e-05 1.428612447994378e-06 -1.5188710197515794e-05 -9.214299957948354e-06
-1.5004871865950644e-05 -1.5313564029183575e-05 -3.6049246490881295e-05 -3.0141274878796708e-05 3.326335790205083e-05 4.276879678577678e-06 -2.0156093440456546e-05 4.550036747902032e-05
-7.682261727611613e-05 -7.10808880411582e-05 1.3956170996602196e-05 5.978256120373599e-05 -8.976847121592518e-05 -0.00010813698088340832 9.131713200567888e-05 -6.149354603379407e-05
-3.8486926952637786e-05 8.176858485637943e-05 3.0697564289381275e-05 -2.6153196312936137e-05 4.1944316225558024e-05 2.1664743083972614e-05 3.0471167978976276e-05 2.72683617783656e-05
-4.7034585545458356e-05 -2.882106722774901e-05 -6.133492774540378e-05 1.2005564881582017e-05 -4.220995651036379e-05 -4.414077491769643e-05 1.6509854176380713e-05 -7.374297369743637e-05
3.822747363932407e-05 2.3602234919952362e-05 -3.0690270469319155e-05 4.2664406200126944e-05 1.191653382466638e-05 0.00010711848128294289 -3.577791174095959e-05 7.057314451505696e-05
-9.534207687684179e-05 4.494094712512879e-05 4.194855520176592e-06 8.955271009662734e-06 -4.40353519332591e-06 -5.407631828758007e-06 5.732478556266347e-06 -5.356306853627579e-05
-3.8012377412631896e-05 4.282473810008235e-05 -1.6789656369788787e-05 -5.763751656945073e-06 -5.703471548009768e-05 3.587140404376413e-05 -3.0684438374315055e-06 -7.32819667306819e-05
-3.82158723042797e-05 -1.2012383318618672e-05 3.791160267783658e-05 -7.014504267621293e-05 -2.8080546436197278e-05 -3.8509683518423664e-05 2.845561674016632e-05 -2.2897486058216697e-05
6.26539292107434e-05 -4.10712889162712e-05 -2.6925015387130725e-05 -7.537972153649795e-05 -5.199195830504816e-05 2.642854119391169e-05 4.0254873198015404e-05 4.7539690161927865e-05
-7.488073525190632e-05 -1.252653911141735e-06 -5.881714847720641e-06 -5.514977928737883e-05 -5.815215647467143e-05 2.656220424899006e-05 -4.973174527350662e-05 -4.961620527030589e-05
-4.932322215226519e-05 1.8489216830046853e-05 -2.469541282771011e-05 3.1831380997171455e-05 1.231645446861107e-05 -9.14160813146451e-06 8.979085792029029e-06 1.3095513478113574e-05
-3.3971897577005556e-05 1.237131799281732e-06 -1.4712222607703488e-05 2.175235213022367e-05 4.942257456469404e-05 -1.4572281210435292e-05 -1.0301667342475908e-06 -8.145907996909532e-05
6.680725333036316e-05 -2.4724731679971262e-05 -1.672702244082097e-05 5.437038968936657e-06 3.479614867247941e-06 -3.257098198248839e-05 -1.821392214763222e-05 -1.2085326493021931e-05
-1.3923325497303758e-07 -3.273893848321059e-05 -2.1771294227261806e-05 -3.87125475935147e-05 1.1926856847786106e-05 -1.4573113478052783e-05 -3.773867154161671e-05 3.218800588348307e-05
8.448866032839976e-06 -1.2774665724091825e-05 -5.489151075237091e-05 -1.9979499301715024e-05 -2.7880076446335496e-05 7.039761211220642e-05 1.597143097949535e-05 -6.657409485540248e-05
-5.535010884294074e-05 1.0728412587439407e-05 -2.0361677366551853e-05 2.4841488733443423e-05 -2.4350378216989553e-05 -3.239918458079044e-05 3.086706319033675e-05 -5.345807244199959e-05
3.722020790987074e-05 4.300741745463378e-05 -1.1836121923485053e-05 4.5832495011556137e-05 -3.010352616202619e-05 -2.9198759399674617e-05 8.738853056293778e-05 -0.00013613646914902833
-1.9399358400897456e-05 -2.192529161697556e-05 3.144890158631872e-05 -5.9498380587009706e-06 3.633912573613356e-05 -2.8011468609484922e-05 2.3702886308116015e-05 1.4434773313139201e-05
1.0418866204720192e-05 1.026833394212361e-05 1.2132630916361937e-05 -2.5100475722660257e-05 1.0133657795819e-05 -6.263066783529468e-05 -2.8481111159244807e-05 6.05063885284503e-05
-0.00013562393483937068 -0.00011466512898168499 -0.00013504230618429424 2.78381683933529e-05 -0.00012038717224847362 -4.846695083180002e-05 5.6663338845058263e-05 -5.9284611460633825e-05
-2.3130686329253328e-05 7.44893311700014e-05 -6.629437873402823e-05 2.167375404088714e-05 1.6337052257424438e-05 2.747096904101839e-05 -3.330053081317549e-05 6.718670298182011e-05
-1.3187062923641186e-05 -6.090478762601112e-05 -2.547593872741397e-05 -5.706825664610258e-05 -2.333340467295925e-05 2.2011395325664992e-05 -5.447298892700556e-06 1.0139695827619428e-05
2.971385289091655e-05 -6.279326578955925e-05 -5.859483349339117e-05 -1.9739894132610496e-05 -2.8799952526497876e-05 3.424764393736207e-05 1.565772016617199e-05 2.5462667589417667e-05
5.217556434122695e-05 -4.420028666505289e-05 -2.5989148131384933e-05 8.072530316167937e-06 1.2857756862330654e-05 3.521789439518011e-05 -5.570057301362803e-05 4.331535712713434e-05
3.1736774357820314e-06 3.383415720876146e-05 1.6724255028981787e-05 5.535917877661661e-05 2.778176964407131e-05 7.275391420348336e-06 1.3534512655046484e-05 1.8526572806232268e-06
-3.22429495374757e-06 6.257903295824158e-06
00000000: 099c d75e c282 e63e 6786 4a31 3c54 d4be
00000010: fcc4 76f7 433a b33e c205 5c71 63b3 c1be
00000020: 7f2e 6e11 7a23 db3e 72a0 057a a48d f43e
00000030: 1766 504b b128 fabe f49f 4e64 9a2e d13e
00000040: b6ba 51b8 2b18 f5be d6e3 dbd1 0fed ea3e
00000050: 9d8e 7bb3 86f2 e4be cd25 3a90 2b05 cebe
00000060: 1b9c 24ad 3595 f9be b8c4 c134 98ef eb3e
00000070: 23d5 9628 f8e6 f3be b29a f0f8 2f4e 003f
00000080: 24be 3d19 f39e b0be 4d1c d408 1ee7 023f
00000090: 2a92 1541 6872 fb3e 0dd3 4e24 7c03 f3be
000000a0: 002f b1f9 4b09 113f 6cbc 2478 0915 fb3e
000000b0: c656 e47f 5d63 e7be 1666 ccf1 3471 02bf
000000c0: e9a8 acf4 44dd 0b3f 063e c76d 190f ecbe
000000d0: 4b5d 95fa cbcd f4be a73e b9c9 ca3e 003f
000000e0: 3492 be58 15f6 e63e 13a0 9047 d6e3 f0be
000000f0: e051 0feb d70b d83e ca5a 74a6 2bd4 b0be
00000100: 2cd5 c427 8583 e7be cc63 a5fd 9e52 e3be
00000110: 2947 bd05 f10c e8be 4808 ad39 77ca 12bf
00000120: 6929 b0f7 44dd 06bf a66d 8dda 4dde 00bf
00000130: 693c f421 6f26 17bf def9 4697 5d97 0ebf
00000140: 4b48 684a d02f 0dbf fc65 e534 5049 0dbf
00000150: ac85 7dda 2149 153f 9bec 8690 3039 f63e
00000160: d6ba 9783 b508 14bf fd1b 87ff d7f7 b73e
00000170: 8a8a 236f 60da efbe 3f31 42be e352 e3be
00000180: 8779 e0e2 ad77 efbe 9e8b 671b b40e f0be
00000190: fba8 83ad 72e6 02bf dc9e 48a3 fc9a ffbe
000001a0: 3f62 5646 8870 013f e600 fbbb 43f0 d13e
000001b0: 5caf bb31 9c22 f5be 47de e3b8 f4da 073f
000001c0: f195 e283 7a23 14bf bdd4 a75b 28a2 12bf
000001d0: 16a2 4789 a944 ed3e 1b33 7429 e157 0f3f
000001e0: 396a a397 4288 17bf 3edf 7e2f f358 1cbf
000001f0: 5754 d261 30f0 173f 11df 9613 c31e 10bf
00000200: 7c44 9dbd a02d 04bf 6773 5897 656f 153f
00000210: 706b 0b47 2818 003f 937c 31f7 716c fbbe
00000220: dfdd 45bb abfd 053f 7d0e f0ce 95b7 f63e
00000230: 4ea9 13b8 8af3 ff3e 1b0d 888d cb97 fc3e
00000240: a706 b80d e0a8 08bf 7a4f aba8 9838 febe
00000250: cbbf fa08 1e14 10bf 5321 ee45 702d e93e
00000260: 19b3 ed0f 5321 06bf 5f97 3f7a 7924 07bf
00000270: 7db0 3c8a d44f f13e df3d 30a4 ce54 13bf
00000280: 0bb0 22fe cd0a 043f be9b c63b adbf f83e
00000290: 43c3 eca9 2d17 00bf 0670 acd5 515e 063f
000002a0: 7fa1 18f0 a3fd e83e b996 e17e 9914 1c3f
000002b0: 0e57 d0af 07c2 02bf fb17 0364 1580 123f
000002c0: 87d1 9168 4cfe 18bf 1f34 6b2f df8f 073f
000002d0: 5629 f61a 3198 d13e e03c 5c13 d3c7 e23e
000002e0: 0b1a 7f89 4278 d2be 3ace c384 66ae d6be
000002f0: 55a4 07b5 330b d83e 6065 6605 1d15 0cbf
00000300: 727f b757 efed 03bf 8ee2 facb d673 063f
00000310: d2a8 7a66 f09a f1be 49e5 d9fd c72c d8be
00000320: d2ac dbe6 11e7 0dbf 5660 ce0e 94ce 023f
00000330: 1ce9 d6d6 6ebd c9be ab51 1b9a de35 13bf
00000340: a498 b65f 3f09 04bf 0f20 5b64 1931 e9be
00000350: 2976 c6bf 68e0 033f ba9e 36a8 5a63 12bf
00000360: 006b 2275 d071 fdbe 41dd 7ba6 ae30 04bf
00000370: 569c b317 7fd6 fd3e 7f81 af42 7f02 f8be
00000380: 4ab3 c54e a26c 103f f478 d9bd 7e88 05bf
00000390: 436d f0f7 a03b fcbe 17c4 4fc1 a5c2 13bf
000003a0: 4a70 a815 3e42 0bbf b4d8 9085 5bb6 fb3e
000003b0: e136 3fe9 ea1a 053f 9948 e950 abec 083f
000003c0: b36d 6c3c 29a1 13bf e412 778a 1b04 b5be
000003d0: 0efa 7177 71ab d8be 2a1a c4fc 13ea 0cbf
000003e0: 7e0f cbe1 0c7d 0ebf 01e4 e5c6 3cda fb3e
000003f0: da1f 95c1 e112 0abf 9e71 f7d4 5f03 0abf
00000400: add3 3402 0ddc 09bf db2b 4a4e 2963 f33e
00000410: c5a2 e8d8 1fe5 f9be 5bc6 46ec 55b0 003f
00000420: 99b9 d69c 58d4 e93e 80dc fc0d dd2b e3be
00000430: 2438 8627 9cd4 e23e e483 e8aa 9976 eb3e
00000440: 796f 3a83 a1cf 01bf ed0d 64cc 70c1 b43e
00000450: c0b0 7b7a 90da eebe 6d1b 9441 1acf f63e
00000460: 929f 44bb 62e9 093f 4982 4a14 6f8f eebe
00000470: 78ca 874d 8848 b1be b6b0 7456 a05a 15bf
00000480: 4511 6ddf 5b83 113f 0bc1 9c9f feec f9be
00000490: cf7f bf3a 208a f1be 0b02 4ae4 f9cd d63e
000004a0: cd3e dc80 6a30 cd3e 82b6 576b 9a13 01bf
000004b0: 1d08 0533 4319 f3be ab3f 25a0 4258 e9be
000004c0: 6069 9ba9 04b0 82be 14bf 585c 252a 01bf
000004d0: 0b45 79f2 2fd4 f6be 925b c201 e94b 04bf
000004e0: 11c8 2eb9 2e03 e93e dfc5 1a77 e18f eebe
000004f0: 2b24 6ae1 32c9 03bf ac53 f375 33e0 003f
00000500: 1867 3a4e f3b7 e13e ed9a 25b0 58ca eabe
00000510: 3217 b5f2 69c7 0cbf bc40 cabc 34f3 f4be
00000520: 09c7 c643 003c fdbe 8e13 57c4 4d74 123f
00000530: 30d4 2f61 4cbf f03e 65d4 9b3d b673 11bf
00000540: fefd 2b42 f704 0dbf 5b23 66cc c57f e63e
00000550: 25a4 68d0 cb59 f5be a143 6b1b 560c fa3e
00000560: 635d d83f 8188 f9be ef93 6a81 8bfc 00bf
00000570: d602 2537 e82e 003f ffdd fc61 0507 0cbf
00000580: ecc5 149b 9c83 033f 936d 939c 5b8c 063f
00000590: f33c d835 78d2 e8be 8ec0 8f89 8807 083f
000005a0: d1d6 d590 da90 ffbe 2d0e a077 fb9d febe
000005b0: eaec f385 8be8 163f 2b63 965d fbd7 21bf
000005c0: 2c82 21c2 7957 f4be 5a33 3491 86fd f6be
000005d0: 9ead cc07 007d 003f 6b52 4008 97f4 d8be
000005e0: 401c 52da 5a0d 033f d2c6 2777 455f fdbe
000005f0: 26d6 b8f1 b1da f83e 6b76 4423 9c45 ee3e
00000600: de66 4a11 96d9 e53e 6bed 2612 c588 e53e
00000610: 1be7 9318 a871 e93e 1965 b78e db51 fabe
00000620: 184d 8252 7740 e53e e63f 29ae 126b 10bf
00000630: 62df 430e 57dd fdbe b121 efad 07b9 0f3f
00000640: 87a3 b8ba c8c6 21bf 9c93 76ea 0b0f 1ebf
00000650: e15a c893 44b3 21bf 33fb 825d c030 fd3e
00000660: 779a e3de 0b8f 1fbf 7af0 04c0 1f69 09bf
00000670: 1616 6e7f 39b5 0d3f 2375 31bd 0b15 0fbf
00000680: c63f 3da9 1841 f8be ee12 11f7 e486 133f
00000690: ffd4 18c1 f060 11bf 5542 5e09 01ba f63e
000006a0: 78de baae 7121 f13e 09a3 309e 2ece fc3e
000006b0: 7aba b886 8575 01bf 584b a4c4 d29c 113f
000006c0: 200b aa20 c0a7 ebbe 9cca 7491 80ee 0fbf
000006d0: f5b1 bf2d a5b6 fabe 2409 135e 92eb 0dbf
000006e0: 9d6c 0e5c 8377 f8be cd91 aa91 a314 f73e
000006f0: 255e 3d1e fed8 d6be 85d5 dd2e b543 e53e
00000700: 0546 276c 4028 ff3e 13cf 8617 fc75 10bf
00000710: 1c56 0726 77b8 0ebf 2af5 1332 e3b2 f4be
00000720: b29f eaaa ed32 febe 854f dd15 a4f4 013f
00000730: fbd7 3156 166b f03e 6a8f 6b31 15b3 fa3e
00000740: 5d7f 6ebd e25a 0b3f 5e33 1d49 762c 07bf
00000750: 8b2e 10a9 6840 fbbe 73a9 571e e8ed e03e
00000760: 8a06 aca5 f4f6 ea3e 0c74 25a3 dd76 023f
00000770: c83f 9e1d 0134 0dbf 5197 9456 b0b5 063f
00000780: f574 299f 6b9f ca3e eee2 22ca 24bd 013f
00000790: 4f92 ec0d 6289 f13e 20f4 26e6 2e06 0d3f
000007a0: 86bb 38ac 9c21 fd3e ff9e a65d e483 de3e
000007b0: 35d1 4b41 4962 ec3e 5d8f ea38 1a15 bf3e
000007c0: 4dd7 81e5 1e0c cbbe f0c6 1c5c 5f3f da3e
