data/95ZMK8WA5/ens_bio/bioneuron_8/pre_weights.npz (npz, 4200 bytes, 1 tensors)

weights f8 [100, 5]
00000000: 5123 76ae e195 df3e 4368 10e4 3632 e23e
00000010: 31e1 a146 0fd5 a93e 86a3 4fa5 a694 debe
00000020: a2d3 01b4 a374 ed3e 7f2b 7c53 8ad9 d8be
00000030: e121 0fa9 b5e0 e9be 66e5 cc10 b097 f7be
00000040: f1ca 3a51 4cd1 f93e 2762 9d67 058a f2be
00000050: bcb9 b2a7 312d f93e ae3f 80d5 a6af f8be
00000060: c3fb c4ae f890 c0be cc34 b84e 2109 fa3e
00000070: 40a1 74b7 1f9e f53e da3b 361d 8574 ea3e
00000080: c198 4605 7e70 ce3e f4c9 1b36 dd7b d03e
00000090: 9466 1590 4a1e e7be 95b9 aa0e da81 d2be
000000a0: b9c7 2abf 2230 f03e 81ec 5c0b 6368 f43e
000000b0: fb22 33fb 7db7 c03e 7162 a695 f67f ec3e
000000c0: 00ab fe22 c1c9 eabe 430e 2fcb 4792 f23e
000000d0: 5477 4c04 59a2 fa3e 841c 2515 2080 c13e
000000e0: b2e0 0142 9035 e4be 2cb6 fe13 ef7b fb3e
000000f0: efe7 774b dd36 d5be ede2 45f1 7587 963e
00000100: f645 7ba9 4f7c ebbe c198 df57 7173 fabe
00000110: c5bd 742a 7a44 f5be 4ba7 1a25 59e0 e83e
00000120: f062 fbca 3f26 bcbe 0ef9 e89c 8125 003f
00000130: 8637 b51d 1aa6 fbbe 0d70 74ec 5bc1 fdbe
00000140: 58ab c030 2b6d febe 1239 6ac9 23fd ec3e
00000150: 7c76 48a1 6e4d be3e 0ff1 f881 07b7 dcbe
00000160: e2ee 7d1b a75b ffbe 02fc 11ff b638 ea3e
00000170: 648f 868c c77b d33e 0dd4 dad1 a5a8 f13e
00000180: cbb4 a771 70d3 d43e a9da c40f 6834 febe
00000190: 6eae 58d4 09ed f5be 0616 5b56 3b5d ec3e
000001a0: e211 934c 6566 f83e f9fb ea50 6086 d53e
000001b0: f565 ee70 cdf8 f8be 8ce8 679e f16b d83e
000001c0: f18c e839 1486 f83e 8ef1 84bd e4dc d0be
000001d0: 0a89 9425 1c39 edbe fa73 ff3b d573 f43e
000001e0: 697a eda1 04ae f13e 4e88 66cd 6515 fd3e
000001f0: 8570 1aa8 4842 df3e 36e9 0771 0e28 dbbe
00000200: 61b4 eadc 7d9c e03e 45e5 5647 cd46 e9be
00000210: 6d6a 996f a41d d7be 3ea3 49e5 a4d9 fabe
00000220: c54d 7b38 6699 e6be c094 48ce 0173 f23e
00000230: d8aa a0d4 6fd0 f43e 3935 9c6a b44b fcbe
00000240: 5893 9c47 ab19 01bf 8e29 a9ac aef1 f5be
00000250: 2941 19db dfe2 f9be d67a 9295 5ae5 ee3e
00000260: b471 8ea4 8ec4 fdbe b08d 2d56 12fb e23e
00000270: c540 1e4a 98ca f9be 11bd 1f23 2e04 f7be
00000280: a563 fe53 8a4c ee3e f19c 98ff 4e43 efbe
00000290: 514b a475 e4c8 e7be 7a39 007e 0e27 f8be
000002a0: 77f5 4a20 46a8 e5be 2217 37f2 dc49 ca3e
000002b0: 447d 4e48 ae6c f9be 17cd 7e90 cac6 f8be
000002c0: f718 1fd5 bdae fb3e aaa6 86be 658e d33e
000002d0: 0c4b c528 a5be eb3e b556 2008 ffdd 993e
000002e0: bb0c 7039 eb34 b23e d0cb d4a5 72fa e7be
000002f0: 7f24 e040 cd28 f53e ff0a 4e5b bbc9 fe3e
00000300: 2b08 a636 2dd7 f6be 1bff 49c8 92c2 f53e
00000310: fcc2 8f90 cefe fdbe 4f48 198c fd5f f8be
00000320: 18be 8e48 4229 f53e 51ad bf21 4e5f f9be
00000330: 4d04 fdda 61f5 f7be a5df 9eab 21f1 d5be
00000340: 89d8 61f6 f9e6 ef3e 65c1 34fb 8c0a d4be
00000350: 1816 a0f2 d09e aebe fcec cf57 43be c03e
00000360: 5090 bb14 a171 bcbe 35ec 9476 107f bbbe
00000370: 7b38 9277 b172 ed3e 2da4 440c 2901 ea3e
00000380: 34aa 5384 b2e0 f83e 7695 f107 2d3e ee3e
00000390: 5d1f 2573 e552 c3be cc54 d260 4ae3 e5be
000003a0: 33bf 03f7 b7f3 fd3e ba6d ab72 62f6 f13e
000003b0: 6a93 71cd bde3 e1be 4fac 6f27 a572 d7be
000003c0: fe7d feac f4e0 ec3e 5476 9916 c490 ee3e
000003d0: 6925 ee7a 6c0c e43e d28c f9ee 30b5 cd3e
000003e0: fd53 a62e 04d2 ddbe 72b6 bfab 8578 d4be
000003f0: c960 0fa0 18c0 f1be 3689 db86 4076 f6be
00000400: 3ab7 88d8 b491 d6be 84c7 b308 8ff6 f83e
00000410: 79bb 9e7c 98b9 a43e f4d9 0035 e6c2 fa3e
00000420: 87bc 1cc0 a386 edbe 231f a076 7361 f83e
00000430: 4950 79e4 8526 f4be a5d5 cd3f 1226 fd3e
00000440: f005 cb8b 093b dd3e 6ac9 ada8 2a54 d2be
00000450: 3828 1d99 1ea4 fbbe 3292 d2c0 ab65 f73e
00000460: 3239 4434 54b4 db3e 4a17 a93f 4544 e4be
00000470: 6606 3d33 3a69 b2be ea42 307c 7949 e4be
00000480: 2b60 fe28 170e d13e c094 6f78 62e2 e3be
00000490: 19cc 6fb1 0d8d 023f 7b7e 4515 0a78 023f
000004a0: 714d e7b6 a0c5 f73e b158 88e7 2e87 c2be
000004b0: b7db e274 bc8f da3e ff43 9155 2350 dfbe
000004c0: 9b77 19f7 14f0 f1be b0f5 48a0 5ac8 e9be
000004d0: 5f94 bccd fc0c f13e 4a9c 1880 990d f4be
000004e0: 713d b272 f781 e83e 607e e912 ce1f fe3e
000004f0: 4307 084d 7a7d c13e 537f a7bc 2aee ab3e
00000500: 4530 f519 2e50 c73e 2855 4be3 1eb8 f2be
00000510: ab1a 5dac 3f39 f73e 792e 5b35 c1f0 ee3e
00000520: ca93 3ff0 8937 f63e 299d acb7 aad1 e03e
00000530: 9b07 c40f c8c5 d1be 78da c75a 36d7 ea3e
00000540: 4158 c74b fbf1 f0be c099 063b 716e efbe
00000550: 61f1 889e 3690 f2be 1d62 6699 c2ed b43e
00000560: 3973 5de2 a0d6 e03e 4f1c c59d 74a6 f3be
00000570: 6b42 f87c 1cae a1be 7116 a22d 0143 c1be
00000580: fb10 127a 30e1 fdbe 50f5 5163 0d42 f3be
00000590: 0df4 ee5c a70a e1be 3ce7 e7e2 ff7a f9be
000005a0: b2c4 a64a 2653 fcbe 2588 f461 5516 f93e
000005b0: 143a 5166 fdbd cdbe 4c4e 0ccf c3a3 b53e
000005c0: a1b2 6856 2ff8 c8be 36a4 6879 7224 993e
000005d0: 15a2 931a b192 f03e 719e 949b 7c8e eebe
000005e0: 7db8 848e e9fa c8be 4dfb 88d7 4cab df3e
000005f0: 9467 8c71 2a0b c2be 54ce a85f 8956 f03e
00000600: 1dc4 8a91 887c e0be cf12 106c 43f9 b9be
00000610: 091d e7ff ce87 f13e 3563 fac5 b425 d7be
00000620: 2c9a 4453 e232 cbbe 730e 60d8 4d30 c13e
00000630: a31a 2d60 f301 e9be 1af2 5982 0da7 e63e
00000640: be21 0f95 1f4e e5be 02e0 91c8 8c3f f03e
00000650: 0b75 06cb a463 f53e 8da7 70dc 220b dabe
00000660: a420 a800 5d0d f03e 6196 f722 79d6 e33e
00000670: 3f95 44a0 9d9e 57be 6589 c1c0 6c4b f93e
00000680: 4bfc 29b4 9ae7 d2be 4084 b764 d113 e63e
00000690: 0000 0000 0000 0000 0000 0000 0000 0000
000006a0: 0000 0000 0000 0000 0000 0000 0000 0080
000006b0: 0000 0000 0000 0000 5676 0089 25cc f0be
000006c0: 5393 f6b3 7e15 cebe 16c2 1a2a 2113 e9be
000006d0: 7953 3517 bfc9 89be 196d 3cd3 2b93 f6be
000006e0: 29b7 dc0c bd8d f8be f61a f090 f587 f3be
000006f0: 4b44 4bd0 8940 f53e 4462 7432 5840 f53e
00000700: 8d3c 9823 a23a ddbe 4482 baad adc3 f2be
00000710: cd8d 2bd8 be29 003f 6fe7 72f1 4240 9abe
00000720: e08f 0533 151c ff3e 9b7d e238 af1d c9be
00000730: f88d 55c3 c6cb e2be 1d3c 3069 368a f63e
00000740: 3fd6 6920 45a7 eabe 7ebc d7c2 b57b e2be
00000750: 6ead ea86 b19a e53e bc43 c43c 38a0 e3be
00000760: 82b5 2b55 a162 fcbe c770 efbf 7e5f fbbe
00000770: 6fe2 9d0d 3842 fcbe 0064 32a1 67b3 b03e
00000780: b955 5334 4ff5 afbe 94c6 be65 da75 d53e
00000790: a527 0027 2d6a f63e 5730 c898 1821 f83e
000007a0: 051b 2cfa 253a f4be b1df f5b5 d40d f73e
000007b0: 2197 9498 9175 fabe 3bdf d4f6 9cc4 e3be
000007c0: bce0 631b 4975 f83e c567 6041 e571 e43e
000007d0: d93a 1e75 25cd f23e 5f70 baf5 f836 ffbe
000007e0: 57d4 b714 0ffb f63e 9f9f 73b4 5fe1 e6be
000007f0: 8886 3c13 e91e febe 90a3 f95c ab99 e83e
7.530564040244434e-06 8.676600488800287e-06 7.698614699200277e-07 -7.2909993677838105e-06 1.4045535522403029e-05 -5.924646124598193e-06 -1.2339483221782947e-05 -2.2499590204482464e-05
2.4621554145463684e-05 -1.7680306405894665e-05 2.4010218549969214e-05 -2.3542537150033904e-05 -1.974856209368643e-06 2.4829544527139866e-05 2.0616218049303e-05 1.2614801483205462e-05
3.6286619808533398e-06 3.9300547045478184e-06 -1.1023676509114366e-05 -4.412468323762571e-06 1.5438108628536044e-05 1.9462357804683493e-05 1.9927938069468532e-06 1.358979050252002e-05
-1.2773563042708155e-05 1.771107481453165e-05 2.540032461972122e-05 2.086220925043608e-06 -9.636512970909474e-06 2.6210896294001442e-05 -5.057886645948639e-06 3.357103975014598e-07
-1.3106150887595512e-05 -2.5225589972332306e-05 -2.0282258131829886e-05 1.1861972925092777e-05 -1.6778356374728475e-06 3.079702183982252e-05 -2.6367984771006745e-05 -2.8376873868571395e-05
-2.9016914638339955e-05 1.3822950035516138e-05 1.8061679202327878e-06 -6.846179558869327e-06 -2.9905336958332004e-05 1.250340571545654e-05 4.64523163437925e-06 1.6840725143924723e-05
4.9652897140376585e-06 -2.8805458883252953e-05 -2.0910197482999796e-05 1.3525098164444808e-05 2.326963730038708e-05 5.131937782009392e-06 -2.3815045149788332e-05 5.8225764178969844e-06
2.3387666823759934e-05 -4.020420384439814e-06 -1.3934653156303968e-05 1.9504997680875443e-05 1.686073130302072e-05 2.7736267691154657e-05 7.4527075654384506e-06 -6.474607076695836e-06
7.920882948065323e-06 -1.2052807714423917e-05 -5.511233888445306e-06 -2.5606319768919953e-05 -1.0776145941282932e-05 1.7594572357411365e-05 1.9849974059275545e-05 -2.698490303658827e-05
-3.261617616904269e-05 -2.0927497454339932e-05 -2.468703104902093e-05 1.4732319572550149e-05 -2.8388787800191862e-05 9.050726196674737e-06 -2.459658265469078e-05 -2.1950081823205134e-05
1.4447682246830822e-05 -1.4907323918468613e-05 -1.1341445930434424e-05 -2.303368080452384e-05 -1.0327014942186224e-05 3.133836701005043e-06 -2.424672540579416e-05 -2.3628738773329412e-05
2.6400169481432538e-05 4.662570951921631e-06 1.3229707541616914e-05 3.854509104129305e-07 1.0852047347416312e-06 -1.1433750098354805e-05 2.0179159086839996e-05 2.9361739240406182e-05
-2.1782430317703196e-05 2.07520029271705e-05 -2.8605784823501436e-05 -2.3245775770349132e-05 2.0180862097594633e-05 -2.4196897456291614e-05 -2.2848629384290398e-05 -5.23136139379119e-06
1.5212179004669517e-05 -4.778197694663447e-06 -9.125583109176765e-07 1.995946773634286e-06 -1.6953864187480533e-06 -1.6389098738817482e-06 1.4041910377817837e-05 1.2399927421373892e-05
2.3725246383424738e-05 1.4420926389211867e-05 -2.303578093751993e-06 -1.0436941943840065e-05 2.8564477759950718e-05 1.713031739823481e-05 -8.530433133377517e-06 -5.590398919767707e-06
1.3770453193561422e-05 1.4574762377590724e-05 9.559884203163686e-06 3.5414430994848445e-06 -7.109731749462171e-06 -4.880616582864798e-06 -1.6928077460538053e-05 -2.142135820449553e-05
-5.380908426872762e-06 2.3806686425715675e-05 6.176526252588987e-07 2.552158849785688e-05 -1.4079063479137281e-05 2.3251216966029637e-05 -1.921699575142846e-05 2.7798381768436753e-05
6.969121554235746e-06 -4.369920712276419e-06 -2.636059941289062e-05 2.2313262935685047e-05 6.605246032144375e-06 -9.663906884626147e-06 -1.09738375626868e-06 -9.673600180477735e-06
4.0662386168386164e-06 -9.481580276424879e-06 3.538320577680543e-05 3.522663851884558e-05 2.2670730169438992e-05 -2.2087168043512642e-06 6.332747785878682e-06 -7.465610303362436e-06
-1.710683813482099e-05 -1.2294117376683258e-05 1.6260845639899285e-05 -1.912414882645719e-05 1.1686173442519988e-05 2.8728712261004408e-05 2.0849880473247197e-06 8.323889855686534e-07
2.7791504206061844e-06 -1.785204058786963e-05 2.214777739275679e-05 1.47535553582025e-05 2.1187733196276715e-05 8.0199295005705e-06 -4.237314211731886e-06 1.2798630302219104e-05
-1.616024086267148e-05 -1.4987666731536352e-05 -1.7703374313380957e-05 1.2474507450119695e-06 8.02917118008507e-06 -1.873990719161402e-05 -5.269087015054258e-07 -2.0577593718453708e-06
-2.8495450923774774e-05 -1.836587599201206e-05 -8.126075867193419e-06 -2.4300066963057367e-05 -2.7012637170369023e-05 2.3925056777625423e-05 -3.545540311601005e-06 1.289827022248139e-06
-2.9765930549457356e-06 3.746505340707135e-07 1.580525864578089e-05 -1.457051699789368e-05 -2.977863108231134e-06 7.550511661734796e-06 -2.1509666904396985e-06 1.5581163078161257e-05
-7.861356196544163e-06 -1.5481522697157395e-06 1.671838981012495e-05 -5.5187439042196655e-06 -3.2423455654962472e-06 2.049051263776537e-06 -1.1924562391419263e-05 1.080157751264751e-05
-1.0159096435106352e-05 1.5495531020509608e-05 2.0398362438824247e-05 -6.2092544288824544e-06 1.5308571201828048e-05 9.459393452491962e-06 -2.1997459868522546e-08 2.4122837246295758e-05
-4.507232747585106e-06 1.0527331275990881e-05 0.0 0.0 0.0 -0.0 0.0 -1.6019294491900704e-05
-3.5862880449370883e-06 -1.1956560516197329e-05 -1.921361093374618e-07 -2.1529090374544904e-05 -2.3416200568940997e-05 -1.8626299660008464e-05 2.0267584676162802e-05 2.0266862660186258e-05
-6.968745361670499e-06 -1.7895096660171828e-05 3.0828606232959425e-05 -3.9117070245073284e-07 2.9668520427419856e-05 -2.9940551434373865e-06 -8.962632004289546e-06 2.1495716804816837e-05
-1.2709330815523156e-05 -8.813496687102995e-06 1.0301719354308398e-05 -9.358338410455035e-06 -2.707030700837199e-05 -2.6104953572900888e-05 -2.6949565700348123e-05 9.95445252260788e-07
-9.524297658556811e-07 5.116549427629274e-06 2.137637278568746e-05 2.301147610421524e-05 -1.9290105806947354e-05 2.1986033400505932e-05 -2.523350989238401e-05 -9.426126519870514e-06
2.3325106405431366e-05 9.748890118333503e-06 1.793036728475303e-05 -2.9768692327722712e-05 2.191610228226658e-05 -1.091020898376355e-05 -2.872537989085389e-05 1.1730323335972117e-05
