data/95ZMK8WA5/ens_bio/bioneuron_18/pre_weights.npz (npz, 4200 bytes, 1 tensors)

weights f8 [100, 5]
00000000: 8af5 908b ac4d c7be b5cc 6ace 0ff8 df3e
00000010: 57f6 4d5b fa6d ba3e 0d16 4c41 d0e4 db3e
00000020: 926f 6008 66c1 ddbe 4d42 c3f0 fc2e f53e
00000030: 926d 33c7 a389 f7be f41e 3bd5 a587 f0be
00000040: 665f dce5 a8aa c0be 79ab b7f9 7d39 d3be
00000050: 0ea2 7903 a920 cd3e bb43 1954 7e5e cd3e
00000060: 7122 3cc0 4043 a53e 0a4e 287e 6aa3 f5be
00000070: 52bf c9d2 5c50 eabe 3dc2 d4b2 2f58 ec3e
00000080: 545a 1bb3 be32 e7be 127b 5f78 2667 e33e
00000090: ce31 92ea 68de d3be 5db9 5613 4e64 f8be
000000a0: 2486 09ed ec07 90be cebf 6d66 1aa1 eebe
000000b0: 1d89 0b46 6453 d9be f3cf 8ca1 99ca f93e
000000c0: 1314 bb92 7b62 ddbe 2174 c692 9d2f f4be
000000d0: f731 f657 a3ab cb3e c6c0 b354 a973 e0be
000000e0: 8d68 4dba cb0e f4be c520 5cad 109d ecbe
000000f0: 1ef7 22a4 2a6d f6be eb25 1d94 0a20 f3be
00000100: e4bc 8ec0 8819 e13e 89e8 1a60 f442 f63e
00000110: 10a6 7cf8 1d14 b6be 3c31 628c d9b0 f9be
00000120: 0611 714d 7294 e8be 1750 654e 24ba ee3e
00000130: 8a55 849a 7e26 dc3e 3b04 733d ca22 d6be
00000140: 663d c5d6 5d92 f5be 6c68 4219 a1bb eabe
00000150: d769 e8d6 7f81 e43e 9dc1 597d d582 e03e
00000160: 03f5 3255 acfe f3be 5936 71d7 627d e2be
00000170: 08bb 5042 8f41 c3be 42e9 122f 08c0 f5be
00000180: bf86 e681 2ff4 efbe 5d92 718f 2e24 ec3e
00000190: e0b0 2c22 4e9c d9be 6146 752a e4e6 613e
000001a0: 707a 48a9 3935 e93e 25b3 0d4e 3382 fe3e
000001b0: 38a9 6c32 4e99 f8be 04fd 4cc5 57a5 e03e
000001c0: 1be5 6818 8036 c6be 6b1b fb62 06e0 ca3e
000001d0: 0747 de20 b6ed f1be f0d3 0f2f c6b8 c2be
000001e0: 8cf3 3174 a755 efbe 70a7 b0c4 8efa edbe
000001f0: e376 ac45 f23b e23e f0ef 34b3 9888 ff3e
00000200: 22e8 c01c e319 e8be 2911 e342 25ca ea3e
00000210: da1b e9da 1127 f63e 273d 71c1 8232 e33e
00000220: 73a7 171b f29c dabe 7e59 8338 30b0 f33e
00000230: 82e1 f513 c754 f4be cee5 017e 1f99 fbbe
00000240: 9549 fc40 28b8 f8be e2db e545 9652 efbe
00000250: 9242 0830 34e6 f83e 04ea 633e bdad e3be
00000260: 9c8c 2877 c260 f5be 20d3 0b4b 8537 f6be
00000270: 1ddf 1380 6b77 f0be 041f dcf1 92a1 913e
00000280: 48f4 91d9 9011 babe 46c3 5842 6900 df3e
00000290: 52c3 d2bc 917d f6be 9aae 6e3d a613 dbbe
000002a0: ce7e 15cc 1d08 f53e 4f8e 38f6 7494 f3be
000002b0: dc8f 6bf6 9d36 e8be 1bfd 995f 2c77 f43e
000002c0: bd16 0d8e fa7c e73e b871 9ce3 8a9a d33e
000002d0: d0f6 2ae1 bbdc ec3e e297 c750 a735 b83e
000002e0: fb3b d8cd 7b3d f73e 4f13 1bf6 b609 d1be
000002f0: 0524 bc67 b7ba f1be 49cf 02b1 a2fb e4be
00000300: cf82 19a7 809e fcbe 3d28 0ab1 1eeb 993e
00000310: d92f 8948 bf95 ecbe 3eed 4802 fd19 adbe
00000320: c25e ea1e 1fed f4be 251f b3c7 537c eabe
00000330: 05f4 b0fa 16d3 b23e 3bfd 25a9 5d07 f13e
00000340: b076 61da 5d3b f1be 7b33 2cec 504f d6be
00000350: 9959 19d7 3fc2 c3be 29e1 3438 2831 983e
00000360: 4333 6002 0807 bbbe 3537 c766 6b76 a73e
00000370: 65d4 2785 c9eb cd3e 6d61 8439 ae49 e63e
00000380: 03c5 d224 5914 d7be 724a 28bd 97fc cd3e
00000390: aaa4 ac8c 07a3 b73e 6107 fbf4 91ea c93e
000003a0: e862 26b8 a4e2 b13e 0001 b033 dc4f eabe
000003b0: 03d0 cfde 5c15 a23e 3378 64bf 9fee fb3e
000003c0: 2a7c 3f1a 795c dcbe 689d afc5 0b8d eabe
000003d0: 4fd8 ad91 4744 e03e 03a7 3f0f fbcd f13e
000003e0: 7ecc a807 49ac ccbe c48b a60a d3e6 c3be
000003f0: 449e a375 0888 edbe 2be4 24cd 35d7 f33e
00000400: 26f1 f53d 0810 f03e f75a 230c 3d2c b23e
00000410: 0c3a e8da 6589 ef3e 5d58 f1e5 4271 dfbe
00000420: c178 2f2b a62d dd3e da8c 5cdd 4143 cebe
00000430: eb3d 451c 1a27 ad3e f55e 8254 526e e7be
00000440: f50b f052 ea99 b7be a755 b06a f306 ed3e
00000450: a759 5671 749f f5be 7a69 456f 0a2e f63e
00000460: 7b73 2bfd edc3 e03e 2705 17f8 f75e dcbe
00000470: b158 4bc9 1aa6 92be 26c9 843e 6fdf dcbe
00000480: 04c9 7be7 c0d3 d03e 8ad3 3a61 7d4d f8be
00000490: 0734 5bd8 e52b cb3e 68b4 6267 41c9 e7be
000004a0: ac50 cfe9 069c c93e ec7b 0855 181e f3be
000004b0: 666f 49c6 1b56 f33e 0e2c 634e 688e d7be
000004c0: 482a 62e6 a69f ddbe 82b3 70e9 763a a3be
000004d0: 4cb1 b22d 264a f43e 875e 5ce0 5f98 f6be
000004e0: ad1d 16f8 5322 db3e f214 6283 e6f5 fd3e
000004f0: d90d 9004 0a19 f43e 3d87 0d02 87a5 f2be
00000500: 31c8 18ea 05fa c9be 97ab 5e0c 4946 e8be
00000510: 886d 69d2 8b40 f8be 69dd 595a a8cd e03e
00000520: dc4d 180b 5b6a f73e aa69 61e5 9277 c53e
00000530: 1a63 848d 0e19 d13e 0824 3494 2d4a eb3e
00000540: 6be4 456d 163c c23e 20fc 1de9 014a f2be
00000550: d89a c6c5 f2b9 f33e f5cb 4a00 bcf6 bdbe
00000560: cc0c 58c1 bc2a e7be 27c5 7579 4f54 f83e
00000570: 0cff ab7d e813 ed3e 3bea a51e a2f3 e63e
00000580: 3beb 4a25 68a0 fbbe a09d 284b 8d7d fbbe
00000590: 5be8 dd0e 2f13 f5be ebac f084 f898 bf3e
000005a0: e421 1997 c3a7 e4be caba 4ab6 2c40 d9be
000005b0: d790 3fc5 7980 ccbe 23ad 7638 288e cdbe
000005c0: 4cdc 7e58 f2d0 e53e c8be f7f5 29ed d83e
000005d0: 1fdb 5023 ae7a f4be aa12 8e60 99aa e23e
000005e0: 112d 1371 14f5 f0be e4d2 bdd5 1ea2 a03e
000005f0: b859 180a 3a8b d43e 03c3 4d6c 5a4e d83e
00000600: d26a af76 7e7b f3be 79dc dce4 a801 fbbe
00000610: eae9 9e26 6159 d03e 6fca 3e3c 0151 d73e
00000620: b38d b88b 495a d03e 42b1 f1ca 71a5 e93e
00000630: ce9c 0780 0b49 70be 9706 9239 b0b2 c0be
00000640: c626 e698 d72d e83e 0b10 c430 24f9 babe
00000650: c9c0 e0c8 35dc c13e 794b f55e b520 ea3e
00000660: 4f24 0f7e dbd1 bb3e 4abe f8ed e905 ef3e
00000670: f5b1 6d75 cbab c93e 0482 8ebd a8db fa3e
00000680: e10b 5586 6847 f83e feb8 255b 7244 f7be
00000690: 0000 0000 0000 0080 0000 0000 0000 0080
000006a0: 0000 0000 0000 0000 0000 0000 0000 0080
000006b0: 0000 0000 0000 0000 636c b92d 8020 cdbe
000006c0: 01b4 2c6d 645a f13e d7b7 6544 ac40 f13e
000006d0: ce4e 8472 f2a7 d03e 5a8b 4f7b 0a5a d43e
000006e0: 64fe ca99 7086 e03e a036 e8ed 4896 cbbe
000006f0: 052a 3e49 54ec f5be f884 dd3c 970c fabe
00000700: 2aa7 1682 bc39 923e 9be3 34aa 09a4 e3be
00000710: 5805 2b57 23df c73e 127e 8fc9 fc93 da3e
00000720: f9c8 f282 fe3f fb3e f058 15c9 2e2a fe3e
00000730: cffa dabf f3bf e8be 6614 6e00 0345 e0be
00000740: 3466 47c7 db7f c43e 6a95 6914 df83 f03e
00000750: f322 4097 3862 d6be 2ecd a822 7067 fcbe
00000760: 8754 d379 3904 f8be c487 a067 50c1 fc3e
00000770: 42bd 3d97 601b ecbe 4d89 a9c5 552f e7be
00000780: 184a 8d1d 92bf dfbe 1213 7708 886d ebbe
00000790: 688e 4abe 4b63 d4be 72d1 8ea5 b5fc db3e
000007a0: 72b0 6c38 07ec e0be 1bbf c370 4673 fabe
000007b0: dd66 487f 29d1 f93e 80ab 2dff e42f f9be
000007c0: 9bca 6f6c 2f01 ebbe ab6f 336f 3bf2 e5be
000007d0: 486f 3b94 c118 da3e 525c 8601 6f73 dd3e
000007e0: f8c7 e511 78d9 c1be 2402 b167 91bf e2be
000007f0: da81 6ca3 f806 e6be 2cfe 8750 39f1 fcbe
-2.7779834366459016e-06 7.622001453699825e-06 1.5753270023727598e-06 6.650400810275577e-06 -7.094255243724524e-06 2.0202204766674778e-05 -2.244725733367492e-05 -1.5764116439580736e-05
-1.986818275134046e-06 -4.583496685732203e-06 3.47227799206798e-06 3.5010713482015613e-06 6.336780420122433e-07 -2.0635932637414998e-05 -1.2547453104277667e-05 1.3515700255512935e-05
-1.1061774418602881e-05 9.252038363825126e-06 -4.737088297745692e-06 -2.3261848772265575e-05 -2.388799034466898e-07 -1.4605192701216878e-05 -6.038129044513041e-06 2.4596602176532545e-05
-7.005857962820628e-06 -1.9250867966048275e-05 3.298576018278964e-06 -7.844830767628544e-06 -1.912860502115885e-05 -1.3643997060622582e-05 -2.138751211399399e-05 -1.823917523971999e-05
8.153792821234724e-06 2.123026025089477e-05 -1.3159860560808629e-06 -2.4500674748171818e-05 -1.1720594939153728e-05 1.465183090646614e-05 6.711571053826478e-06 -5.277609452737171e-06
-2.0572418564510606e-05 -1.2747252903278816e-05 9.777954542979188e-06 7.873091742300476e-06 -1.9068543519952702e-05 -8.816618658392927e-06 -2.2955050718234835e-06 -2.0742535472997573e-05
-1.5236782982711178e-05 1.341883442602351e-05 -6.106035047175935e-06 3.334492265173518e-08 1.2020068688886972e-05 2.909526381549283e-05 -2.345929092510102e-05 7.937369596809723e-06
-2.6479830837171354e-06 3.2037612739151706e-06 -1.70980074965582e-05 -2.2318093830749864e-06 -1.4941495129367083e-05 -1.4294977651447166e-05 8.694727673448854e-06 3.007276536702569e-05
-1.1492310385209011e-05 1.2774291544899955e-05 2.112638110876226e-05 9.153989635772728e-06 -6.345050154158099e-06 1.877616480857593e-05 -1.938930767894773e-05 -2.6319634230697647e-05
-2.3574222779273997e-05 -1.4935782186793358e-05 2.3745759792306318e-05 -9.383520545904092e-06 -2.0387618358108485e-05 -2.1187665597960305e-05 -1.5703662943316385e-05 2.6272458507379094e-07
-1.5538106253037174e-06 7.391358882766918e-06 -2.144861700931488e-05 -6.455601542148084e-06 2.0057396573290938e-05 -1.8672856994096574e-05 -1.1545823963961194e-05 1.9517441592229166e-05
1.120004566391595e-05 4.673881955044269e-06 1.376258936624676e-05 1.4430036713252338e-06 2.2163553572037542e-05 -4.06216335741424e-06 -1.6908036271554728e-05 -1.0005450832607477e-05
-2.7293348870196737e-05 3.8621480861393963e-07 -1.3630366326421107e-05 -8.672927874273562e-07 -1.9956832995575746e-05 -1.2629343692074541e-05 1.1220317712855754e-06 1.6239903354084802e-05
-1.6433621248138324e-05 -5.319077618148932e-06 -2.355430915905454e-06 3.604891889055756e-07 -1.610962507839212e-06 6.992392634298492e-07 3.5668663624874216e-06 1.0627658227722111e-05
-5.50257807423291e-06 3.574692052818207e-06 1.4088650909882985e-06 3.089462474154781e-06 1.0660484980105405e-06 -1.2546517259793156e-05 5.389287572863704e-07 2.6638150267925715e-05
-6.761842460150381e-06 -1.2660484733430496e-05 7.756575134836847e-06 1.6979801287598215e-05 -3.4180866894883643e-06 -2.3724624799866245e-06 -1.4081658879352224e-05 1.892153233848754e-05
1.531851364465586e-05 1.0831836765778276e-06 1.5037875383175552e-05 -7.496458777364333e-06 6.9566528279869474e-06 -3.6075977999525167e-06 8.68819420443991e-07 -1.1172744635509316e-05
-1.4067430347270802e-06 1.3841224548764528e-05 -2.0621176266633113e-05 2.115235015885109e-05 7.994341932821125e-06 -6.7641666431928e-06 -2.778894637017278e-07 -6.88380985307467e-06
4.011908110378727e-06 -2.317685546300881e-05 3.239092339102446e-06 -1.1342122189306715e-05 3.0528879748446848e-06 -1.8231924800212533e-05 1.8440591150400454e-05 -5.616254588679098e-06
-7.062826261736996e-06 -5.73050288892743e-07 1.934971338062143e-05 -2.1548474271686324e-05 6.469272081039752e-06 2.8572605707673353e-05 1.916676436409894e-05 -1.7782775219805263e-05
-3.096658318901324e-06 -1.1575008453798027e-05 -2.3128636849595953e-05 8.012461715652384e-06 2.2330714903940705e-05 2.5590759760555568e-06 4.076451851874725e-06 1.3012770642821886e-05
2.1737476833508867e-06 -1.7441836980488482e-05 1.8812523522672122e-05 -1.7859820228671262e-06 -1.1046859110136474e-05 2.3202264484327745e-05 1.3865359439701605e-05 1.0944219827936914e-05
-2.6346768509748235e-05 -2.6216923922598606e-05 -2.0098625945299018e-05 1.8833602728567858e-06 -9.849228010187215e-06 -6.020231783905852e-06 -3.397686251448589e-06 -3.5232664605443585e-06
1.0402773810243075e-05 5.942922001164488e-06 -1.9530505785260375e-05 8.90083448879785e-06 -1.6171782651492004e-05 4.95710462440789e-07 4.898036566133882e-06 5.7950180164391e-06
-1.8579863006222223e-05 -2.575538956436612e-05 3.897938407544029e-06 5.5590689419954684e-06 3.898783855346894e-06 1.2229093355930189e-05 -6.066758829298111e-08 -1.9905568931506896e-06
1.152947950512922e-05 -1.6077285094904063e-06 2.129101239332994e-06 1.245869040525869e-05 1.6581866406509525e-06 1.4792967191728325e-05 3.060230408127727e-06 2.5613826298733294e-05
2.3154200240026768e-05 -2.2189493117102416e-05 -0.0 -0.0 0.0 -0.0 0.0 -3.4722037137009217e-06
1.6549200903149406e-05 1.6453388775365535e-05 3.971110153839099e-06 4.852228745885442e-06 7.879808259558109e-06 -3.2886326686358097e-06 -2.0907555679220233e-05 -2.4842436509135848e-05
2.7158159995409667e-07 -9.36545013151425e-06 2.845720410732968e-06 6.336707110115717e-06 2.5987603461793418e-05 2.8767372503090674e-05 -1.1801630530936493e-05 -7.757938886641078e-06
2.4437245491448553e-06 1.5750048329007093e-05 -5.336684228759243e-06 -2.7088217544779854e-05 -2.2903921139090274e-05 2.7423031930713456e-05 -1.340243463918026e-05 -1.1055423034982007e-05
-7.569390128763755e-06 -1.3078621363579678e-05 -4.860848069529815e-06 6.672655751428399e-06 -8.069031321854463e-06 -2.5224965654878974e-05 2.462104744624978e-05 -2.4020278896068597e-05
-1.2876810968597433e-05 -1.0464772890399066e-05 6.221939034846951e-06 7.0216447273430475e-06 -2.1278248276074587e-06 -8.939892032101367e-06 -1.0503402433637813e-05 -2.7601509858142328e-05
