data/UE7GEKCGH/ens_bio/eval_497_bioneuron_48/pre_weights.npz (npz, 4200 bytes, 1 tensors)

weights f8 [100, 5]
-1.3811019149352167e-05 -3.0445518339488375e-06 1.2744314287052589e-05 2.032976826083561e-05 2.078263989379357e-05 -2.6395959009890537e-05 8.998423932710557e-06 1.7040252401847987e-05
-2.281084271378755e-05 -5.432296996355772e-06 -1.4021625290470266e-05 -2.1919603300723555e-05 2.7988368716158714e-05 2.1349367473580833e-05 3.1169207852979897e-06 2.3841573859954985e-05
4.65544714948711e-06 -2.0609737772981117e-05 3.4214946055575556e-06 -8.588164740593898e-06 -4.964008888338457e-06 -1.074068940130926e-05 -1.880434158064662e-05 -9.184342265252116e-06
2.5316370950435058e-06 5.718126276627089e-06 -5.1006314687364224e-06 -2.348862477390921e-05 -1.8745491040007478e-05 2.0446908883960312e-05 2.5967137555889006e-05 1.8886397274574333e-05
-9.085216268296384e-06 -7.873510502312787e-06 -9.62328264142571e-06 -2.3576139420569246e-05 -2.497756949373248e-05 -1.8403493656326252e-05 2.099970052735301e-05 -6.326900101823249e-06
2.151797443164644e-05 -1.7396786834126046e-05 -6.128101985278183e-06 -8.968381583992061e-06 1.6128093985190648e-05 -1.8380290044605328e-05 2.5784611839828922e-05 1.8505244744624056e-05
-1.1453837928533607e-05 -2.0884184677318345e-05 -1.0858094837530332e-05 -1.6274846937099388e-05 2.651905683449822e-05 -2.6489742622726107e-05 2.9104153608744998e-05 -5.400530170813879e-06
2.0915279898149226e-05 4.0300492219594834e-06 -1.897563244270625e-05 -1.0146533594513312e-05 6.159880859011474e-06 -2.9385247331893597e-05 3.010683524868e-05 1.768847046860145e-05
8.451368405660624e-06 -8.586303584534192e-06 -2.5554098809819657e-05 2.587130903315445e-05 -1.655505561631333e-05 2.354688967056268e-05 -2.101810555548712e-05 2.8529012072157633e-05
-3.364645730154336e-05 -5.611538970051032e-06 3.269282529161324e-05 -8.21589215202175e-06 -2.907789119780556e-05 1.3658417722043327e-05 -2.265668155810921e-05 -2.7597634027972255e-05
-1.60534166392658e-05 -2.0396585848591918e-05 4.085776418597082e-06 -1.1252518020501218e-05 6.694483575203351e-06 7.449707882062357e-06 -7.369337238563846e-06 1.1153830851787523e-05
-1.3718186703811511e-05 -3.551418815826594e-06 -1.437064620294584e-05 1.994268999793208e-05 1.1576578694681968e-05 7.327786390126067e-06 4.816175919226116e-06 1.5853455253544805e-05
1.5661953703099445e-05 -1.809389606541259e-05 -2.4256774999057923e-05 -3.851616986967588e-07 -1.8423629954395082e-05 -5.481221942539516e-06 1.7454669052317586e-05 1.2300092526151445e-05
-2.0222624028885732e-05 3.2837772332854002e-06 4.5286284026441224e-06 -6.370420035140235e-06 6.780430608821458e-06 -3.3999504300959324e-06 -9.789986520701488e-06 1.8051880129363678e-06
1.0420732150537658e-05 -1.627628702979531e-05 3.1511191184269816e-06 -2.2529387200707922e-05 -1.3176297840336245e-05 -2.170740687799857e-05 -2.4668497046218645e-05 -2.1532321079817315e-05
1.933788096064964e-05 -1.4754431724116891e-05 7.008104807408901e-06 1.3317052760476094e-05 1.5984343105633038e-05 2.6901185183789546e-05 -6.272312700561405e-06 2.203675384434845e-05
-1.8752206280868268e-05 -2.230661659052241e-05 2.4850154407709194e-06 2.9001795649948445e-05 2.3080225261258668e-05 -2.2710123588457494e-06 -2.135583132691881e-05 1.3224216863737123e-05
-7.324244106896076e-06 2.3329560228324116e-05 -1.7849277872029444e-06 -1.430489437350909e-05 -7.245477759916296e-07 -6.9714973092962866e-06 -5.6803207714176784e-06 4.61393885508808e-06
-3.644626704388353e-06 1.5051404491853022e-05 -3.2088361969701495e-05 -2.0245560974734767e-05 -1.8257901698383344e-05 1.940278542711936e-05 -1.4639640468188365e-05 4.644163071654873e-06
2.0184150029582953e-05 -5.538078320671821e-06 1.5546035578838456e-06 -1.9792434168966786e-05 -9.62897354244589e-06 2.49652666957643e-05 1.6469123508230615e-05 1.3629094819548114e-05
-2.951820289040535e-06 -1.5899568104282944e-05 1.8035507113251672e-05 -9.037388019612355e-06 4.4076605673596315e-06 1.70821215090243e-05 6.388782518026394e-07 -1.4423367412916095e-05
3.1390352005308027e-06 -1.6845686620355752e-05 1.3483624872507143e-05 -1.0969839207913801e-05 9.507135949819996e-06 -1.3146724435561585e-05 -1.8898473968574618e-05 -1.86264066923198e-05
-1.9266651892234483e-05 3.5703582532895305e-06 9.96615467091823e-06 -3.5460277199256222e-06 6.013972460722619e-06 1.1524149105533315e-05 -2.5553934651157245e-05 -3.0945982215001244e-05
2.1577512956852084e-05 -1.508447250098182e-05 1.2834507397499157e-05 5.684784168513195e-06 -1.0374194994019349e-05 -1.3362939090629107e-05 -1.9975417458035826e-05 -1.4956607585623322e-05
-1.522209445260719e-05 -1.0170604129927537e-05 -1.0312255332089495e-05 -1.3791089152130738e-05 -2.2620383812568e-06 4.093157902917261e-06 3.6099637502479013e-06 -7.514976592645623e-06
1.3313821741916623e-05 -8.293769214976527e-06 -9.812770684879335e-06 1.4071581826783275e-05 -7.34343478200065e-07 -2.4792980509808182e-05 1.2829598212225395e-05 -2.1349511823659544e-05
-2.2152669879944203e-05 1.5860295515323533e-05 0.0 -0.0 0.0 0.0 0.0 9.309741140947847e-06
1.1137632901709458e-05 3.624125608959221e-07 6.84712155168132e-06 -7.634307081802276e-06 1.2383828550103821e-05 1.7676532890994039e-06 -2.0361228796574907e-05 -1.9244971385884447e-05
5.2244876498225555e-06 -2.0515486177324933e-05 1.3532670567174928e-05 2.5393308020520056e-05 -8.623624023455281e-06 6.441214116771111e-06 -1.7139299616094098e-05 -1.4877368534259716e-05
1.1905316882425638e-05 2.104603831799903e-06 -1.4239842077267191e-05 1.1909603024752243e-05 -5.899101335697881e-06 -3.0384493786375526e-05 -3.2680766733190494e-05 2.4727099596713203e-05
-1.552717807723628e-05 1.307772881872805e-05 4.392544798663716e-06 2.2346088234186168e-05 1.8460077202859997e-05 -2.2054696498824646e-06 -1.1425428303599863e-05 5.379452319646505e-06
1.1032637785777094e-05 1.0911363605742355e-05 4.479805930726018e-07 1.9139775999990713e-05 2.1295640433420944e-05 1.0939514230587192e-05 -4.273801715804898e-06 -2.905138716737321e-05
00000000: 2742 ad04 bcf6 ecbe a20e 4712 208a c9be
00000010: 6a86 e437 0dba ea3e 1d07 7c09 3b51 f53e
00000020: c476 8123 ccca f53e a807 b97d 9cad fbbe
00000030: d58d dcf7 fdde e23e 0543 7f3a 35de f13e
00000040: 13d2 d92c 3deb f7be 0237 a26d e2c8 d6be
00000050: cb94 8281 cd67 edbe 693f 49ab fffb f6be
00000060: e9cc 880d 1259 fd3e 4b9d 865c ed62 f63e
00000070: e8b0 b952 8925 ca3e 939e ef7a ecff f83e
00000080: 58b1 7e91 bf86 d33e f599 3a65 629c f5be
00000090: 051d 358d 9ab3 cc3e fa11 cb5f bc02 e2be
000000a0: be23 8f5f 10d2 d4be 93e0 621c 5d86 e6be
000000b0: 328c 8783 c0b7 f3be 74dd a663 ce42 e3be
000000c0: 8700 2f36 a63c c53e 68b3 2295 cafb d73e
000000d0: 83d2 f7e6 c264 d5be 1139 f300 2ea1 f8be
000000e0: 97a7 de55 f4a7 f3be a1ae 1ee1 ac70 f53e
000000f0: 8494 ec1a 803a fb3e e524 9056 c7cd f33e
00000100: bef5 b09d 960d e3be 8aa0 280b 0f83 e0be
00000110: f702 2ce5 752e e4be 7e4f e5f6 abb8 f8be
00000120: 2298 7881 dd30 fabe 3af2 4474 264c f3be
00000130: 08e1 8d6e 1005 f63e 18ed b30e 7589 dabe
00000140: 7a21 80f1 2f90 f63e 309d 8f16 ea3d f2be
00000150: 848c e5d8 ffb3 d9be ee90 affa dcce e2be
00000160: a4e6 ed2d 5ae9 f03e a0d8 03ea eb45 f3be
00000170: 15bf 9108 8109 fb3e ea49 58bc 7667 f33e
00000180: e0cf 857f 3b05 e8be 20b5 3a3e 0ee6 f5be
00000190: 9e82 f030 65c5 e6be c36e 29f7 be10 f1be
000001a0: 2d10 8eb5 a7ce fb3e 82d9 7c40 c9c6 fbbe
000001b0: 1447 f334 9684 fe3e a485 036e c6a6 d6be
000001c0: 8ca7 2317 67ee f53e b934 b97e 3be7 d03e
000001d0: 6417 3e88 bbe5 f3be 6ab4 66f5 6047 e5be
000001e0: b429 5528 1fd6 d93e 1a1b 06d2 0ad0 febe
000001f0: 9a42 e7f6 bd91 ff3e c325 536f 368c f23e
00000200: 0802 a53a 4bb9 e13e a698 2f94 bc01 e2be
00000210: 51b1 754c a0cb fabe 244d b9d1 c620 fb3e
00000220: ffb9 60c2 f65b f1be 8c14 daef d1b0 f83e
00000230: bdb9 3b37 010a f6be e16a 09c8 32ea fd3e
00000240: b4c8 4a78 f3a3 01bf c5fc 3916 5889 d7be
00000250: c27f 6cec f423 013f 01b9 849e df3a e1be
00000260: 2e28 bb77 897d febe 08ee 46a3 cea4 ec3e
00000270: 798d 1e4d dbc1 f7be e4ae 34f8 2ef0 fcbe
00000280: eb9e 2a64 4ed5 f0be 5159 ebb4 2a63 f5be
00000290: 7d40 91ab 1123 d13e d937 f84c 2699 e7be
000002a0: 16e5 1aa2 2514 dc3e 48b3 261c 103f df3e
000002b0: 2f41 e6fe c3e8 debe 48ba e7d6 2a64 e73e
000002c0: 05f8 5e39 e5c4 ecbe e9be 3c24 9dca cdbe
000002d0: fb51 2993 2e23 eebe c673 ab38 53e9 f43e
000002e0: 9b30 4fdc 2047 e83e e216 e095 26bc de3e
000002f0: c0b5 2c5b 5433 d43e 3366 4426 a19f f03e
00000300: 312c 5d43 396c f03e 64df d911 0bf9 f2be
00000310: 9cf7 9ee2 606f f9be 5b99 ae10 07d9 99be
00000320: f46c c535 8e51 f3be e5d2 a7d0 6afd d6be
00000330: 8fe4 4fb9 734d f23e eacb 2ad8 8fcb e93e
00000340: 84f1 3824 7834 f5be e788 21a0 db8b cb3e
00000350: 0e97 8ae5 93fe d23e eecd c1b9 2fb8 dabe
00000360: 0533 ed92 6e70 dc3e 3177 1084 5685 ccbe
00000370: d22f 7d80 f587 e4be 774d e635 3949 be3e
00000380: a42d 6c85 96da e53e 845c 8aed 2111 f1be
00000390: e561 3c0e fa6e ca3e 6bfe 19b3 af9f f7be
000003a0: d3b8 f795 f8a1 ebbe 21ef 56a4 09c3 f6be
000003b0: f623 7935 e6dd f9be b57c 67d6 0994 f6be
000003c0: 4884 900f f946 f43e af97 bda7 39f1 eebe
000003d0: 64e1 5c2e e564 dd3e ba81 73cb 89ed eb3e
000003e0: 864a b6b1 c3c2 f03e 108a 915e 3b35 fc3e
000003f0: 90ff d32f d84e dabe efdc 7131 721b f73e
00000400: 9ce4 a2cd c1a9 f3be 27f9 1405 e363 f7be
00000410: d886 a8af 87d8 c43e df2e b238 1c69 fe3e
00000420: 4d3b be00 8d33 f83e 7d69 683f f60c c3be
00000430: 4619 d68d a964 f6be 1696 b786 b2bb eb3e
00000440: d359 dae3 58b8 debe 7fff de2b 7b76 f83e
00000450: 6b49 55db 34f2 bdbe 3d38 54b6 e1ff edbe
00000460: 0ffa be68 d14f a8be d771 b196 963d ddbe
00000470: 9501 36af 32d3 d7be 91f0 f1da 2d5a d33e
00000480: b64d 5eb8 c692 cebe e2d2 1948 a990 ef3e
00000490: b0d6 d0b8 d3d2 00bf dfb8 3d5b a03a f5be
000004a0: 0868 7573 1125 f3be 4286 0343 6558 f43e
000004b0: 08be 7add 98b3 eebe 92cf 1bd3 a17a d33e
000004c0: 1d05 783a 242a f53e 114e 9560 773a d7be
000004d0: 9de9 3fb0 f814 ba3e 281d 2cb8 fdc0 f4be
000004e0: 7970 f30b 8431 e4be c93f 5c10 902d fa3e
000004f0: 3cc9 be8c e544 f13e 976d 5d87 1095 ec3e
00000500: 0d4d 8e5d fcc2 c8be edcc 1d00 02ac f0be
00000510: 9cad 8a9c 5ee9 f23e bd0e cb26 e9f3 e2be
00000520: 24f2 e282 b07c d23e 48bd 9e73 72e9 f13e
00000530: 841c 1822 ec6f a53e 2e79 d485 7c3f eebe
00000540: a14e fbd9 0655 ca3e fc3b 12c5 faa9 f1be
00000550: 7bda 9e4a f746 ec3e 5326 7238 6301 e7be
00000560: a1f0 c1d0 1af0 e33e 8746 4a0c 1892 ebbe
00000570: 61be 023e 05d1 f3be 63c8 deeb fc87 f3be
00000580: 568b 8a3c da33 f4be 51c0 1835 49f3 cd3e
00000590: 3487 3cde 89e6 e43e e2d1 f05a 09bf cdbe
000005a0: db81 9429 7439 d93e 3de2 22fe fa2a e83e
000005b0: 41cd 8c04 95cb fabe fb0b 3ada 7f39 00bf
000005c0: a40f 5066 2ba0 f63e 2301 3d1d 6aa2 efbe
000005d0: dfb8 d943 79ea ea3e aafd db92 fdd7 d73e
000005e0: 37ab ca80 9ac1 e5be 8643 2a5d 2c06 ecbe
000005f0: 8b94 3c3c 1cf2 f4be 0bae 7a7e c45d efbe
00000600: d71e 31bb 4cec efbe 5659 1330 4d54 e5be
00000610: 34e5 ad94 59a0 e5be 7923 3ddc 08ec ecbe
00000620: 3668 57c0 b0f9 c2be 1a63 59ad fe2a d13e
00000630: e47f 438f 5648 ce3e e958 5909 2585 dfbe
00000640: bb8b 17ba cdeb eb3e 5f21 14f6 ae64 e1be
00000650: 16ca ffee 3094 e4be ad3a df7a 9f82 ed3e
00000660: 9e14 d962 f6a3 a8be 4860 b9a5 50ff f9be
00000670: 6fc8 3f8d d6e7 ea3e 3b93 f547 f762 f6be
00000680: 0d94 e8e1 8f3a f7be 09cc 6c35 77a1 f03e
00000690: 0000 0000 0000 0000 0000 0000 0000 0080
000006a0: 0000 0000 0000 0000 0000 0000 0000 0000
000006b0: 0000 0000 0000 0000 b693 5a14 2186 e33e
000006c0: 2fdb 339c 785b e73e 0323 8d4c 3352 983e
000006d0: 96d9 d270 0ab8 dc3e 60ac 012d a302 e0be
000006e0: da55 976f 84f8 e93e a0bb 6158 03a8 bd3e
000006f0: 670f 15fd ac59 f5be 9d39 0a5d 082e f4be
00000700: 3ec5 e33a c0e9 d53e 6f86 9f79 1583 f5be
00000710: 3950 9714 4c61 ec3e 19eb fad6 76a0 fa3e
00000720: a13b 65dc c515 e2be 736a 6074 3304 db3e
00000730: c36e 84b3 cbf8 f1be 8c4a 36f6 3933 efbe
00000740: edd6 064b 9ef7 e83e a340 4531 9aa7 c13e
00000750: 8ffd 21fe f4dc edbe 39cf 4060 ebf9 e83e
00000760: 3f14 c5a0 1cbe d8be 7729 8e83 46dc ffbe
00000770: b0e3 3898 5622 01bf f2b5 7158 a1ed f93e
00000780: b3c1 7a8d 0b48 f0be 89c0 d55c 0d6d eb3e
00000790: 68e1 3985 756c d23e 47ab 947d 7b6e f73e
000007a0: e707 8cd8 565b f33e d119 2bc3 3580 c2be
000007b0: 0548 b5e8 faf5 e7be 91de 1898 2490 d63e
000007c0: f6e0 f930 1a23 e73e bcd9 1965 fee1 e63e
000007d0: a1fb 017c 3f10 9e3e 5083 3d64 cb11 f43e
000007e0: 1592 7044 8154 f63e 33f9 2863 1bf1 e63e
000007f0: 6e04 9bab f5ec d1be f893 e51f 6c76 febe
