data/GQYY38F8J/ens_bio2/bioneuron_15/ens_bio_weights.npz (npz, 2200 bytes, 1 tensors)

weights f8 [50, 5]
-4.497973222088473e-05 1.727218687392652e-05 -0.00020905107959766207 -0.00016968585412904566 -0.00017084367974204908 -0.0008523337042068727 -0.00045845919917731823 -0.00031711415813489256
-0.0012196208169938938 0.00022303634701030636 6.674638478794688e-05 3.1208861424705524e-05 0.00016570062361789348 4.758712474557748e-06 5.304879802986649e-05 -0.0008482463289160032
8.714173338225469e-05 -0.00021418120610259162 0.0007339470779974096 0.00026569957719614455 -5.551588742464724e-05 0.00010268099038335588 -0.0005048363668348446 -8.516387918979314e-05
0.00037089727285689075 -0.0002462354704833866 -0.000445534376863245 8.336384749492116e-05 0.00022762385236944105 -4.783139595081999e-05 -0.0001294678237022715 -0.00013031651572146437
3.249168621797266e-05 6.550488435627152e-05 0.00011168086921652272 0.0004005480443752562 0.0007308899423502629 -1.9665625860578006e-05 0.0007849975041731535 0.00035025692868696627
-0.0003334903219256997 -0.00031983189118661877 -0.0004585340259057854 -0.0006700867194216782 -0.00025255623954703057 0.00011845449428909732 6.521913796192304e-05 -5.915064062211437e-05
3.588424367745169e-05 0.00019430813931693244 -0.0004292406133268596 -1.5880638139817227e-05 -0.00012813819850157477 0.0002969007525678065 -7.62362578579122e-05 0.00012728016132385435
0.00035067818084203605 -6.884492987796663e-05 8.887937350389056e-05 -0.00034368036028337514 5.6131057381024366e-05 -0.0010935341370317357 0.000500992040921113 -0.0005171539885343502
0.0005546490720189474 0.0006123282016053581 0.00016847995021590208 0.0001698792229309096 -0.0005293319986445049 5.401975458840926e-05 -0.00016476754443234536 -0.00039851287532892236
7.634130606916099e-05 -0.00014002310843791034 0.0002655713011256796 -0.0008290067272044377 -0.0008003612605757429 -0.0008494825757183842 -8.395724006348698e-05 -0.00042079832509856147
-6.701219068083464e-05 -1.340095272279294e-05 0.0004708708538079023 -0.00010536858544627764 0.00047207355580349155 -0.0004295763991216722 0.00017689161056757554 -0.0004835903749228818
-6.796001772126678e-05 0.000929492596064624 0.00035107252358105196 0.0002611630807557517 0.00010477903172988733 2.9397787927972905e-05 -1.713233631765702e-05 -0.0007622655006422045
-0.0002690377115495963 -0.00044046877957749 -0.0007118761241358001 -0.00039774981531694365 -0.00021799584000930014 -0.00025140741548628344 0.0003880501219018307 0.0004241382938169989
-5.135854265437802e-05 -0.00020380844238559252 0.0006213746955181263 -0.0005961130111936501 0.0007219467371502128 0.0004192904924291857 -0.0005681147132774345 0.0006113742511513346
-0.0002784353598168927 -9.469807930247444e-05 -0.00030624929042637097 0.0003801526483099156 -0.00027230675793972963 0.0006978785364084117 9.252887114770389e-05 0.00010365525539952475
-0.00014971428992421182 8.191267606396667e-05 -0.0001680888892517177 -0.00038605072163577585 0.00012611298649196096 0.0002338903811812974 0.00025866875827312364 0.0005870920398562643
5.061683712186892e-05 0.0003300376328354957 -0.0002570525079751772 -0.00029506859769119835 -0.0002648312878812161 -5.585395970201423e-06 0.0001830847982519021 -0.00015869268976624528
0.00013757257970810937 -1.973534534111734e-05 -6.0537543593750044e-05 -0.00036130898570064276 -0.0008213317704972964 0.00016222354623609408 0.0008080473621045881 0.0005433316405683678
-0.0005347688951003989 0.00017445049224378248 7.41494243304349e-05 0.00029146404506578033 -0.00010275310701249051 0.00011733181195700836 -2.181950357773077e-05 -0.0002398352391481398
7.345904004206831e-05 -0.00011130063347831299 -3.081414848674952e-05 0.00040055032583718797 -5.876254307439116e-05 0.0004994390342798467 0.0001632822885845135 3.238933440857417e-05
0.0006832554525488862 6.308842550530248e-05 -0.000456072502087074 -5.6848322239239736e-05 6.805796600226618e-05 -0.000504725457416933 -0.0002705947554422321 -7.943905062962552e-05
0.0001259803515315933 0.0006724609404153845 0.00030763873810600047 0.00013979959568095952 0.00021903382695748707 7.778194966784802e-05 -4.658867540362762e-05 0.000527440403385731
7.318013823801525e-05 0.00024769684368952064 0.0001239473606608619 0.0001032405184041781 -0.001378953683488425 -0.0004310575834954962 0.0010841594618216334 -0.000758741097687589
0.0008380172252320437 -0.0004651774577319287 0.00053600624216299 -0.0002188206605632503 -2.6341504157746926e-05 -0.00023431002141386848 -0.00023452042705461316 -3.4492312980443943e-07
-0.00021661208249679374 1.591901489821721e-05 -0.00017126234179763746 0.00022269954848776676 0.00029275133451686403 0.0003719595682037173 0.000760494920796697 0.0005604251413754456
0.0005240842258708799 -0.0010511115275968822 -0.000904658066662046 -0.0011131164954035664 -0.0012733195838535146 -0.0007063059332861506 -0.0005409111260723185 0.000553507853537115
-0.00037814525878436165 -0.0002541376090371372 0.0006318450681469886 0.0003885293996224623 0.00020066359436700222 0.0004540172368533766 -0.0009319561145111888 0.0005119062113788783
-0.000379581660875189 0.0005987275368363384 0.00022334689638948605 0.00040689987242713066 0.00012642720868280945 0.000166512968133534 -8.705238188646855e-05 0.00012130977745287561
7.326362757501678e-05 -0.0004489905141593474 -0.0006259153705373144 0.000314482477144298 -0.00013610155869505877 -1.2526801900337506e-05 0.0001957720424322185 -0.0003427029091522766
-0.00021026260865432135 -0.0004336159951090271 -0.00019345281610077563 0.0005109478593769813 6.393116094608738e-05 -7.881788671232611e-05 -0.00042234804674662964 0.0002917288505613956
-0.0005402141663210971 0.00036618048654588563 -0.0002669077867138127 0.0001682131502760541 -0.0005583469342782934 -8.982176544709493e-05 -0.0001163077230347306 7.737027763851161e-05
-8.748474773987431e-05 -8.64024976573497e-06
00000000: c099 bad4 1395 07bf ff49 e1a4 771c f23e
00000010: c92d a219 9766 2bbf a933 5e63 b63d 26bf
00000020: b11c d108 9064 26bf 17ab 42b1 e4ed 4bbf
00000030: be38 5b44 ab0b 3ebf 5fa3 33f0 4ac8 34bf
00000040: 00cc 70e1 75fb 53bf 28b6 e8a1 db3b 2d3f
00000050: d2d4 be28 467f 113f 0a7b 3550 c85c 003f
00000060: 5393 cb84 fdb7 253f f7b9 bcec a0f5 d33e
00000070: 35e1 2fd2 16d0 0b3f 0744 ee1e 9bcb 4bbf
00000080: 722f 7994 fbd7 163f a42c 1f8d ba12 2cbf
00000090: 6316 3759 cb0c 483f e150 9ffe b269 313f
000000a0: 5164 ff5d 371b 0dbf f620 83fb cdea 1a3f
000000b0: d9c3 bad7 df8a 40bf 0325 be4d 4053 16bf
000000c0: 6c70 37a8 9f4e 383f 0fa6 f74a 2523 30bf
000000d0: e760 ef93 d332 3dbf 0f93 a0fe 73da 153f
000000e0: d9f4 e000 cad5 2d3f 9e5c 2a40 d213 09bf
000000f0: 9cc0 2a23 38f8 20bf 116d a758 b214 21bf
00000100: 4cf3 6bd6 f508 013f 8576 1a58 f52b 113f
00000110: 78fc 36b9 c646 1d3f 2806 46c0 1440 3a3f
00000120: e68b 1e33 26f3 473f eab4 d184 f39e f4be
00000130: de87 ce4d 09b9 493f e4e8 cc0d 56f4 363f
00000140: f743 b506 0adb 35bf 1e14 4b83 e3f5 34bf
00000150: d1df 36a5 ec0c 3ebf 1bab cf45 18f5 45bf
00000160: 9ca1 0cca 308d 30bf 502f 55b7 580d 1f3f
00000170: 76af 2b42 c818 113f 7e3d 3c89 1003 0fbf
00000180: 2b1f 6b39 4dd0 023f 53d9 1935 e677 293f
00000190: 0d72 7765 7621 3cbf f5e2 a824 eda6 f0be
000001a0: cdf3 6dbe 9acb 20bf 4a66 be05 2b75 333f
000001b0: ec40 e4ef 20fc 13bf 8cb8 b842 d0ae 203f
000001c0: 8372 7151 67fb 363f 8a30 a8e3 1a0c 12bf
000001d0: dc42 8c02 984c 173f 42ac 5ee8 ff85 36bf
000001e0: f08b 2872 c86d 0d3f 2b54 c256 9dea 51bf
000001f0: 453f 3537 a06a 403f b943 dfbb 33f2 40bf
00000200: 628f 02d0 bb2c 423f b212 d7cc 9410 443f
00000210: 9077 9ec0 3f15 263f 4934 dc69 3344 263f
00000220: 6155 bbcf 5b58 41bf b780 65a2 6852 0c3f
00000230: 6488 f76d ae98 25bf e01a 3ec4 ef1d 3abf
00000240: 3a83 cfa6 2d03 143f 6907 c557 655a 22bf
00000250: 895e 970d 8c67 313f 526c 0864 362a 4bbf
00000260: 9255 36b8 ea39 4abf 5b38 ccf0 f9d5 4bbf
00000270: 6a3e be66 4602 16bf 2a00 650b d393 3bbf
00000280: 33df 6cab 1c91 11bf 518f f1ea 941a ecbe
00000290: 564e f1ea e6db 3e3f 621a 9a83 2a9f 1bbf
000002a0: 1d81 c57b 14f0 3e3f 5c38 da95 1827 3cbf
000002b0: 34a3 595d 7f2f 273f 62ea 4ed8 4cb1 3fbf
000002c0: b865 d536 b8d0 11bf 3402 a726 2675 4e3f
000002d0: 53ba de01 0502 373f 8c68 09e4 961d 313f
000002e0: 91bd ef0e 9a77 1b3f 86ef 859a 68d3 fe3e
000002f0: a92f e02f edf6 f1be ef4c b4b2 58fa 48bf
00000300: f7b5 282c b4a1 31bf 5658 d100 d7dd 3cbf
00000310: 8aff 0256 a653 47bf 2301 e372 2211 3abf
00000320: 7a46 cb01 ba92 2cbf 4ae3 a2a0 ea79 30bf
00000330: 91e2 3095 666e 393f b53c d619 dccb 3b3f
00000340: 3846 ac16 3aed 0abf e7d6 7b30 adb6 2abf
00000350: 1dc7 76ff 775c 443f 6a53 a3f1 8e88 43bf
00000360: 5ad8 10d0 20a8 473f 2981 d7f3 867a 3b3f
00000370: 9a5f 940e b19d 42bf 8828 0835 9408 443f
00000380: 0ce2 b3c3 5e3f 32bf d6d4 489d 14d3 18bf
00000390: ee6a d2af 0212 34bf 1787 2531 e7e9 383f
000003a0: 593d ad9e 8cd8 31bf 5236 c7be 3ade 463f
000003b0: f673 ede6 8141 183f c512 5eba 2f2c 1b3f
000003c0: 0057 3bf5 939f 23bf 6ea6 2d0f 1179 153f
000003d0: 01e5 7690 2008 26bf dc8f 5939 db4c 39bf
000003e0: d378 1f4e a687 203f 4cb4 7713 0fa8 2e3f
000003f0: a8b3 76db bdf3 303f dac6 328e e23c 433f
00000400: 695c d047 ad89 0a3f dd02 e8d6 1ca1 353f
00000410: 8dba 771d a0d8 30bf 0d2d 27fa 6d56 33bf
00000420: 4b9e 6cb8 215b 31bf 9476 28f4 456d d7be
00000430: 000f 1871 4eff 273f e335 48d3 d7cc 24bf
00000440: dbba 1a76 2b08 223f bb48 e49a aab1 f4be
00000450: 725e c928 36bd 0fbf 6d70 ff46 c2ad 37bf
00000460: 6439 f68b d4e9 4abf 0073 c5a6 5143 253f
00000470: 7bbf 367f 647a 4a3f 6992 45d0 cbcd 413f
00000480: e8fb 2a75 f785 41bf 59f6 6251 96dd 263f
00000490: 2312 fa68 1570 133f 55e2 a08a f419 333f
000004a0: 3b27 cdef a4ef 1abf 6e12 382e 01c2 1e3f
000004b0: d713 56de 20e1 f6be 0a3c 6304 896f 2fbf
000004c0: 011d c4b2 c041 133f f4c1 c052 422d 1dbf
000004d0: 0755 7d14 ce27 00bf d977 c48c 1e40 3a3f
000004e0: db95 1a9b f9ce 0ebf fc27 c728 995d 403f
000004f0: 562d d12d d866 253f d39d 620e 39fb 003f
00000500: 30d0 68e9 8f63 463f 9444 afe5 ca89 103f
00000510: 6b54 277b a0e3 3dbf 94a3 927a 0dce 0dbf
00000520: 97d9 edf3 4ad7 113f 6cda a1aa f189 40bf
00000530: c020 06a0 d3bb 31bf d68f 777f 10d3 14bf
00000540: 01b6 c2fa 3283 203f 831f 9bdf 0209 463f
00000550: 9dae b351 5229 343f 17ea 0462 e552 223f
00000560: b868 3b3f 8eb5 2c3f 5811 5db8 db63 143f
00000570: 2ebb a1b2 066d 08bf faa0 3da4 7d48 413f
00000580: 66e9 a833 092f 133f 92cf ccd7 a93b 303f
00000590: 0dba 8eb8 fb3e 203f f9a5 c599 5a10 1b3f
000005a0: 933e 4a3e c097 56bf b158 4b39 f23f 3cbf
000005b0: 6cb8 a85b 4bc3 513f 0e84 b019 c8dc 48bf
000005c0: b6a8 b549 cc75 4b3f b36a c1f7 617c 3ebf
000005d0: 03cc e8a3 5890 413f d6b3 5f29 67ae 2cbf
000005e0: 1a35 d561 fe9e fbbe 7915 19c2 23b6 2ebf
000005f0: 9dbd fe20 33bd 2ebf 93f5 b6f7 bb25 97be
00000600: 3d10 d89e 4b64 2cbf 66b7 bb5f 3ab1 f03e
00000610: 09ce 6950 9c72 26bf b122 208e 8e30 2d3f
00000620: d425 5968 8d2f 333f 6e72 4d2e 7260 383f
00000630: 47e9 2368 7eeb 483f 1d5c b8d3 2f5d 423f
00000640: ccb6 234e 562c 413f 9ba8 ab68 ae38 51bf
00000650: 3b67 ba67 d2a4 4dbf d1fd 70bc bf3c 52bf
00000660: f998 147e b0dc 54bf a028 3571 ec24 47bf
00000670: cbde 5acc 7db9 41bf 27c3 8310 2923 423f
00000680: bc92 0585 39c8 38bf ae07 31b8 b8a7 30bf
00000690: 4fb5 b0f3 4cb4 443f 4323 9e10 7176 393f
000006a0: c741 8e26 274d 2a3f 638a 212f 25c1 3d3f
000006b0: f6b1 3d84 d089 4ebf 78f4 de37 2ec6 403f
000006c0: cda2 d2d1 52e0 38bf b584 4f98 7d9e 433f
000006d0: 7a41 373b 4746 2d3f d9fe 12a5 a5aa 3a3f
000006e0: 902c 0774 3192 203f 3fd1 4681 3fd3 253f
000006f0: 4a67 7088 fcd1 16bf c74a 7d1b f6cc 1f3f
00000700: 02aa a589 a334 133f ca4e 1493 cf6c 3dbf
00000710: 856a f405 8f82 44bf c719 5af4 239c 343f
00000720: 88f3 af7c cfd6 21bf 0e02 258b 4645 eabe
00000730: 9b69 180a 05a9 293f a54f 7cc9 9975 36bf
00000740: 9a31 340e 3e8f 2bbf 6cae 9c84 de6a 3cbf
00000750: 3d27 7509 335b 29bf 683f 492c 24be 403f
00000760: 648a 59fb 58c2 103f c2f0 aafb 60a9 14bf
00000770: 73cc 5d0c d3ad 3bbf 6498 59df 651e 333f
00000780: a6ff ad16 a5b3 41bf 5c66 d236 7dff 373f
00000790: c529 0937 f87d 31bf bec1 58f5 4b0c 263f
000007a0: 7339 49e9 c04b 42bf ff52 252e d68b 17bf
000007b0: 82e1 8177 477d 1ebf 9396 a13f 3b48 143f
000007c0: 9679 9285 00ef 16bf 3db4 b2e2 b21e e2be
