data/MBZL1TC8X/ens_bio2/eval_3_bioneuron_5/ens_bio_weights.npz (npz, 600 bytes, 1 tensors)

weights f8 [10, 5]
00000000: 8495 b016 7c3b eabe afc1 3a1d 495d 093f
00000010: 068a c21f 474a 1bbf 3e2d 11e0 3f0f 103f
00000020: 0ff9 9780 8766 e6be fa5f 8ab6 f67f 223f
00000030: e6b5 7833 c5a1 383f e012 3a82 ef2d 36bf
00000040: 82f1 4b51 8a86 303f 4033 baa2 5bf8 3d3f
00000050: e502 f10d 697b 3fbf 0857 bf47 57fe 4dbf
00000060: 34a5 e2b3 bfdd 4c3f 878f a7f3 ef6b 433f
00000070: 57ab 24f2 d8c2 513f 8ee0 b6e5 279e 45bf
00000080: 4d4e b60d d2c7 1cbf 8c50 7a1d 15f8 37bf
00000090: 371a a1a3 df14 383f c2d7 cd63 b1c6 483f
000000a0: 1131 c580 1298 4a3f 8cff 68b9 4d92 13bf
000000b0: 70fc a2da ced0 43bf e033 9e8c 738c 3fbf
000000c0: c0f8 0352 4844 42bf 0ff9 3260 7f8e 083f
000000d0: d81c 88d4 5437 123f 583d 6a5f ec11 083f
000000e0: 89f7 08f0 c861 09bf c9b2 4448 4d0a 1bbf
000000f0: 5b90 3791 8488 41bf 9e78 9701 fc4c 38bf
00000100: fd2b d883 1933 273f d13f 0f2e 73d1 41bf
00000110: dcd5 0da5 b62e 383f 0c1e ced8 ca72 4c3f
00000120: 5916 1dbb 1c35 40bf 7d36 73be 8610 263f
00000130: 9aa5 cde4 456c 0bbf 9baf 0146 0e34 3bbf
00000140: ca4a a24e 267f 293f 4f7b ff65 fb9e 16bf
00000150: 823e 61ea fd2d 33bf 8412 311c f73b 13bf
00000160: 5f08 eff4 1316 283f 9b7b 231a 2616 323f
00000170: 4656 e1dd 006d 2b3f 0b37 6e5f 54cc 493f
00000180: bdf6 a07a 256a 3bbf e87d 9515 1d74 043f
-1.250856504071241e-05 4.837874771846121e-05 -0.000104103652065514 6.126239169750456e-05 -1.0681393194819409e-05 0.0001411427176847278 0.0003758531997587175 -0.0003384313333543564
0.00025215985196760254 0.00045730817030502705 -0.000480378292142132 -0.0009153295682106941 0.0008809267090061136 0.0005927011146096153 0.0010840529071837934 -0.0006597227870122223
-0.00010978908124164543 -0.00036573901659520884 0.0003674551004490297 0.0007561079179214602 0.000811585459396665 -7.465934172845421e-05 -0.0006047258405245236 -0.0004813940146213818
-0.0005574563147374909 4.683805675530412e-05 6.948905241453988e-05 4.590990640906495e-05 -4.841227019312863e-05 -0.00010315033620562486 -0.0005350730229420996 -0.00037079956527275883
0.0001769989629994694 -0.0005437672044710189 0.00036899527645259194 0.0008681765044550884 -0.0004946127212199322 0.00016833920310548373 -5.230510996663135e-05 -0.0004150900695154503
0.00019452421776529886 -8.629235662692174e-05 -0.0002926583205224779 -7.337280025960553e-05 0.000183763443116605 0.00027597837664744004 0.00020924220638345227 0.0007872974373286113
-0.0004183141232977186 3.9012086470387706e-05
