data/MBZL1TC8X/ens_bio/eval_66_bioneuron_7/pre_weights.npz (npz, 4200 bytes, 1 tensors)

weights f8 [100, 5]
00000000: dc91 5699 b632 f8be 7cdb ec55 1c87 bbbe
00000010: cc0f 51e0 242e ecbe a8ed 7d72 ee2e c03e
00000020: 63b5 104a ec6f f03e f73a e2cf 2515 d43e
00000030: 953a 8ec6 ae9b de3e 4b00 17e7 51fb e4be
00000040: 75f0 a34a 113a f1be 11dd f583 177c bb3e
00000050: eb98 96ae 9f8d f13e c2dd 6710 a7c1 d4be
00000060: cc62 d36d 3361 e5be c472 44e0 3f5d fdbe
00000070: bfb7 e16a 33dd e23e 1881 b664 8972 ec3e
00000080: 82a5 a239 51e5 fa3e a510 4bf1 80ed efbe
00000090: 1029 d283 872c e4be 6ebb 673e 5c51 e7be
000000a0: e959 8ed5 5e5f f83e 0975 7430 df34 e9be
000000b0: 934c 1921 fb82 f63e 8f28 0d66 9708 f03e
000000c0: faf3 83f3 3c01 f43e 9a55 924b c70d ea3e
000000d0: 89b8 a3bc 9bb8 d83e 44aa e698 2110 e3be
000000e0: 21cb 6307 9388 f53e 26e2 ec44 9855 dabe
000000f0: 13f6 28dc bad2 ecbe 859f 7609 fb5f 003f
00000100: 5a6a b283 59b6 e8be 1321 b02a 08a4 e63e
00000110: f2bb 453b bfd5 fdbe ea8b f340 23b7 dd3e
00000120: 1626 74a1 8f8c d8be c879 e9a1 d9c6 e83e
00000130: 739a b1d5 846a e1be 6ace e65d b028 e8be
00000140: d98b 7c9f b6d8 c0be 5a74 627c 21c1 643e
00000150: 0818 d655 d4aa ffbe 9489 1c5d e2db b7be
00000160: 3232 7448 de83 e23e 8024 45a7 1de5 fc3e
00000170: d00e 4d7c 3df3 f73e fca5 cda8 bb3c f73e
00000180: b16f 889b 8b5f e6be afd5 8f74 58a8 f5be
00000190: 2e68 25f5 b455 f5be d513 56b2 8c11 003f
000001a0: 3cf0 5e54 8208 cc3e 4797 d67b 0977 d83e
000001b0: 7ebb 43d9 05ee f93e 882f 278f 09ac f5be
000001c0: 5449 b86a 2baf e63e eb25 6a9a 1765 fd3e
000001d0: e524 9e19 54a8 d03e 6f02 4745 4dee d8be
000001e0: 0c70 4c26 debe f3be cbd7 947b 526c d63e
000001f0: a273 810e 59dd fa3e 9b49 f2b0 a3e1 b0be
00000200: 40b8 50d7 f68f f43e d23b 549f b586 fabe
00000210: fbfb 6b5e 7d4e f0be 9c7d adab 3a46 f7be
00000220: c2e3 19f5 305a e43e c3f1 c833 ba99 f03e
00000230: 0725 6f89 7712 f1be 0193 abe2 8a0d fbbe
00000240: b3c4 a1b1 b766 f2be 6946 3604 6ac4 fc3e
00000250: 8aec dfda 24cd cebe ba99 8ee3 7797 f4be
00000260: 51bd 88f8 35b6 e03e 2362 9b68 89e0 f8be
00000270: 9144 759d 3dcf e63e fdd8 365c 51c3 c83e
00000280: 1ff2 a394 473e cf3e f6f2 9211 23c2 dabe
00000290: 5d12 543b 96b0 e4be ef3b 7cf6 0b77 dabe
000002a0: 006b 3269 d2e2 f0be 0f0c 1bb3 d07e f9be
000002b0: 12ba 082e d22b f4be 6e2e 0c38 a2e7 c9be
000002c0: 5a9c 5abf 63e4 c73e 8e71 e316 a0af e13e
000002d0: 8a8e 1de0 df08 d33e 9af5 eec7 baf9 f33e
000002e0: 175e 55cf 8e77 f03e 114f ed91 1dba e23e
000002f0: 0fec 0917 d436 ea3e 29d3 72fd ab7b f8be
00000300: 64fa 5a77 6513 003f fcfe 865a 12ed b6be
00000310: 79a1 86e7 0bed fc3e 6a91 8c21 7520 c1be
00000320: c7af 8635 8fea f7be 1370 e0c4 a9ae c53e
00000330: 1cf2 4914 ebc6 d33e 6df7 0bff 1bb1 f1be
00000340: 22cb ed7f 6295 ddbe 753a c07d a530 cf3e
00000350: 0445 74ed df76 d23e becc 2b50 7c8c be3e
00000360: 4699 1436 98f6 d3be 4ce4 768b a872 dd3e
00000370: 899e 908b 14d4 f1be 9e27 47eb b6d3 debe
00000380: 8b2c 7cd9 96a4 d1be 14c3 a903 fc61 e93e
00000390: cbaf 2db7 d953 d9be 61e9 1881 6e04 f73e
000003a0: 7361 ba45 d3de f8be 5bc9 ef0d e839 f9be
000003b0: 55f6 a26d 76fc fd3e 698e 21ee b875 f63e
000003c0: 5fc8 aa98 2b87 f3be 92d5 de6c af80 f13e
000003d0: 4bc7 ed61 ccf1 e73e e711 e78b 8a11 b13e
000003e0: fc2a a578 9632 ea3e 241e f0fc ff63 f4be
000003f0: 2e5c 3bf0 d246 f1be 2940 be1e 836d f8be
00000400: 6f9f db9e 7e68 dd3e f34a 8c11 d376 d93e
00000410: a40e bfff 83ba fcbe 4cc4 6a23 2909 ef3e
00000420: f6c1 fa0a b06f edbe 58df bf72 88b1 d73e
00000430: ea63 414f 57cc eebe 7a1d ab1f 98fc debe
00000440: 55dd 7f01 aca8 cc3e e48d 91e7 1dff f83e
00000450: fdc0 dacf 99de f93e 5f7c edf9 f660 f03e
00000460: 51ae 7535 31e6 dfbe febc 1f8d 2bee debe
00000470: c70e 1873 e03f c23e a995 2615 00f5 db3e
00000480: ee34 6c59 7cc8 d0be 7a36 8156 d672 e13e
00000490: 95d5 022f c1e6 013f 4ab2 cd78 7252 fb3e
000004a0: b0fe 0316 f815 cabe a5ad c740 e410 fc3e
000004b0: 5987 4ece 6ef7 e8be 471b 64ea 7693 dabe
000004c0: 04f2 97c4 1b3f eabe e8a9 feeb 19b4 d63e
000004d0: 8c2f bb9a 901c b4be 9456 2cab 2e1e f9be
000004e0: 7999 c561 c9cb f13e 8838 5076 ccf8 de3e
000004f0: eda3 cd36 44bc ebbe 0cf7 1ed3 5872 e9be
00000500: e73c 95ca b6ae b0be 73c6 880e d84e f2be
00000510: 08d4 7119 eff0 e03e a040 2c05 ae45 d13e
00000520: eb6d 8956 468c f3be bb0f 8849 d486 eebe
00000530: 4ea8 c396 6611 f5be 88fd c448 1d76 ed3e
00000540: 8530 6e14 dd81 f33e 0207 cc39 f250 e1be
00000550: 530a 947c 49c7 e33e 093f bde9 a540 f7be
00000560: 843c 7cfe c0d3 f0be c899 f87e 28cf ea3e
00000570: 67ef 6356 6010 e43e 4f89 3519 e12a f6be
00000580: 2543 ee84 07b7 febe 4aba 365e 7329 e83e
00000590: ed49 1a83 0c35 e53e 0898 81e9 b6e5 b73e
000005a0: b2bf 40f9 ad26 00bf f5c4 cd50 0c63 ff3e
000005b0: f2b3 7c7e 1a1a ebbe b6ec add4 118a fabe
000005c0: 9f73 b795 cc7e f73e 9460 110b 1d9d d63e
000005d0: 5369 0e6a 8a03 f7be b2e9 a644 3eae f0be
000005e0: 86d2 0249 f3ef f3be b702 89cb 8f68 b23e
000005f0: aed6 372b 1c79 af3e 015d 71fb 8507 edbe
00000600: 378e 59f2 8cbf f3be efff b490 ba83 df3e
00000610: 7e2b f869 86ba c03e ddd5 f420 4db5 d73e
00000620: 65d2 5165 8385 e0be 205b 0afd 78da d6be
00000630: 49ec 9c91 6ba1 e63e c9df 5875 fc6a d13e
00000640: 0d0e 803f edc0 f53e 2b7b b2b5 59f4 dfbe
00000650: fbc1 999d 7334 dd3e b657 22c3 567e c33e
00000660: 9c9d 159a 3eed dabe 59a6 7e93 4217 e53e
00000670: c6c1 d017 969e f4be f651 eb1d e4e8 c13e
00000680: 30d6 fa38 0402 fc3e 4b66 ced8 a62b f1be
00000690: 0000 0000 0000 0080 0000 0000 0000 0000
000006a0: 0000 0000 0000 0000 0000 0000 0000 0000
000006b0: 0000 0000 0000 0000 159e bd3a 0da0 8cbe
000006c0: 8f5e 86fb d363 ca3e bd98 7140 1a1c f53e
000006d0: 104e 96a5 61b2 f43e d6be 841d 03a1 f0be
000006e0: 2af1 3968 57cd fa3e 5017 7b4e 8b8c ffbe
000006f0: b4dd 0510 d6f9 f13e a291 0950 1e87 f9be
00000700: a58d b8db c086 fd3e d8d8 8bc6 76a5 e5be
00000710: 926c 6026 8d23 fb3e 5932 a56e 113d f6be
00000720: ab5b 9f8c 215f cebe b1b2 517d 3756 f4be
00000730: 398b 2c96 b6a7 f33e 323b 7bc9 d3e3 f1be
00000740: d33d ae06 75d0 f0be 47f6 f36c 3c63 f43e
00000750: c62b 44e1 122c d63e fa63 65c1 4f3b f0be
00000760: 29e1 750e 792d fcbe ea10 f032 0bae e3be
00000770: 6f87 23f7 fa19 f9be 1e61 0976 5433 e7be
00000780: a86e a643 ec69 f4be e836 bfb5 a16d f3be
00000790: fa5a 48c3 b227 ce3e 5857 1cab edd4 a9be
000007a0: be59 00da a179 ef3e 66c3 bb34 834d d8be
000007b0: 76e3 f71a 39a8 f7be 3c59 d47f e046 f13e
000007c0: a27a af95 9086 cabe 0e1f 773d 16ce f63e
000007d0: f71f 804e 0c26 f23e b85c b6ec a3e0 e23e
000007e0: c7f8 4208 6446 e8be a823 8e4d 5258 f83e
000007f0: 8d85 48e4 db59 d23e c3ba eb04 6f68 f23e
-2.3077105273510093e-05 -1.6407833169481878e-06 -1.3437390416488804e-05 1.9292027850206324e-06 1.5675734747746204e-05 4.78806691551927e-06 7.297548202069228e-06 -1.0004863017054738e-05
-1.6428781841590753e-05 1.6382177959443015e-06 1.6740052989704898e-05 -4.948724614532232e-06 -1.0194631097014231e-05 -2.8003936692321996e-05 8.99508753723552e-06 1.356478164532596e-05
2.5649805686233432e-05 -1.5224336985205091e-05 -9.619685551483004e-06 -1.1118800057522654e-05 2.3243466191391884e-05 -1.2019410418557493e-05 2.1468777111910224e-05 1.529079452503766e-05
1.9078098575587406e-05 1.2423430563661062e-05 5.893975819610866e-06 -9.089952780557142e-06 2.0535939676723174e-05 -6.278599427749409e-06 -1.3743955496465924e-05 3.123268941901319e-05
-1.1783744517314724e-05 1.0795950705869605e-05 -2.8452824794408063e-05 7.084699077372444e-06 -5.852953584248242e-06 1.1814479021041236e-05 -8.304638575218717e-06 -1.1519880840227959e-05
-2.0082636601622206e-06 3.865811453003108e-08 -3.020029304458968e-05 -1.4221026173951908e-06 8.828692684059289e-06 2.7556403851468087e-05 2.2840649552393147e-05 2.216075749875665e-05
-1.0668384548266496e-05 -2.0654296608987255e-05 -2.034644359958525e-05 3.064833280589484e-05 3.3418224658337663e-06 5.832907786473325e-06 2.4728562110827832e-05 -2.0668049680413618e-05
1.0816696280922682e-05 2.8033152967432277e-05 3.971465412430326e-06 -5.943981780054925e-06 -1.8830849870629703e-05 5.346091648752601e-06 2.562011732752982e-05 -1.006210087504782e-06
1.9609794851209667e-05 -2.5297364080019962e-05 -1.555118606244228e-05 -2.219613336806662e-05 9.70473743965191e-06 1.5831468078030127e-05 -1.628125809441819e-05 -2.5799656365860065e-05
-1.7548790403447336e-05 2.7434580500312897e-05 -3.6718062892383546e-06 -1.9637749776224677e-05 7.96878863792866e-06 -2.372464817920935e-05 1.087643333500175e-05 2.9519748936070903e-06
3.724489180288609e-06 -6.379687215116118e-06 -9.86566179018397e-06 -6.309753963553384e-06 -1.6103766551904368e-05 -2.431428146710759e-05 -1.9236732329891834e-05 -3.0880950706630263e-06
2.848165872776663e-06 8.433359394315728e-06 4.538218037672781e-06 1.9050127317168238e-05 1.57041767655225e-05 8.929735995678462e-06 1.249989210915482e-05 -2.3348897084846075e-05
3.066209221235376e-05 -1.3664997401268702e-06 2.7585947891901775e-05 -2.041672143697993e-06 -2.2808311173669134e-05 2.5847289526603143e-06 4.715210086045126e-06 -1.6872247161174083e-05
-7.053264197464853e-06 3.7181407446304034e-06 4.402245131333559e-06 1.8208486955412186e-06 -4.759612097593387e-06 7.020922729799694e-06 -1.7002523893831895e-05 -7.349731891934372e-06
-4.206401534433079e-06 1.2103439179984801e-05 -6.03855629575582e-06 2.1951018487545246e-05 -2.3718272457702452e-05 -2.4057576293709314e-05 2.859705168910814e-05 2.1419385014444245e-05
-1.8623360612486972e-05 1.669185331084272e-05 1.1417639198294359e-05 1.017363089426542e-06 1.2491993193327378e-05 -1.9446015183914364e-05 -1.6476303257597652e-05 -2.3296148284723956e-05
7.011456984541575e-06 6.071128404244329e-06 -2.739770569327886e-05 1.479901503151546e-05 -1.4036312080052145e-05 5.648967810849139e-06 -1.4685729617424125e-05 -7.387804084663948e-06
3.4164040805213674e-06 2.3838567788548706e-05 2.4671110614605554e-05 1.5620010909042264e-05 -7.6053591649794485e-06 -7.3743705843864055e-06 2.1755121444327264e-06 6.665475967092805e-06
-4.001414160692926e-06 8.320132750007403e-06 3.414418267892319e-05 2.605634613266271e-05 -3.1096716811561363e-06 2.6765807023138754e-05 -1.1904971367663187e-05 -6.3362200875053705e-06
-1.2515314796062757e-05 5.4129411068228715e-06 -1.1987436704828065e-06 -2.3954295737280295e-05 1.6971627802142453e-05 7.384269200562167e-06 -1.3225276882260532e-05 -1.2133916786779e-05
-9.94353096157001e-07 -1.7459854378459914e-05 8.07816904411543e-06 4.118010184198242e-06 -1.8642376206618875e-05 -1.4556253788995549e-05 -2.0091983444915904e-05 1.4048282786504091e-05
1.8603591594821174e-05 -8.25700572582326e-06 9.431107076189918e-06 -2.2175342208995692e-05 -1.604763374901372e-05 1.2783628306212237e-05 9.5672464337432e-06 -2.1140572767372215e-05
-2.9292067036448773e-05 1.1521299660835781e-05 1.0112391552828811e-05 1.4243914048472066e-06 -3.080576348712896e-05 2.9932886764287706e-05 -1.2923224815242541e-05 -2.5309881759732956e-05
2.2406872956060396e-05 5.391532043118444e-06 -2.1947699341143028e-05 -1.5907895695591117e-05 -1.9013696658647907e-05 1.0972287737416681e-06 9.379710576562408e-07 -1.384229095273285e-05
-1.8833393502849633e-05 7.513657929891767e-06 1.9942061297897854e-06 5.652477298047931e-06 -7.878082366221878e-06 -5.448677214878514e-06 1.079108601552947e-05 4.152754475898699e-06
2.0745868795314345e-05 -7.618545022540842e-06 6.962988175027592e-06 2.3238076432658578e-06 -6.4198342511820695e-06 1.0056905565952711e-05 -1.966426633631822e-05 2.135006283191525e-06
2.6710392886561223e-05 -1.637507880367641e-05 -0.0 0.0 0.0 0.0 0.0 -2.1327437360194307e-07
3.145927589719693e-06 2.0131850785886448e-05 1.9738008949566883e-05 -1.5858606134232612e-05 2.556048867895334e-05 -3.008747162771354e-05 1.714317568387936e-05 -2.4345213207503686e-05
2.8158550533186788e-05 -1.0321780977911815e-05 2.5881645704922485e-05 -2.1208331341159663e-05 -3.620577534650895e-06 -1.9394668772698245e-05 1.8744592476537e-05 -1.706118618366031e-05
-1.6035352398411695e-05 1.944316937584612e-05 5.286255618362545e-06 -1.5479741784705355e-05 -2.6872280526530797e-05 -9.384087745097477e-06 -2.393864219463838e-05 -1.1062864076525277e-05
-1.9468079906921843e-05 -1.8528221843719823e-05 3.5947646444088704e-06 -7.698461869955291e-07 1.500850959250128e-05 -5.794235061294022e-06 -2.2561189039624567e-05 1.6476500595074788e-05
-3.162103138872858e-06 2.1748568398454473e-05 1.73078778118729e-05 9.001494069944791e-06 -1.1575204787891623e-05 2.3217206805567888e-05 4.375222094428293e-06 1.7555183428659035e-05
