data/W49TSML50/ens_bio/bioneuron_51/pre_weights.npz (npz, 4200 bytes, 1 tensors)

weights f8 [100, 5]
000000 78 7c 3c ca eb de 2a bf 6e 2f 23 b7 87 0b 01 3f
       -0.00020500782294960765 3.2510832981807024e-05
000010 1c 9f 11 ee ac 96 21 3f eb 0a 42 6b 43 7c 15 bf
       0.00013419018708593015 -8.196031086708424e-05
000020 07 4d 43 04 b8 df 0f bf 17 1a 95 f9 04 fb 28 bf
       -6.07946426797405e-05 -0.0001905864308275474
000030 ac 19 ec 74 dc 21 2b bf c4 38 0d 90 a6 4e 22 3f
       -0.00020700279352343692 0.00013967307315926856
000040 8a 05 22 56 8f da fc 3e b4 e5 bd cd 5e ad 0f bf
       2.7517079964405697e-05 -6.041951721065132e-05
000050 39 d3 06 d6 81 9d 24 bf 8d 9e 85 14 c0 04 20 3f
       -0.00015728197014444072 0.0001222118828636442
000060 7f 5f 7c 82 9e b9 00 bf b3 a4 47 ea c4 6b fe 3e
       -3.19005487751647e-05 2.901170104677572e-05
000070 89 9d fd 58 d5 03 0d 3f 22 ea c6 15 d1 7f 30 bf
       5.5341671326310125e-05 -0.00025175909629707356
000080 b3 aa d6 83 4a 91 10 bf 71 dd 21 b0 28 9a 06 3f
       -6.32001619666294e-05 4.311024351094206e-05
000090 32 91 63 da 50 f7 2b 3f b7 7e f5 7c 5f 36 eb be
       0.0002133642385110462 -1.2975880877063581e-05
0000a0 61 02 8d f3 4a 0f 00 bf 73 5a a2 ab c5 94 ff 3e
       -3.063151820592993e-05 3.0118123256340405e-05
0000b0 1d b8 42 95 d9 72 25 3f 88 b3 1a 5e 8f ec dc 3e
       0.0001636400799091561 6.89603391072498e-06
0000c0 dc 46 b7 3c d4 9a 21 bf b0 fb 6a 9f bb 1a 21 3f
       -0.00013431397233758843 0.00013049640957338076
0000d0 de 0b 01 cf d6 e9 25 bf 7c f7 89 44 a5 64 25 bf
       -0.0001671862332860143 -0.000163216757091019
0000e0 bf db 49 11 86 82 2b bf fe 3e ee 03 0a d7 28 3f
       -0.000209883561769179 0.00018951413400402484
0000f0 1d ff 56 f3 d4 df 21 3f 77 15 b9 7b 21 97 0a bf
       0.00013637041563007652 -5.071707661534035e-05
000100 90 78 1d 1b 2c 1f 33 3f 97 f1 fe 16 74 f9 31 bf
       0.00029177500538491666 -0.00027426799988086156
000110 66 74 97 16 ce 33 32 bf e7 e6 d2 56 88 98 34 bf
       -0.0002777460236680962 -0.00031426743118921494
000120 a4 fe 17 b5 30 a1 2c bf 95 18 00 a0 40 91 2e bf
       -0.00021842689106676028 -0.00023321069602405946
000130 88 a9 3f 06 e5 1e 2a 3f ab c5 fd 06 24 63 2a 3f
       0.00019928498943440017 0.0002013188818597416
000140 d1 21 16 4d 66 81 e1 3e 93 42 ee 9d af b9 2e 3f
       8.347257252309347e-06 0.00023441571007911231
000150 01 94 7e 7a bc 33 29 bf 97 1d 39 2c e5 e0 24 bf
       -0.00019227672350755068 -0.00015929029005888322
000160 1b 5d e3 ea 49 00 26 3f 3c 7a d8 51 07 b6 1e 3f
       0.00016785528482075253 0.000117153355369195
000170 d0 e1 db b8 0e f3 24 bf 1d 76 48 0b 29 dc 1b bf
       -0.00015983156884381714 -0.000106277470714088
000180 9b 72 08 72 22 38 27 3f b5 5c 34 8e 27 c4 23 3f
       0.00017714901424960714 0.0001508043561464272
000190 d7 07 05 6f 78 89 1a bf 2e 41 f3 12 3c 69 32 3f
       -0.00010123059815206281 0.00028093067790015385
0001a0 4c 22 a5 6a c1 ed d4 be 69 4e b7 88 bf 1a f5 be
       -4.989798677642264e-06 -2.0126805379507016e-05
0001b0 43 c8 83 eb ca 0e 2a 3f 0d 9b 32 f5 1d 9f 29 3f
       0.00019880511332065657 0.00019547692008822123
0001c0 01 b2 b7 89 fb 66 32 bf 3b 1e ef 97 c1 75 1f 3f
       -0.000280796442637038 0.00012001031971841599
0001d0 ae 8d 72 e4 fa fe 10 bf cd be 48 26 9b 9b 2a 3f
       -6.483465505140756e-05 0.00020300167956709692
0001e0 f1 b9 5e ee 71 35 2a 3f a4 ec b9 39 cf 89 f8 be
       0.00019995704422855158 -2.3401563892449934e-05
0001f0 ad f2 90 ce b4 0c 17 bf 09 91 77 6f f4 0d 26 bf
       -8.792737539038238e-05 -0.0001682625659064146
000200 d7 28 e5 c0 40 05 19 3f 91 d9 f6 4a 0a 79 2c 3f
       9.544570659617294e-05 0.00021723032612692682
000210 a4 bd df 34 b4 a2 2f bf a0 e4 53 0a 40 82 c9 3e
       -0.0002413601854977912 3.0408846948241382e-06
000220 90 ed 81 e7 92 9b 20 3f 77 87 10 90 1d a4 d3 3e
       0.00012670677438451601 4.682797453832663e-06
000230 b6 23 6c 6a b3 26 20 3f ee d3 87 da ea 6c 08 bf
       0.00012322368748865297 -4.6587865032344955e-05
000240 68 26 a8 a2 c1 ed 1b bf fe 26 2d 35 b5 8d 27 bf
       -0.00010653967243725584 -0.00017969929703048193
000250 99 05 16 e3 bd d0 18 bf 37 f9 03 80 61 fb ec 3e
       -9.466322878461663e-05 1.3819673768453e-05
000260 68 80 f1 f9 fe 35 08 bf 68 a9 2f 64 af 9d 26 3f
       -4.6178668747343815e-05 0.00017254606254308723
000270 fa bd 57 84 9e 82 31 bf e3 90 44 38 78 fc 1f bf
       -0.00026718492549002127 -0.00012201770556835886
000280 4f 99 11 e2 9b 60 2b 3f 56 f1 10 e3 6f 0e 1d bf
       0.00020887282247201508 -0.00011084134963907274
000290 99 bb 6b ee c9 75 1c 3f 9c e9 42 eb ff 2c 22 bf
       0.00010856671324764449 -0.00013867019663911246
0002a0 31 4b cf e4 cf aa dd be 8f 2b 9b e5 39 85 2b bf
       -7.073219944825e-06 -0.00020996410130743852
0002b0 04 63 8a 20 5b 89 2a bf 18 f7 c7 9b 54 e4 12 bf
       -0.00020245778457164004 -7.206694039748847e-05
0002c0 45 76 24 07 b8 d1 11 bf 84 e7 bb 82 72 e2 27 bf
       -6.797490803874772e-05 -0.00018222472987599822
0002d0 7e 3d e3 28 99 28 1f 3f dc 15 08 82 a6 b2 22 3f
       0.00011886057675102553 0.0001426532990224512
0002e0 b8 4d 88 e4 01 93 f8 be 70 c6 84 7d 25 7f 15 3f
       -2.3435828810104107e-05 8.20032722728349e-05
0002f0 ee de dc ea bb 4a 12 3f cc 86 db df 6b 80 31 3f
       6.97781749437983e-05 0.00026705392506985444
000300 3c 6b 48 62 64 a8 30 bf d0 4c ca 27 8f 42 35 3f
       -0.00025417757777439535 0.0003244018078387258
000310 64 64 48 5c 19 52 2b 3f 04 e9 5d 2f ef 68 2c 3f
       0.00020844039512793726 0.0002167503332051805
000320 91 0a 41 3a df f1 26 bf 8d 07 47 8a 0a ba 25 3f
       -0.00017505502649058484 0.00016576174415488775
000330 1e c3 0e 40 db 62 11 3f 74 76 21 67 1f 48 1c bf
       6.63229293553888e-05 -0.00010788623493015477
000340 65 0e 32 e8 91 ca 25 bf bd 35 9b d2 f3 e7 05 3f
       -0.0001662543400905325 4.178250158091586e-05
000350 b2 50 6d 58 53 a6 fc be ca 02 ab b4 52 60 08 3f
       -2.7322491884377346e-05 4.649402997847702e-05
000360 c7 e0 04 2a 6d 20 0a bf d3 8f 85 2c 23 b3 fe be
       -4.9832660126759814e-05 -2.9277568303412285e-05
000370 79 13 93 07 d5 0f ea 3e aa 1b 1a d9 ec 85 2c bf
       1.2427255784772225e-05 -0.000217614328495067
000380 50 78 03 d9 64 78 24 bf 5e b0 b4 a3 9d cd 15 bf
       -0.00015617590953004518 -8.31725564480203e-05
000390 70 07 f5 34 37 cd 15 bf b3 c5 e7 7f e8 6c f5 be
       -8.316659408527465e-05 -2.0432875311676094e-05
0003a0 16 77 05 65 a9 61 16 bf de e1 3b 01 6f 3d 2f bf
       -8.537861254384287e-05 -0.00023834209479624188
0003b0 23 1c db 12 43 dd 28 bf 58 63 bb 2c f1 e3 2d 3f
       -0.00018969959039891277 0.00022804564502256863
0003c0 15 f6 4f 4c fe 2a 1a bf bc 46 3b 2f 0a c1 25 3f
       -9.982277977368282e-05 0.00016597031900871483
0003d0 f9 24 55 c8 68 ab 21 bf 7c a8 65 eb ae 95 22 3f
       -0.00013480810245373296 0.00014179001091047308
0003e0 7b 1c dd 06 70 ba 26 3f e1 68 65 3b f7 45 b4 3e
       0.00017340295328891253 1.2083830661287165e-06
0003f0 8a 0a e4 f0 6c 54 28 3f 25 3b fc 8d 61 18 13 3f
       0.00018562154622977042 7.284255434235035e-05
000400 09 d7 5a d7 e1 96 19 3f f3 85 18 d8 52 8b 14 3f
       9.761575150943001e-05 7.837002888113464e-05
000410 6f 05 15 72 06 8d 16 3f fc e7 68 f0 4f 17 14 bf
       8.60247787573176e-05 -7.664132508802818e-05
000420 85 a7 23 af 56 9a 30 bf 54 07 a6 be 22 ae 25 bf
       -0.000253339923019007 -0.00016540693406957385
000430 da 9a c9 0d e2 97 27 3f 12 df 8d 92 69 7a 30 3f
       0.00018000254103186266 0.0002514369721704361
000440 68 29 32 ca 9d 0c 16 3f 30 2f 20 95 a7 87 19 bf
       8.41113383548746e-05 -9.738884298843005e-05
000450 a1 76 4f 07 b8 11 2a 3f a3 f0 72 8a bc d5 21 3f
       0.00019889232103669378 0.00013606955073964142
000460 d5 6c 71 55 30 a6 17 3f 80 5c 13 c9 af 7f 12 3f
       9.021444326278172e-05 7.056723031283359e-05
000470 33 01 52 5e 62 58 10 bf c5 40 6c 7a c8 3f 19 3f
       -6.23521842317884e-05 9.631787416375648e-05
000480 22 a3 ef 97 3e 42 0d 3f b2 38 9d 8c 39 22 26 3f
       5.58066703815806e-05 0.00016886665826593633
000490 37 12 b7 bf dc 32 36 3f 60 ef e1 f1 93 4d f6 be
       0.0003387249887192608 -2.1269835194889244e-05
0004a0 d5 0f f3 12 40 7c 31 3f f1 4d 7c ee 36 c1 2d bf
       0.00026680530841027605 -0.00022701068450513244
0004b0 44 a1 60 93 b7 ac 24 3f 7c 57 5a 17 6e 91 26 3f
       0.00015773526109908776 0.00017218083273878501
0004c0 90 62 c3 01 5e 99 23 bf aa b5 5e 79 29 b7 1e bf
       -0.00014952919526113996 -0.00011717024457765535
0004d0 08 6b 49 a5 72 58 07 3f 53 e5 e7 a5 39 2b 20 bf
       4.452800627482127e-05 -0.00012335852348125762
0004e0 11 ad bc 4e 7a 36 18 bf 09 5d 58 30 d2 3a 34 3f
       -9.236451631682389e-05 0.0003086817890518156
0004f0 9f bb d0 2e 17 80 2d 3f f3 a5 b8 91 02 10 30 3f
       0.00022506983751343927 0.00024509489751042764
000500 b9 7c 24 df df de 21 bf 6c ee 65 dd 5b f0 a6 3e
       -0.0001363418846915593 6.836325450588441e-07
000510 af 4e 16 92 35 20 28 3f f6 6f db ab d8 b8 03 3f
       0.00018406537951120213 3.761683681854915e-05
000520 ae f5 3d dd 09 df 03 bf c5 e4 04 20 c8 e8 15 3f
       -3.790139058333239e-05 8.357736078758438e-05
000530 b7 15 dc 64 cb 55 0a bf 06 4d 90 9a 7b e5 03 3f
       -5.023028334786731e-05 3.7949404323134705e-05
000540 aa e2 28 fd db 79 27 3f 47 9f ab 79 42 4f 19 3f
       0.00017910776530684808 9.65484927452051e-05
000550 35 bf 85 f4 ed a0 eb be 77 7f 8f 12 78 ef 15 3f
       -1.317435784706188e-05 8.367700924294211e-05
000560 d7 bd 71 ab a0 7f 1a 3f b6 74 e2 ef 0a 22 1b bf
       0.00010108392858553611 -0.00010350410227251663
000570 3f 5b 97 e4 5e 9a 29 3f 11 df e3 96 7e 24 04 bf
       0.00019533546792046584 -3.8418877794597674e-05
000580 4f d7 af dd 03 ae 23 bf e9 bc 87 41 33 fd f7 3e
       -0.00015014455024669546 2.2877753595493362e-05
000590 78 34 71 76 3a 43 14 bf 92 f4 12 92 e5 3b 29 3f
       -7.729572608746068e-05 0.0001925199258376071
0005a0 9e ab cd de 9b 55 d6 3e c4 7b 8b 15 a7 71 cb be
       5.324938212018536e-06 -3.2715744676526787e-06
0005b0 22 15 a6 5c 02 77 2e bf 2e 5e 8d f6 dc e7 2e 3f
       -0.00023242858726405755 0.00023579189589882768
0005c0 29 1b 9d 8d bd f0 2d bf 61 37 b2 b0 78 65 2b bf
       -0.00022842706567357513 -0.000209017737095636
0005d0 1b d6 c2 71 80 20 fb be fc d4 74 47 37 c4 f3 3e
       -2.5870284944237454e-05 1.8850773327379493e-05
0005e0 c2 7c a7 d4 e4 49 26 3f fe 28 ec b1 31 b5 25 3f
       0.00017004888861913396 0.00016561729076897813
0005f0 dc 27 ab 88 43 8c 07 bf ba 5b 7c f9 50 8f 26 3f
       -4.491406533231577e-05 0.00017211783846768168
000600 4a de 3d e6 fa e4 b1 3e 00 7a 7d 8e e0 62 1d 3f
       1.0665925395929076e-06 0.00011209960541467417
000610 ae 75 d6 96 a7 fd 2c bf 8e e0 32 59 9a 38 d1 be
       -0.00022118254439089158 -4.105831425231641e-06
000620 8d 2f a0 3a b3 4f 04 3f 89 56 ab 2f 20 aa 05 3f
       3.874078477403209e-05 4.132185673248491e-05
000630 9d a1 85 bf 2f 85 16 bf 5c 76 d5 78 5d 9d 16 bf
       -8.590797358965512e-05 -8.626826293808273e-05
000640 aa ef 56 59 f7 4f 28 3f 2f c2 86 4b d3 d9 23 3f
       0.0001854886474300631 0.00015145019803021592
000650 52 a6 1f 2b 64 2c 0a bf 5a 26 12 b7 66 e9 11 3f
       -4.992180528502463e-05 6.832780288070755e-05
000660 2d f2 a6 5c fb c6 22 3f 3e 49 56 47 9a 8f 27 3f
       0.00014325922377435418 0.0001797557667200886
000670 c3 2e 1d 8f 3a 77 1a 3f fe 5f 7b e0 31 78 1c bf
       0.00010095877567300585 -0.00010860256599742876
000680 8b 40 a5 fb d3 23 18 bf 4c d2 84 c7 da 66 2c bf
       -9.208661405080331e-05 -0.00021668835302936435
000690 00 00 00 00 00 00 00 80 00 00 00 00 00 00 00 00
       -0.0 0.0
0006a0 00 00 00 00 00 00 00 00 00 00 00 00 00 00 00 00
       0.0 0.0
0006b0 00 00 00 00 00 00 00 00 c7 40 2b 17 b9 81 e2 3e
       0.0 8.824696782567036e-06
0006c0 31 eb d0 01 6d 32 21 bf de aa 8b 01 1b cb 2b 3f
       -0.00013120251324657544 0.00021204666770498806
0006d0 38 19 00 cf c8 7d 2c bf 0a f2 47 ca ed 15 12 bf
       -0.00021737171437070392 -6.899131637534014e-05
0006e0 56 2f b7 e9 18 d7 19 3f b8 13 e2 97 81 e7 33 bf
       9.857263142193143e-05 -0.0003037158384205335
0006f0 e5 9c a7 59 20 c3 31 3f 9f e7 5e e6 be c3 21 bf
       0.0002710298519148071 -0.00013553338356847314
000700 9f e0 e9 94 d7 29 33 bf 0b a5 c1 5d 72 b3 2c bf
       -0.000292410976647792 -0.00021897097656457145
000710 f4 81 5a 04 c3 ac 2c 3f 63 01 49 92 5d 9f 11 bf
       0.0002187717492932031 -6.722458471931018e-05
000720 9b b9 0d 46 6b 44 31 3f c0 9d 15 13 f5 e5 28 bf
       0.0002634775064994877 -0.0001899587310092276
000730 ec be 74 6d d3 c9 05 3f f4 78 57 c6 c3 56 29 3f
       4.155804134098142e-05 0.00019332065418970585
000740 97 a5 e0 a6 17 25 28 bf 28 58 e7 db c3 4c 25 3f
       -0.00018421090811785994 0.00016250506264609108
000750 83 48 eb 09 e6 cd 1a bf 79 24 26 90 7c 69 00 3f
       -0.00010225025696833545 3.130351435049693e-05
000760 a1 ba a2 48 45 af 30 bf 38 14 16 cd c3 6f 26 3f
       -0.0002545875692118536 0.0001711775317227175
000770 a7 74 8b cf b0 c1 28 bf d5 23 e4 aa 17 b7 15 bf
       -0.0001888779004478914 -8.283693270895395e-05
000780 53 8e 24 1d d1 a7 fe 3e 31 d4 39 de 66 f5 18 3f
       2.9235395978889568e-05 9.520950657722415e-05
000790 b7 07 71 99 03 06 1a bf b4 10 a1 f1 3e f9 21 3f
       -9.92717453849591e-05 0.00013712781293596032
0007a0 d8 4e c4 27 fb 61 29 bf fa 9f d7 3b 3b 45 ee be
       -0.00019365492688249472 -1.4434068243709953e-05
0007b0 f9 bc 5d 75 75 20 fc 3e 2b d7 16 05 f9 79 30 3f
       2.6823799394501563e-05 0.00025141076647671134
0007c0 2c 06 79 4b 32 85 1f 3f 3f 3b 2f 2c 6b 45 16 3f
       0.00012024039721671907 8.495775823223489e-05
0007d0 7d 9c 73 2f 68 eb 1b bf 34 d4 70 ac e3 eb 23 bf
       -0.00010650466343841039 -0.00015198854654988189
0007e0 be f1 f4 1f 7e 45 2c 3f 17 64 20 2e 85 58 32 3f
       0.00021569408998257754 0.0002799344202926725
0007f0 d9 e5 12 ea 02 39 20 3f 55 40 6c e9 56 14 29 3f
       0.0001237693841511917 0.0001913410275951067
