data/W49TSML50/ens_bio/bioneuron_91/pre_weights.npz (npz, 4200 bytes, 1 tensors)

weights f8 [100, 5]
00000000: 5467 a4ae 937e 233f 7d4c 326a 0202 26bf
00000010: 0f85 b441 152a f03e ad5a c741 888c 243f
00000020: 70c7 fabd d49e 063f 74a6 2941 8c98 303f
00000030: b746 8296 b46c 253f 6c82 4d8b 4ba7 ebbe
00000040: 9134 0c36 f5c2 0bbf ab7d cba9 aac3 02bf
00000050: e137 fd6e 976d 29bf f50a 35a6 cca0 06bf
00000060: d934 3e74 0f67 283f 72b0 1ed8 91fd 2a3f
00000070: 7541 9024 3f01 30bf 8152 ed8d c5ea 1bbf
00000080: 2181 4ff3 d73a 123f 0640 bc21 546a 203f
00000090: ab41 6bd1 3973 263f 73c6 2a98 8fdd 1dbf
000000a0: 032d fa70 4b91 00bf 7784 1c0f 9217 1b3f
000000b0: bbe7 f881 3147 1f3f 1dd5 3357 73a2 2bbf
000000c0: cac1 74ad cec5 103f d825 71b9 4c41 1e3f
000000d0: 5197 a9f1 104b 243f 60a1 99da 9a8f 12bf
000000e0: 10d1 0bb3 d80e 223f d50e d402 edd9 16bf
000000f0: 5cb6 808d d4c6 0d3f b813 5c25 60ed 113f
00000100: db65 93cc 2770 343f bd98 8a3d 8058 2ebf
00000110: 50c3 c232 8b75 2ebf 9f09 bea9 d0f3 f33e
00000120: 2fbe 2623 f64a 18bf ab22 7642 4b04 21bf
00000130: 079a bf95 47f4 16bf ee9c 9b51 6208 e63e
00000140: b081 436e 689a c23e dbb8 f4fe a53a 223f
00000150: 6a1c 8db3 b065 c2be ab6b b9bb 1e1e 31bf
00000160: e3e8 cd35 d498 15bf f8af bb99 2143 21bf
00000170: b71a 5705 5842 22bf b493 c7f1 025e 0cbf
00000180: 540e f819 eabd 003f 7d9d b21c 680d 2ebf
00000190: 4342 ab31 a7da f33e 2574 dc66 131d 223f
000001a0: 26fc a877 a63d 32bf 24d0 d81b 70fa e6be
000001b0: 4ca4 b2ba a395 2bbf 9645 0756 a6c9 173f
000001c0: 51ef 80be 6e56 1d3f 6d46 7066 da64 223f
000001d0: 07e9 bd26 19b9 15bf c50b 2cc8 1a2d 2a3f
000001e0: f416 3eda c604 32bf d175 0525 4901 1bbf
000001f0: 093e eae2 1d5a 2dbf e6d1 9aba 8b3c 25bf
00000200: 4ec2 6895 1592 2e3f 60e1 9cc7 bbc1 263f
00000210: 76b5 d41a a63a 1ebf a237 d148 607d 2e3f
00000220: 9bb7 3b31 cce0 32bf fece ed04 bd7b 173f
00000230: ac11 63ad 9cf2 293f 262f 99b3 dcea 333f
00000240: 825e 397e e311 9f3e 9508 cf5e 117e 0dbf
00000250: 512a f302 d75d 0fbf 90ea 18fd d26b 1abf
00000260: 51ca 9602 06ba 323f 4b3c 0844 2cf6 34bf
00000270: 1941 32a3 0e7d 2bbf d41c b24c a1c8 31bf
00000280: 73de 7ca5 89cc e63e 7da2 89bd 6c0b 233f
00000290: c3e0 ea34 7e1b 133f 76ee 9ce4 d300 e23e
000002a0: 65bd c6ff 100e 233f ed10 5194 873f 28bf
000002b0: 907f 9430 e6e9 f43e 5e74 3765 7a7f 20bf
000002c0: 040d dc87 eaed 28bf ba8e 2f49 d351 29bf
000002d0: fbb0 2507 0df0 0c3f 1670 b046 4c69 243f
000002e0: 2a71 a0fc 953f 1ebf bea7 3af5 2a01 20bf
000002f0: 3be0 0e78 40a8 2abf e003 2b0e 0416 26bf
00000300: 40af 993a a1d8 33bf 2b25 7170 99a0 08bf
00000310: bbcf 22bb 34ff 303f 6b23 3aea 72d1 223f
00000320: 7f82 b331 987a 0fbf 46a9 f7f7 6bcf 2dbf
00000330: 2d86 fb8c 113c 0abf 28a8 b58f 6250 27bf
00000340: fe2f a3f4 fe1a 313f 25e9 cb10 a93a 0e3f
00000350: 2057 f89c 5f6f d13e fbb5 635e 6638 08bf
00000360: ac86 c194 4bb1 f33e 2f2c af77 0ba9 01bf
00000370: afc3 3eab 5cbb 173f 65a0 33fa 6d61 24bf
00000380: 9a1e 2f84 8e15 303f c9f6 3ba4 c6e5 223f
00000390: 2c8b 9c9f 427f 293f aac7 5c52 c15b 273f
000003a0: ed09 b79f eda4 24bf 0b1d 280b dd9a 263f
000003b0: 87a8 9acb a4d3 29bf 44a5 5343 d52a 2d3f
000003c0: e966 133c f4d9 273f 47ab ee9b fd46 293f
000003d0: cfc2 8083 2e36 15bf eca7 db83 3cba 19bf
000003e0: 144d a816 4ff4 1fbf 95dd e788 2ca4 323f
000003f0: 99dc 89cd a36d 2bbf 55d5 1603 2645 223f
00000400: 9946 672a 5bd8 31bf d448 8f1a 0dae 2ebf
00000410: 119d b6c5 5e81 283f 909d 1301 65c0 243f
00000420: 93c8 8f10 6fa4 31bf 2b00 c3d4 b5fa 253f
00000430: 9215 b78c 3178 1fbf 0c5d ecaf af94 0ebf
00000440: 9f78 b5d9 64c8 153f 59a6 9e61 8afa 1d3f
00000450: 9426 bdd6 82b5 11bf c739 a1d3 0c41 d3be
00000460: fbf9 48ca e922 ea3e c645 a5cf 3869 07bf
00000470: 3b0f 68aa b14a 07bf e0e0 30a2 56c1 0ebf
00000480: 6e96 473b c5e3 dfbe 3b50 c17c 3e2d 263f
00000490: b89e 6677 1dae 23bf 6c82 f17a 056b 293f
000004a0: d4a1 e124 b707 20bf b0f7 08e8 6f4b 213f
000004b0: fbe8 1959 bede 263f b5ff fc03 3eee d33e
000004c0: a05e e70d 45a7 22bf df8f 2bea beb4 21bf
000004d0: ffc9 84e8 ee62 babe d543 d370 2990 15bf
000004e0: 769e 6006 a7b7 223f a8f9 6dc2 97da 323f
000004f0: e095 3988 8a4d 24bf 681e 8cc8 c8b0 0f3f
00000500: 85e3 2458 2e7d 183f 3104 d0a7 3186 2c3f
00000510: d817 eec0 3d50 27bf 6c8c ffcc 80f9 13bf
00000520: 7199 293c b56b 10bf 5236 4699 3356 193f
00000530: 1b6d bab0 ee62 193f be3c b816 e9da 233f
00000540: e4c0 4023 1267 14bf f12f b8ab 79de 243f
00000550: 979e ab2e 329f 023f eb1f 9152 30ae 2abf
00000560: 14b4 1467 9254 2ebf 84b4 415f 86f2 21bf
00000570: 618b 9c90 5459 f73e 8067 665e f66d 23bf
00000580: 9203 b43a 97d9 2abf 1185 1151 48b3 b8be
00000590: d7b1 1542 ff65 243f 0bd8 9b97 642f 31bf
000005a0: a043 0518 2f67 2b3f e0f9 d8aa ca38 e83e
000005b0: 4cd9 73e2 3296 e5be 3460 ccb5 a150 32bf
000005c0: 3acc 8e36 db5f 33bf 72de deb6 5e6a 123f
000005d0: cf73 e76e a4c2 f2be 6fea cbe9 c9cc 2abf
000005e0: 2f95 2193 f274 123f e36b 8666 e514 1d3f
000005f0: 746c b825 a629 273f 30be d920 a7fc 32bf
00000600: e35c b6f5 6b73 283f 8eb2 4841 5f7b 243f
00000610: 6788 b3f9 4a10 033f 32b8 927e 8d18 0e3f
00000620: 4d1a 9373 a319 20bf 9556 6381 ef28 05bf
00000630: 9642 38de 0295 d33e 193a 99ee 8779 20bf
00000640: c3e2 b483 862c 26bf b730 7a29 695a 123f
00000650: 1a60 b476 2a2c 223f 2db2 e7f1 4bdb fbbe
00000660: 9504 e28d 4aae 25bf c935 543b d23a 2abf
00000670: cee1 e1bf 0794 30bf 143e bcd1 fb0a 033f
00000680: a3d1 1e85 7176 12bf 50e1 0bde 7e7a 32bf
00000690: 0000 0000 0000 0000 0000 0000 0000 0000
000006a0: 0000 0000 0000 0080 0000 0000 0000 0000
000006b0: 0000 0000 0000 0080 87dc 3513 b44c 29bf
000006c0: 0070 03d3 1a57 15bf 9e09 19d0 30e0 233f
000006d0: 33a6 cac9 49ef 033f cc9d f86c 1702 2a3f
000006e0: 9bc3 cf13 765e 223f 7b23 46c1 44fa 2bbf
000006f0: 0cd6 f99e c830 2ebf 897f 4048 076d 1dbf
00000700: a8d4 85b0 0d6a f9be 3746 6282 9aa2 193f
00000710: d368 47c9 a777 013f 0cc5 4fb6 4911 f8be
00000720: 3b69 a52e 256f cd3e a15d 4ac0 4a95 2fbf
00000730: 372d 0fdb 1aff 0e3f 78ca 3a84 40a4 1a3f
00000740: 568f d880 8b94 12bf 499a ba5e b33b eabe
00000750: 52d5 f889 6622 173f 083c 03aa fc31 0cbf
00000760: dae2 cc12 bb6e 333f 0ae5 7fe2 3d62 12bf
00000770: c5e9 6bbd 47cf 16bf 830d 5e07 1054 fb3e
00000780: c96e b1fd 904c ce3e 52b7 2cd8 3bd1 133f
00000790: ddb8 bb01 6be7 22bf 310d 2eac b80d ffbe
000007a0: 889a 5b01 5b36 29bf c9b5 3445 70fd 24bf
000007b0: 189f 2e40 7d53 233f 967d 6d01 1793 23bf
000007c0: 19cf c50d a7bb f03e 97e3 b75e 4f75 21bf
000007d0: f8a7 b31f f6cc 013f fd90 949c 8a8e 00bf
000007e0: 51c0 3373 0a9d 21bf 3be0 56de a567 f33e
000007f0: 7ccf f401 9c68 2e3f 4566 431f 4eba 20bf
0.00014873078118498673 -0.00016790656545548682 1.541556058016086e-05 0.00015677607815574782 4.314505326642639e-05 0.0002532331865610978 0.00016345695917556965 -1.3186214667449898e-05
-5.295096230471212e-05 -3.5790105561646475e-05 -0.00019400094560711927 -4.3159718894366784e-05 0.00018617690704695355 0.00020592122387819465 -0.000244214931229634 -0.00010649519707090807
6.95413881000068e-05 0.00012523915290119108 0.00017128067766815128 -0.00011392773562126663 -3.160010794286442e-05 0.00010334805463376057 0.0001193164794067993 -0.00021083505598765923
6.398271522268305e-05 0.00011541395939320494 0.00015482503734459222 -7.080443051566332e-05 0.00013777156120620875 -8.717068768154407e-05 5.6794511408814126e-05 6.83870251486214e-05
0.00031186076792052785 -0.00023151936945459652 -0.00023238491246993032 1.9028094001347103e-05 -9.266974738041869e-05 -0.00012982767769311362 -8.756338996782779e-05 1.0506034004943766e-05
2.2176690085281168e-06 0.00013907696072962866 -2.193120419855282e-06 -0.0002611947090593268 -8.238597133739286e-05 -0.00013170037424659032 -0.00013930630181687383 -5.410620198967962e-05
3.19325511064754e-05 -0.00022928138637222018 1.893435828998121e-05 0.00013819562757869209 -0.00027833284517337004 -1.0956894466486516e-05 -0.0002104532589773132 9.074285254164478e-05
0.00011191416672401185 0.00014033475892509824 -8.286682139938352e-05 0.00019970848014602534 -0.0002749429206619768 -0.00010301598490999117 -0.00022393812965447482 -0.00016202169108726834
0.00023323548767130653 0.00017362038834690518 -0.00011531485389034376 0.00023261833522031117 -0.0002880571857833914 8.958188230484204e-05 0.00019796526493655092 0.0003039158651503164
4.629772531786521e-07 -5.6252389050396767e-05 -5.9826969271610374e-05 -0.0001007888343104535 0.00028574606639178874 -0.000319848830287965 -0.00020972064666980523 -0.00027135789850558684
1.0871398600550302e-05 0.00014529898068650965 7.288892559642866e-05 8.584610572285488e-06 0.00014537770756593428 -0.00018499879857548172 1.99448286696265e-05 -0.00012586945614048972
-0.00019019592212297248 -0.00019317344830859455 5.519428022435383e-05 0.00015572601418589797 -0.00011538842150610588 -0.00012210511578319804 -0.00020337855315033675 -0.00016850280288418975
-0.0003028291344893026 -4.6972925752240074e-05 0.00025935208681037895 0.00014357116480237116 -6.004120788261502e-05 -0.0002274340913424688 -5.0038610081914625e-05 -0.00017787173406286325
0.0002610084963066138 5.7657513115887724e-05 4.156840489174548e-06 -4.6196579022477585e-05 1.8780288243986046e-05 -3.36844086273536e-05 9.052994829407303e-05 -0.00015549151894523046
0.0002454255047123849 0.00014417695830808697 0.00019452751421863404 0.00017821059116723592 -0.00015750313455782598 0.0001724619701948055 -0.0001970423380062739 0.00022252896602673923
0.00018197161083471157 0.00019285054983461168 -8.091601273530899e-05 -9.814257006338063e-05 -0.00012189610212258824 0.0002844437339315162 -0.0002092611746495651 0.0001393898869942826
-0.0002722952434882436 -0.00023406896551009823 0.00018696100128787936 0.00015832169496053346 -0.00026920043506984645 0.00016768903367925364 -0.00012004663874794753 -5.832825808321272e-05
8.309474508425223e-05 0.00011435956585494882 -6.755457951359629e-05 -4.5905356334655474e-06 1.246279709576653e-05 -4.4652982938441245e-05 -4.4425532269824816e-05 -5.866094240797467e-05
-7.603103700825487e-06 0.00016919505867696465 -0.00015014753053076645 0.00019392434976152632 -0.00012230024953231603 0.00013194790882836488 0.00017448495468725525 4.751833387051033e-06
-0.00014231412838116176 -0.00013508635046044403 -1.5727554530496491e-06 -8.225682195762915e-05 0.00014280237081830725 0.0002876873499459095 -0.00015489879671119668 6.044495336793022e-05
9.34180771182802e-05 0.0002176223387380396 -0.00017786744907882682 -7.619713437594246e-05 -6.264012976373524e-05 9.665193494453578e-05 9.684163904426608e-05 0.00015148253747596612
-7.782982066895403e-05 0.00015921817053798874 3.5518378202867625e-05 -0.00020355548739048267 -0.00023140227453080696 -0.00013692751201991118 2.226729069499821e-05 -0.00014823563033133577
-0.0002048489671793411 -1.4722539314548892e-06 0.00015562764114508576 -0.00026222425331867753 0.00020906877399309593 1.1549874524449785e-05 -1.0293347328699111e-05 -0.0002794642257852892
-0.00029563047297215576 7.024958696788002e-05 -1.789123683148039e-05 -0.00020446743737763696 7.040720518743515e-05 0.00011093759679285625 0.00017671731153332296 -0.00028971748620329734
0.00018654530400106289 0.00015626466542197455 3.636101538419326e-05 5.740339094849368e-05 -0.00012283439881440248 -4.0359315038135706e-05 4.668730500437818e-06 -0.000125692218079413
-0.00016917364141890408 7.001177652393968e-05 0.0001386453471716738 -2.656615026268483e-05 -0.0001654115685063891 -0.00020011726670825087 -0.0002529639167572457 3.632145873499692e-05
-7.042949553587876e-05 -0.0002819595083987285 0.0 0.0 -0.0 0.0 -0.0 -0.0001930208032765205
-8.140660498007213e-05 0.00015163989887596608 3.802246030677435e-05 0.00019842658956402274 0.00014014426588418176 -0.00021345223707338795 -0.0002303357027703543 -0.00011225087115507132
-2.4236937890849284e-05 9.77904133796719e-05 3.331642907129927e-05 -2.295258618185019e-05 3.508825433912484e-06 -0.00024096047868192325 5.9121138640339686e-05 0.00010162967469788144
-7.087804279898072e-05 -1.250896726585656e-05 8.825064514258088e-05 -5.377819366147318e-05 0.00029651705954196266 -7.012846674560674e-05 -8.701205602427212e-05 2.606236417747105e-05
3.611932681430806e-06 7.559707414081282e-05 -0.00014422589526170193 -2.9615019922169312e-05 -0.0001923547831019399 -0.00016014094817633069 0.00014744666995380388 -0.0001493421156863849
1.5957849301042376e-05 -0.00013319581863393819 3.3952008345952635e-05 -3.1579594699489615e-05 -0.00013437988818721045 1.850593061700232e-05 0.00023199943914564345 -0.00012762263907610725
