data/W49TSML50/ens_bio/bioneuron_75/pre_weights.npz (npz, 4200 bytes, 1 tensors)

weights f8 [100, 5]
0	0x3f0c63040df92430	5.4143487201737165e-05
1	0xbf003b5d90bab4b0	-3.095988549026965e-05
2	0xbf20d050a41eb821	-0.00012827858341552068
3	0xbf2a196039154ac0	-0.00019912051770150895
4	0x3f28578d1854b72c	0.0001857146964225285
5	0xbf23982a8fff671b	-0.00014949340402275403
6	0x3f1d34c35a42d2e4	0.00011141245210206544
7	0x3f2ab48cfb3361b9	0.00020374508822019829
8	0xbf2e4300ba65f7e5	-0.000230878676301615
9	0xbf30d220f9f0a849	-0.0002566652783025964
10	0x3f030b62d99a5d73	3.6324457323984054e-05
11	0xbf0749c3bcc01289	-4.4418607643624776e-05
12	0x3f2b718a4eda100d	0.00020937741594562222
13	0x3ef47b61bbb5684b	1.9533119240612827e-05
14	0x3f12e122f1379f4b	7.201934595679503e-05
15	0xbf244eeb63b19af4	-0.00015493987470734767
16	0xbf22a2dfb7852b04	-0.0001421831218613932
17	0x3f0f468bed86f649	5.9653420695121385e-05
18	0x3f2d027860f2be53	0.0002213260599765893
19	0xbf2af56990e1a43e	-0.00020567811629071566
20	0xbf279a737d0329b3	-0.00018007907647750245
21	0x3f22587f5b229669	0.00013996653212193795
22	0xbf2e4cf57441fab2	-0.0002311753870607079
23	0xbf01acc74ba9a264	-3.37122268845899e-05
24	0x3f30062d147620f2	0.0002445087488571882
25	0xbf03c4f1e7cbe6b8	-3.77069781957845e-05
26	0xbf104121a5401131	-6.200569015396975e-05
27	0x3f2b638d0bb0e5f9	0.00020896050213696485
28	0x3f2999fc4b856bdc	0.00019532398961072297
29	0xbf03559c9e82e914	-3.687748159238356e-05
30	0x3f3252465dcb306e	0.00027956216744651804
31	0x3f20e6cb101b093e	0.00012894848628348417
32	0x3f30051a11f2fff6	0.00024444471814533077
33	0xbf0ec0e8fd27eeba	-5.8657751328153885e-05
34	0x3eac97fa20eff96d	8.521574857976327e-07
35	0x3efd8a364f148331	2.81714355355761e-05
36	0xbf0810179f9a59bc	-4.5896264009903887e-05
37	0xbf349e89845541f2	-0.00031462533327888877
38	0x3f15c4eccd319e1c	8.304305383576748e-05
39	0xbf323d7b294ea10e	-0.0002783227621940978
40	0x3f2990defbc13ba6	0.00019505235639135954
41	0x3effa91b6a3f90e9	3.0193876810261878e-05
42	0xbf166aaa01c102fe	-8.551275863145563e-05
43	0xbf2eec9cfef9e6f5	-0.00023593346076094366
44	0x3f24ca085f197ca6	0.00015860893431616125
45	0x3f1751c9f5d0ac03	8.895678679780865e-05
46	0xbf231c9e7568623c	-0.00014581140813231693
47	0xbf2f868feaf07a3e	-0.0002405214958977764
48	0x3ef1aa8f0c7058b5	1.6847844360589395e-05
49	0xbf23779925641966	-0.00014852280100558917
50	0x3f272f23e0eb3c30	0.0001768809601885037
51	0x3f265b62cf9759ba	0.00017057019412787343
52	0xbf348a64d9c0b03f	-0.0003134247033382865
53	0xbf2454130947ac10	-0.00015509350181672254
54	0xbf004d68bdd92df5	-3.1094321212590046e-05
55	0x3f3262647a7ce6ff	0.0002805228527794495
56	0x3f24fd391dc926ac	0.0001601345274074203
57	0xbf2e0596156a6738	-0.00022904831958641693
58	0x3f3109141b34bd74	0.00025994053722207884
59	0xbf0e2a1b2a0adc3b	-5.753417395253825e-05
60	0xbf30904d86836281	-0.00025274174414628014
61	0xbef19eac13d8d7f6	-1.680356330365642e-05
62	0x3f33dca5aa630654	0.0003030685860601946
63	0x3f327edc6cec5470	0.0002822197101733431
64	0xbf327ada92bd5a3e	-0.0002819808603268559
65	0xbf14f25e061ac51b	-7.990549922955554e-05
66	0x3f299b4a67d05e07	0.00019536288519426978
67	0xbf319fa2917d5a26	-0.00026891440346813106
68	0x3f2ac7de938fed23	0.00020432083127262202
69	0xbf2b41dbe8f1ea17	-0.00020795640418554202
70	0xbf3393da89035d1d	-0.00029872975666252346
71	0x3f3279143fae8e2b	0.0002818750796740067
72	0x3f153ba79d24aa07	8.099756749816593e-05
73	0xbf361392c1c96f29	-0.00033686001714782144
74	0x3f32688e605d5b9c	0.00028089023577620455
75	0xbf28508570cad333	-0.00018550518907081148
76	0xbf325f234f93f6fe	-0.00028032886582694805
77	0x3ed9cae35366dfde	6.149418644012221e-06
78	0xbf1b1ddff25d6149	-0.00010344199526224786
79	0xbf1d1298b0cb8a2b	-0.00011090332936761957
80	0xbf279049c2d25b59	-0.00017977619555572635
81	0xbf2c9a38ed5c8981	-0.0002182192317202285
82	0x3eea5b217d423efd	1.2567510488531003e-05
83	0x3f2c251c399658dd	0.00021472901862002502
84	0x3f05c58528db3354	4.1525961120925326e-05
85	0xbf143fe7dc1fb6df	-7.724621448776e-05
86	0x3f13671b95bddce5	7.401567330399572e-05
87	0x3f2482f3e8458832	0.0001564905870835034
88	0xbf29e35fb253192c	-0.00019751113101147114
89	0xbf08ca7b2c26903a	-4.7284969258571234e-05
90	0xbf2240974f0c29c0	-0.00013925406485555507
91	0xbf243ce20c102a56	-0.0001544023453166783
92	0xbf05d376ee2a4b69	-4.162985512325726e-05
93	0x3f268398faa043a3	0.00017176859302072992
94	0xbf0c3f97f79c803a	-5.387957112490444e-05
95	0x3f30d3f08d05e70c	0.0002567732126618073
96	0xbf1bf387c0b49dca	-0.00010662571019236854
97	0xbf28d5b0059f228d	-0.00018947385507163788
98	0xbf2eabb9fe2a64cd	-0.00023399968548146744
99	0xbef813206dbb52a7	-2.295943600823477e-05
100	0x3ef53926b6d94994	2.0240065558071988e-05
101	0xbf196934cf3e97d2	-9.693512748629112e-05
102	0xbf2ce16e3c4350e1	-0.00022034140250205058
103	0xbf2a7635f90d31af	-0.00020188721512183263
104	0xbf162cb17a51c1c6	-8.458932150446412e-05
105	0xbf11b7761e4a96fe	-6.758364140554624e-05
106	0x3ee7f93c077c3529	1.143149005102902e-05
107	0x3f1191bcee94151b	6.702151917544303e-05
108	0x3f119ab39160ad86	6.715508456583115e-05
109	0xbf13c1c6c37adeb7	-7.536674172114564e-05
110	0xbf304eada164eb98	-0.00024883021378102046
111	0xbef31f054d590b5c	-1.8235373167262286e-05
112	0x3f1ee25881fa849e	0.0001178137322264288
113	0xbf31c3ccad2dee69	-0.0002710699747507707
114	0x3f311ae685d7bfc5	0.00026100280760399066
115	0xbf32b843c2dc1300	-0.0002856412346406295
116	0x3eff731dc9c9425f	2.9992745668674217e-05
117	0x3f23d3467714c817	0.0001512549893419319
118	0x3ef6ccb8fb10582c	2.1743486005553075e-05
119	0x3f03d8131894fb3c	3.7849505199796855e-05
120	0x3f060117b74e7ce5	4.196981073011935e-05
121	0xbf29b36ed9da5a22	-0.00019608238374209478
122	0x3f259cfd138fb841	0.0001648959094206499
123	0xbf234185f4600237	-0.00014691124141565242
124	0xbf1550779e7e333e	-8.13076982224105e-05
125	0x3f2b78a995216774	0.0002095896730363551
126	0xbf31ebdce1c08dfb	-0.00027345793364671995
127	0xbf30df76259e36b9	-0.0002574599690142554
128	0x3f335ae85e5c0e29	0.000295335512746161
129	0xbf275e572191c7bc	-0.00017828763592181256
130	0x3f07d55ec2b70568	4.545875011841943e-05
131	0xbf2d741927e482e8	-0.00022471243932733272
132	0xbf2615ceb1216627	-0.00016849659056354766
133	0xbf06034608504ab1	-4.198605987694915e-05
134	0x3f15e9335b9dbfd6	8.358360255811213e-05
135	0x3f17976b20d4ca8d	8.999434813431792e-05
136	0x3f10c7f47dc8e0c4	6.40147185969635e-05
137	0xbf30591a498b76b4	-0.00024945155887033253
138	0xbf1aff65f7b2651a	-0.00010298786030417777
139	0x3f2093c9fe98f471	0.00012647476914820794
140	0x3f0a028b4b67680b	4.961001961918684e-05
141	0xbeff3b8a4907f53b	-2.978570825184111e-05
142	0xbec831382193e87f	-2.8839424542878075e-06
143	0xbf0bff15cdf59638	-5.3398945733456845e-05
144	0xbf11fdf6c677e28a	-6.86342115087201e-05
145	0xbf317327877ca9d5	-0.00026626315183145055
146	0xbf259ec27d9b9b63	-0.00016494869378577267
147	0x3f3727a0bec74b00	0.00035331415599874905
148	0x3ef710088c13eb7a	2.19942382999427e-05
149	0x3f04c88a23bbb440	3.964110916663448e-05
150	0xbee993f7f163880d	-1.2196541814227962e-05
151	0xbf27f571e0604f64	-0.00018279090016958953
152	0x3f1a673b4b8224f3	0.00010072039992982725
153	0xbf0d67bfbd202540	-5.608610048575069e-05
154	0x3f25e0a383c406e0	0.00016691204098866815
155	0x3f17d5556eed7915	9.091695731686487e-05
156	0xbf0f83a4f0424acc	-6.010863401786012e-05
157	0xbf02ecf416ae5ca1	-3.6097716324673104e-05
158	0xbf2e06ddd5dc7652	-0.00022908647491075518
159	0x3f2e5e9740e8bf07	0.00023170086247281
160	0xbeeeb1e3bfb7362b	-1.4636460028773123e-05
161	0x3f2831c33689ca26	0.00018458850833587384
162	0xbf258db95f9d0c7c	-0.000164440992927426
163	0x3f1c0ddc5ebecb28	0.00010701806576100521
164	0x3f1c57050fb9b0e0	0.00010810821907520111
165	0xbf1bb3bb8f0c0e91	-0.00010567505138330882
166	0x3f23f64617203210	0.0001522980269900308
167	0xbf1c45aa5248e796	-0.00010784961757162449
168	0xbf10a5ada7ace0a8	-6.350395589727281e-05
169	0x3f1b82a31a93e653	0.00010494347101888098
170	0xbf101a14b76551bb	-6.14237922936305e-05
171	0xbf17eef71498d328	-9.129889544896559e-05
172	0x3f24e68c7fee803b	0.00015945878109580196
173	0xbf2a12291c377388	-0.00019890548547510053
174	0xbf0fe59efaea86c5	-6.0838617504955314e-05
175	0xbf307cd9eb198f3a	-0.00025158233902388175
176	0x3f14e09f92d91ccb	7.964109382739834e-05
177	0x3ef1e5f1e3cba31c	1.7069074817496676e-05
178	0xbf32490f96a1c747	-0.000279012971652216
179	0x3f3486f62ed81204	0.00031322012259263365
180	0xbf1ffafbcce5a073	-0.00012199556224390551
181	0xbf1dd753ee1e8371	-0.0001138348557376942
182	0xbf34414ab0ce6539	-0.00030906747343236205
183	0x3f333bd145ebf764	0.0002934823914272271
184	0x3f14c668bd91f4a2	7.92504719288761e-05
185	0xbf0a32daefd34582	-4.9969965382988375e-05
186	0xbf1e1299cdb45a7e	-0.00011471809141414856
187	0xbf2996be6323c51c	-0.00019522737563407936
188	0x3f1dafcba60008f9	0.00011324577781127503
189	0x3f2285274bd9bec6	0.00014129738513045923
190	0xbf2c2e7c7f0ae723	-0.0002150084469770215
191	0xbf06e1d974199d48	-4.364437928644022e-05
192	0x3f26911f5c7f237c	0.00017217166737129228
193	0x3ed1af926bc7016e	4.21662997179859e-06
194	0xbf31be24032de373	-0.00027073268136450847
195	0xbed03dc03077013c	-3.872207123334627e-06
196	0xbef2a2610697e81c	-1.7771046634231053e-05
197	0x3f226b78374e55f3	0.00014053194504685916
198	0xbf226b1e1125bcf5	-0.00014052145031537953
199	0xbede6a0cd077216a	-7.251324184172654e-06
200	0x3f190d4f1f8d2d7b	9.556575231533207e-05
201	0xbf13c8ad03427d8e	-7.546955095215897e-05
202	0x3f086cbff6fafd3c	4.658661680200868e-05
203	0xbf20dce8f4201afc	-0.0001286539427953411
204	0x3f29bec9eda1d1c0	0.00019642081207717037
205	0xbf31b9d23fceb8b1	-0.0002704752258137029
206	0xbf28eccaa54bd667	-0.0001901624078965325
207	0xbeef5c8bc0d75592	-1.495433209700961e-05
208	0x3f276c6181589293	0.00017870607614258304
209	0x3f20377358ab2441	0.0001237228683151088
210	0x8000000000000000	-0.0
211	0x0000000000000000	0.0
212	0x8000000000000000	-0.0
213	0x0000000000000000	0.0
214	0x8000000000000000	-0.0
215	0xbf15cea58bf85c23	-8.318791787363714e-05
216	0xbf1f357add0763e5	-0.00011905252836842647
217	0xbf10bd328628c54a	-6.385441660296701e-05
218	0xbf039778839cb972	-3.736816911580316e-05
219	0xbf26fbcad80cafed	-0.00017535067674978537
220	0xbf2e78470451d392	-0.00023246638207621552
221	0xbf1ede36055ccc1e	-0.00011775212018676247
222	0x3f1aa5971eebd00a	0.00010164961689068677
223	0x3f1c985b98ba24d1	0.00010908183156223556
224	0xbeec917024cccc6a	-1.3622339929497517e-05
225	0xbf279bf49f7f6918	-0.0001801239120585239
226	0x3f02283405cecc26	3.463181267395641e-05
227	0x3f268a3e5410bb54	0.00017196665615545426
228	0x3f334544458027b2	0.00029404560837120307
229	0xbf32f792edbf93b2	-0.00028941475988935727
230	0x3f08425afa6a9bfa	4.627075332069154e-05
231	0x3ef24674dde4cbc0	1.7428608651569788e-05
232	0x3f25d45a77ce3dfa	0.00016654590936270014
233	0x3f190e3b9032ce61	9.557951493626697e-05
234	0x3f25f1b6c274bda6	0.0001674209208686165
235	0xbf1e82a9ef2faefb	-0.00011638796040330447
236	0x3f26b44396e0cdf4	0.0001732189661552832
237	0xbf354d3e64f80728	-0.0003250386552907541
238	0xbf35dd3fea9a53eb	-0.00033362207850845424
239	0xbf14cb64352f7ac7	-7.932471389391757e-05
240	0x3f28beeb17369b73	0.00018879527816048242
241	0x3f2a994da7dcebeb	0.00020293305345284117
242	0xbf2711d745b31ce4	-0.00017600777468926917
243	0x3f1570ef8e2c3e23	8.17915165891516e-05
244	0x3f064c031ad0f9fc	4.252800440739457e-05
245	0xbefc45e669dd1b3c	-2.6963278848125857e-05
246	0xbeddde92cde3ecfb	-7.121426476293419e-06
247	0xbf203a7f936ae20d	-0.0001238136989820813
248	0xbf24353af5dfe02d	-0.0001541742776109979
249	0x3ef33cc3b518b03e	1.8346177347236746e-05
250	0xbf1abc3d2cd1c2b4	-0.0001019871080687556
251	0x3f2d1f13a8a0a3d8	0.0002221786019742922
252	0xbefabf7d8283319f	-2.5508889081747606e-05
253	0x3f00c77844cb5d3e	3.2003743944459474e-05
254	0x3f3239adc29a38c9	0.0002780961245684275
255	0x3f1247f223529bf5	6.97366275114046e-05
