data/W49TSML50/ens_bio2/bioneuron_17/ens_bio_weights.npz (npz, 4200 bytes, 1 tensors)

weights f8 [100, 5]
00000000: 84da 311b 85b7 2b3f 4f48 a278 93d0 24bf
00000010: bfb6 5f3f 8c4f 30bf fc00 1be1 5007 183f
00000020: 45ae 1c7b c629 04bf 6df1 9cbc cacc 13bf
00000030: 8b3f 5391 e7b1 01bf 959c 310d 81cf 23bf
00000040: 1c76 6314 6ee0 173f bde2 3bf9 1dc6 1f3f
00000050: 46bd 2362 a4b4 f53e 5f13 8a70 5d3e f8be
00000060: 595d 6bba 8c8f 1c3f 795b 63c9 22c7 1b3f
00000070: ed03 e44c 58e8 1abf 3cc7 b61b 2751 01bf
00000080: 7124 cdcf a47f 2b3f 988e 2ada 9e7f 243f
00000090: 7f2f 04ef 9461 2e3f b30d e67f 07d9 123f
000000a0: 5321 d23c 6a66 2f3f 6f6d 2c5f da0b 263f
000000b0: 7c5c 648e d387 2bbf 4e0a ecad 7da9 1abf
000000c0: cbfd 750f 52dd 26bf e3fd 4e86 d9d8 fd3e
000000d0: 9c4a 7c24 82d1 193f e4f7 1280 ca29 143f
000000e0: b0b4 8593 0cb8 21bf 0e2d 654b 9aac 31bf
000000f0: 6c81 a289 4fac d4be 190a 558e 06ae 313f
00000100: 7b5f d33f 8ab0 063f 4f80 7c19 c65a 24bf
00000110: b889 42d0 30c6 f23e 935f 8b4a faaa 303f
00000120: d6f5 40f7 ff70 133f f789 cb4b f69f 21bf
00000130: 415a e683 c4ac 2c3f 54ba 5541 2a4a 32bf
00000140: ddb9 e84a c6ea 0abf 4ae9 b825 b608 1fbf
00000150: fbf6 f8d5 8d33 003f 7bf2 8aec 271e 08bf
00000160: 4d2d 5c75 6f43 29bf e457 fd28 fa3b 153f
00000170: df5c be5f 6f71 c33e 0233 9f60 4ced 233f
00000180: 843a 9e2f 538f f5be 08d2 6016 7362 0cbf
00000190: ca5c a7d2 00c6 20bf 167b 8cc6 24ba 17bf
000001a0: 4568 c28c 391e 31bf df0f 836f 0769 223f
000001b0: da84 b01a 7fac 1a3f 94c4 476b f4d3 2abf
000001c0: 5305 d32a 1189 b93e 0e44 4d82 664a 34bf
000001d0: 6e10 d31b 99fc 313f 7c8f 71c9 bd2a 333f
000001e0: 26e2 35b9 bd3b 313f d40f e59c b0c2 2c3f
000001f0: 7436 c761 6fea 103f 9b99 298a 169f 213f
00000200: 8d4d 1ec7 4d9d 283f 5a93 6612 d142 2fbf
00000210: 3b85 896e a3ba 2e3f cea2 69f3 cb7e 28bf
00000220: 981c 6b2e 07e7 2dbf 00ac 29da 1a4d 213f
00000230: bc50 df6f b9af c13e cc07 2352 6958 e63e
00000240: 4c70 7439 2775 edbe 4249 0879 494f f7be
00000250: e4e0 2591 b490 f0be 9296 1bae bcb5 173f
00000260: 2e14 ec9f b3b7 31bf 0245 f116 60a9 15bf
00000270: 3121 52c2 d899 363f 04ea be24 c7a2 393f
00000280: cedd 5101 7523 033f e71d 88fd 271b 013f
00000290: 8f76 7a84 fa60 f0be a819 a589 596c c6be
000002a0: e32f e4d0 7204 10bf 71da 9c30 dbb1 d43e
000002b0: dae1 0fd8 d6c3 263f 098a 8204 a80b 2a3f
000002c0: 068f cd2f f9fc 263f 0186 805a dc5a 073f
000002d0: ac05 7b53 1daa 30bf e45f 9dfe 96f9 30bf
000002e0: a1d3 7aea 9025 f53e 771a e97b 6a2f ee3e
000002f0: f5ee 58a4 5fac 163f 22e7 ad84 8433 18bf
00000300: 291b 263d e43f 283f d919 3794 e1ff 3bbf
00000310: 0af3 31b7 5925 303f ffb6 9bf3 9527 05bf
00000320: 8046 b075 b8ed f7be 3644 9b8f 9cb7 17bf
00000330: 0ab6 e593 73d5 03bf db93 f230 104c 14bf
00000340: cd8b 9903 703d f63e 92cc ad95 2a54 2b3f
00000350: a14d 8573 8b4f 2abf 8750 8566 5407 273f
00000360: 244e c1b4 8d90 fc3e ca8f ea2f 3798 20bf
00000370: d023 d4bb 4e41 15bf a275 a21a b7a9 19bf
00000380: 6a13 7582 13c1 003f fc02 aecd 88c1 1b3f
00000390: 49e6 aeab 2532 08bf 71fc 7787 67b5 03bf
000003a0: 75e0 4acf 052b 28bf 7541 dfa0 b92f 2dbf
000003b0: de94 ed45 4209 1a3f 0b90 3130 fc35 2d3f
000003c0: 586f 5f52 0836 16bf 7195 318c 0104 203f
000003d0: 7f48 045a 25cf 0a3f 3dcd ab72 3a4d 2a3f
000003e0: 248b 83c1 5b10 0dbf afde 3b86 4284 163f
000003f0: d106 3041 64a2 15bf c6b7 6191 42b1 003f
00000400: 4c61 332a 0322 233f b1b5 6b0d 1c69 113f
00000410: 8256 6307 83eb 10bf 02cc ac09 6ada 2f3f
00000420: 4c1b 6f1f 96cb 023f 70a3 023f e596 213f
00000430: cb4f 27e3 e99a fdbe d865 be68 350f 023f
00000440: 2e64 9634 1912 d6be aefd eeb4 51b9 0cbf
00000450: a2fd 04f1 3d66 0fbf 341d 4758 a166 f3be
00000460: e44f 0d7e 0ce5 19bf 682d a055 fe07 0e3f
00000470: 5405 85d4 29b7 003f 9163 e6bc daee 173f
00000480: 10fd 0cb1 62f5 24bf 5349 ddf5 87b7 213f
00000490: 865a eea1 b891 1c3f 5b79 7f27 d11d 093f
000004a0: 4503 b0ab 7e9b 1cbf 8764 6b9b 4a28 053f
000004b0: 3bed ca37 19e5 0e3f 1a18 78e9 a64f 33bf
000004c0: b12e 9d5e e4ed 1fbf a35a b40f 68be 14bf
000004d0: 427b 3da7 0ff0 293f 03a6 6b87 f9eb cebe
000004e0: fae8 9a3b 1d05 263f 9650 1f82 0b66 30bf
000004f0: ef44 c00d 72d6 27bf c066 1707 6d87 fdbe
00000500: a736 64a1 0025 29bf 9edc 0b2a 4d10 103f
00000510: 60fe b99e 9465 31bf ba83 eae4 c4b7 043f
00000520: 961f 7f32 8108 19bf 4078 d30b 4392 e0be
00000530: cad3 786d d6bc f13e fc1f 2602 8547 1dbf
00000540: 7f00 e2ab 0504 23bf 254e 6419 3e39 15bf
00000550: 6b4f ed16 a674 26bf c9e7 9d30 b8c9 29bf
00000560: 922e c660 9c82 c43e 3645 b42d 651a 24bf
00000570: f375 7e56 2424 143f 8cf8 f10b 7b73 233f
00000580: ff64 e263 9618 cabe 8270 8054 ba35 11bf
00000590: 067e 3497 9c45 31bf 9dad d7dc 67d2 183f
000005a0: e9a0 6cec 2ec2 1abf 6949 5345 6144 35bf
000005b0: 4e4f c139 47f8 263f b563 f41c 646d 28bf
000005c0: 4764 18c9 fb85 373f 24f9 2c71 57f2 203f
000005d0: c7ab 62d7 cc71 0bbf cfc7 f9d5 fcbb 223f
000005e0: c2f3 46f6 33eb 00bf 7a77 6047 4f91 f93e
000005f0: 5934 e4c1 08c2 0d3f 04a1 8769 3bc5 2cbf
00000600: 5fd9 56e7 e154 223f 9db5 8675 cc0a 25bf
00000610: 690b 0c91 5ada 213f e9b9 af25 f46a 1dbf
00000620: 149b 0148 c84f 2abf 4dff c380 3d64 2f3f
00000630: d64e 169f a9be 11bf 0eff fe68 ff8c 0e3f
00000640: ca43 703e 06d3 2f3f 3631 a313 38e7 15bf
00000650: 2f1f e9ba 6fcd 34bf 724f 5eb8 ac96 1bbf
00000660: 573e 0c0f b2b9 34bf d580 4d92 6f74 033f
00000670: 4991 d231 f369 f4be aecb 85dc 7434 1fbf
00000680: 3b48 b0d5 7717 fdbe fbe2 435c 3575 2dbf
00000690: bca2 6b12 9657 21bf 6c1e 81ec 5c3c 26bf
000006a0: 86b4 b94d 205d 123f 2464 edc4 2bd8 213f
000006b0: ca21 0e86 b90a 1c3f 25c4 6299 1d23 333f
000006c0: d213 d7a5 76e4 343f 4b8a d764 b2df 243f
000006d0: 00e8 29be f375 003f 9ced cb06 376a 373f
000006e0: a33a 5397 4475 313f 9840 3fc7 8884 19bf
000006f0: ff8a f47e 337d ecbe ece9 d2e5 3cc8 2dbf
00000700: b041 6bb1 2264 103f 4072 0c2d ce01 2bbf
00000710: 95ec 5080 583b 24bf 2cb8 4260 e339 263f
00000720: 5938 251f 41d1 24bf 3641 db12 ea4e 063f
00000730: 30c7 6497 0eef 2c3f 8f5e 4c9c cac0 23bf
00000740: 3637 d14e aed8 2f3f ef55 90a3 555e 253f
00000750: 95c9 960a c2d1 27bf 7e07 71be aed7 06bf
00000760: 4736 2bef b484 1ebf 94fe 5944 c360 fb3e
00000770: ce62 a757 1f63 32bf 5307 8a28 4fe7 273f
00000780: 6f9a 16e5 4417 283f cd5e 6f94 f639 25bf
00000790: 01cf 5401 d6d8 263f fff6 26d3 d018 fb3e
000007a0: dc51 1b7d 4310 2cbf 6c50 d45d 7157 363f
000007b0: 25eb 4090 e08a 2f3f b1a8 b478 1438 283f
000007c0: ffd7 3885 5008 32bf e4ea a5a0 de22 22bf
000007d0: 0000 0000 0000 0000 0000 0000 0000 0080
000007e0: 0000 0000 0000 0000 0000 0000 0000 0000
000007f0: 0000 0000 0000 0000 5219 846f 6565 153f
0.00021146297294523744 -0.00015880394159190284 -0.0002488820458655775 9.166175029929122e-05 -3.845822301537216e-05 -7.553088576356887e-05 -3.3750419029864627e-05 -0.00015114260040436216
9.10823046953103e-05 0.0001212077898421577 2.0700104990942625e-05 -2.3120511317492746e-05 0.00010895058094761069 0.00010596418210027753 -0.00010264433806030068 -3.3029561986265614e-05
0.00020979773389687457 0.00015639127839960488 0.0002317899993687887 7.189853929472668e-05 0.0002395634350345158 0.0001681999270538403 -0.0002100415942513956 -0.00010170774065091615
-0.00017444254602237553 2.8464383280411397e-05 9.84893496219032e-05 7.691667998962999e-05 -0.00013518479841981767 -0.00026968733745454186 -4.928848421098839e-06 0.00026977214868764834
4.3276995691675855e-05 -0.00015529316146345665 1.790445550454444e-05 0.00025433169007049136 7.416307727311304e-05 -0.00013446694892767206 0.00021877192370985297 -0.00027907878514713447
-5.134027138741272e-05 -0.00011838542689527224 3.0901685701396516e-05 -4.600104654659418e-05 -0.0001927445943511276 8.100237232375147e-05 2.3177988150536393e-06 0.000152030538002633
-2.0561087672949746e-05 -5.41392681018584e-05 -0.0001279712681270028 -9.05117937119833e-05 -0.0002612009527723817 0.00014045921103022962 0.00010175252707302369 -0.0002046810019602814
1.5220295311177523e-06 -0.00030961039219784623 0.000274455432940585 0.00029246457547159994 0.0002629602615438507 0.00021942525786233672 6.452851125190469e-05 0.00013444090025700465
0.00018779348789320049 -0.0002385025229162629 0.00023444409386556308 -0.0001868843043724339 -0.00022813761389370714 0.00013199761186241665 2.108385955582475e-06 1.0655096563619899e-05
-1.4046492465662326e-05 -2.2229876380627492e-05 -1.579785846092607e-05 9.04461299132359e-05 -0.0002703488861899886 -8.263253197184422e-05 0.0003448633381784193 0.0003911720457342729
3.6503799642536105e-05 3.2627256306535204e-05 -1.5620062440483e-05 -2.6730586572293385e-06 -6.110144406451484e-05 4.934013085925076e-06 0.00017368314368561185 0.00019871164318370518
0.0001753858740826052 4.45459839400024e-05 -0.0002542802426256051 -0.0002590173377163814 2.016710519000024e-05 1.4393433841364642e-05 8.64919066651501e-05 -9.232040717490874e-05
0.00018500958556107977 -0.00042723901080102055 0.0002463668853989609 -4.0349258098133424e-05 -2.282008732030225e-05 -9.047406265529152e-05 -3.782996144506216e-05 -7.742737601519561e-05
2.1209707688273593e-05 0.00020850200493391764 -0.00020073487554360134 0.00017569451598354135 2.7241384757138495e-05 -0.0001266066901354209 -8.108180096057173e-05 -9.7896385940341e-05
3.1956107984265996e-05 0.0001058807132903287 -4.6149992577193345e-05 -3.759119220702538e-05 -0.00018438764495498956 -0.00022267476054916758 9.93200969624133e-05 0.00022286132306981207
-8.472848693890972e-05 0.00012218970195758018 5.1134421712132644e-05 0.00020066584087139765 -5.543499008966158e-05 8.58941653482058e-05 -8.252846627956478e-05 3.183826827145258e-05
0.0001459721434915552 6.641610830700782e-05 -6.454455601397939e-05 0.00024302048117305636 3.584911240000227e-05 0.00013419674315187256 -2.8233653390177625e-05 3.444558851057781e-05
-5.262064243360472e-06 -5.478649710921199e-05 -5.988956957247582e-05 -1.850213949852499e-05 -9.878052470685368e-05 5.7280015156003724e-05 3.188225179196849e-05 9.129724569446734e-05
-0.00015990094882487775 0.0001351693599028295 0.00010898293883907826 4.790586984858527e-05 -0.00010912857662505073 4.035451586554503e-05 5.89273758797256e-05 -0.00029466462135052803
-0.00012180048329673666 -7.913122310685776e-05 0.00019788924293614492 -3.686162979622778e-06 0.0001679990944490407 -0.00025022297824973375 -0.00018186704880965947 -2.816105592793358e-05
-0.00019183762260193313 6.127806637922165e-05 -0.0002654540864810203 3.9516159281000965e-05 -9.549416120002564e-05 -7.90182854831453e-06 1.6915938287637666e-05 -0.00011169194525539877
-0.000145078365623167 -8.09616234145818e-05 -0.0001713230844538853 -0.0001967465726087621 2.4450062083342637e-06 -0.00015337452973843987 7.683250225772719e-05 0.00014840008768496717
-3.1108909573472486e-06 -6.565046089729475e-05 -0.00026354859365260196 9.46880238285514e-05 -0.00010207568548692741 -0.0003245103337806894 0.0001752459473914843 -0.00018636557658949023
0.0003589381895792759 0.00012929265411716032 -5.2346290361291905e-05 0.00014293156981498445 -3.226997685910157e-05 2.438317866203892e-05 5.6758777860912205e-05 -0.00021950102087876105
0.00013985879529139052 -0.0001605391105505117 0.00013620715665049334 -0.00011221995502783796 -0.000200741957090155 0.00023949862259797298 -6.769094740937827e-05 5.8270973681383035e-05
0.00024280024737824277 -8.355407490795861e-05 -0.00031742074762463023 -0.00010524205398914995 -0.0003162440980739359 3.7107138530558026e-05 -1.94681807569469e-05 -0.00011903727784616402
-2.7743980677348767e-05 -0.00022474552509501436 -0.00013230997975390523 -0.00016964563679010573 7.00522390901394e-05 0.00013614210407800296 0.0001069713339473317 0.000292010046346882
0.0003187932651054745 0.00015925457630235266 3.1396389904750355e-05 0.00035728305265055895 0.0002663891276143781 -9.734234646363788e-05 -1.3584645755464803e-05 -0.00022721999531490013
6.252729177025937e-05 -0.00020604745670817388 -0.00015435653054560587 0.00016957188211591653 -0.00015882415716323114 4.254962764849367e-05 0.00022074750058603257 -0.00015070412896344253
0.00024296882421242513 0.0001630286731432585 -0.00018172734898553854 -4.356863046740734e-05 -0.00011641840300599073 2.610967592042589e-05 -0.00028056636042843037 0.00018236962593581405
0.00018379894258409603 -0.0001619447232019594 0.00017430889480751086 2.5841652311112646e-05 -0.00021410774075171404 0.0003409053586704905 0.0002406500935892782 0.00018477678200074435
-0.0002751537878994403 -0.00013836829777943212 0.0 -0.0 0.0 0.0 0.0 8.161956418826125e-05
