data/95ZMK8WA5/ens_bio/bioneuron_46/ens_bio_weights.npz (npz, 2200 bytes, 1 tensors)

weights f8 [50, 5]
00000000: dc51 15c0 e730 a1be 345f 5813 2002 d13e
00000010: 0c0a da5e dc7d edbe bc61 eb68 c89b ef3e
00000020: 0f55 2a5f d37d cabe 66aa dd12 c1d4 133f
00000030: 23d5 4437 700f 22bf a04e e187 f1fd 1abf
00000040: ff7c 19c8 d7fd 02bf 99a6 f622 1f12 1abf
00000050: 2a42 8392 545e d5be bca5 1e31 374e e03e
00000060: 3e71 44cb 4568 ebbe e9c1 2df6 3a3f f6be
00000070: 941e d79f 2ecd d03e 299d 277f d176 e13e
00000080: 1a40 5b2b b10f 0c3f 6c59 f055 022e de3e
00000090: d9fe d2fb 05ac e93e 1ef7 7470 9223 cf3e
000000a0: 87a5 3710 2b86 b83e cc5c 242e 893d 10bf
000000b0: 05fe da77 3293 ffbe 78c1 26b1 f5d7 063f
000000c0: a028 4e8e 0249 ecbe 0d3e e0f2 efb5 dcbe
000000d0: c0d4 f04a d19b e8be f877 cd8d 6875 02bf
000000e0: 53b2 6825 319a c93e 18d0 fe27 271e f2be
000000f0: d883 5e05 ebda e03e 2ce4 1d43 dff7 e13e
00000100: 76cc dbe4 c922 e63e fdd7 d29c 9bae e23e
00000110: f6ed f21d 2210 e5be 6cb9 d3cc 6e23 ff3e
00000120: b910 879d c692 03bf d8e8 129f fab7 f73e
00000130: b964 83d6 5fb1 f73e 15f9 e61b ec38 08bf
00000140: 95f8 f2ee 69fa d33e 9b06 13ed d580 06bf
00000150: 2fe4 15af a647 083f 42c9 4539 3b3d f3be
00000160: daa9 7ca1 ca20 10bf 737b 608d 9cbd d63e
00000170: 368a 405a b6f0 ec3e 893b 9db8 b127 e5be
00000180: 19b9 04c4 8f34 d8be 0e1a a683 c072 f33e
00000190: ec04 6df8 ee2d 01bf 07d5 8fac 1826 d93e
000001a0: ca63 ed79 59c2 d93e 1560 8d0f 60d4 eebe
000001b0: c3b6 1110 d349 cfbe e65e 81ef c267 f53e
000001c0: fd25 d370 8cd3 0fbf 309c 0bdf ab69 0fbf
000001d0: 0d64 8f60 3c60 fabe 1f18 cebb bae4 0ebf
000001e0: b117 5cba 421a fcbe b3eb f475 a796 123f
000001f0: dc0e 9444 c495 0a3f 9f70 e784 a0bd 183f
00000200: 932d b05e 0392 13bf e476 dcef e21e 1d3f
00000210: 0056 d02e 25ea 163f 0853 6207 ef31 14bf
00000220: 3d39 00c6 456c 0b3f e166 7855 65b4 10bf
00000230: 0889 3984 1db4 07bf 0db0 3b39 691b f43e
00000240: 19c3 1062 dcd6 043f ccbf b36c 12e9 0abf
00000250: 0c43 ebc1 b918 0d3f b293 3a12 6b2e f5be
00000260: 5a52 2d97 8a79 11bf adf5 2ddd e07b fdbe
00000270: dce2 45da 4c7e 153f 3709 65a7 81c2 013f
00000280: 7c2c 1ae3 1d2d 05bf de31 506d 5651 f53e
00000290: 0758 31b2 fd7c f13e 9c94 a86e a855 b83e
000002a0: c231 90c4 fe79 f23e 35c5 683b abc3 14bf
000002b0: 54bf 75d8 525a 16bf f629 522b e27d 003f
000002c0: 5453 2c3e 9dee 1ebf d448 8057 7512 1bbf
000002d0: 100c c843 f184 04bf 6bc4 6a63 8aa6 c53e
000002e0: 917c 883a 8a29 ca3e 8345 1874 276b 023f
000002f0: b404 f15b f766 02bf 127d 97ff ba69 ef3e
00000300: 148b 6b15 3776 14bf c486 9b4c 7bda d8be
00000310: c80f f8b8 c9a6 f3be 52b9 289f d2df 0bbf
00000320: 8437 3f70 eaf4 dabe 9585 bd6a e8f1 003f
00000330: 33f1 2951 07f1 d93e 2db3 2146 1b96 033f
00000340: b7d8 37f9 1cdb f5be 0cf3 2264 5ad3 0c3f
00000350: d3c3 606a d792 d4be 08dc f4c3 7dc5 0ebf
00000360: c956 85dd 47c0 ff3e 8b5a 5eee 96e4 fd3e
00000370: 7339 f8eb a6ef e93e 1f8f f697 e29e 0f3f
00000380: 9ec8 a3c5 455f 0bbf d073 5e0f 14cf 02bf
00000390: d352 7885 7add ebbe 8035 0ee8 be85 14bf
000003a0: f1da 7760 bc94 113f 34d7 602b f386 f63e
000003b0: 7521 a811 b723 0bbf b430 36b8 4bd5 11bf
000003c0: 2a16 4014 07c7 f13e 381a 12a1 0b3c 113f
000003d0: 0008 905e 8981 efbe 6981 7c3e cad6 0d3f
000003e0: dcbb 5e5a b3fe c9be 341c 01aa f280 e5be
000003f0: 414c 6c1d 0f14 b2be 7280 13cd e430 e9be
00000400: 4fcc 6692 a875 e1be 7e37 9579 86e5 f23e
00000410: c53c 3584 7e30 f03e c26f 3f97 dc64 dc3e
00000420: dbe9 7b89 341b e03e 211c be10 35ab fd3e
00000430: e009 2e48 074b e2be 0f03 8eb9 491e f4be
00000440: 86e4 7f76 cfcb fcbe 3116 67cd 069c dbbe
00000450: 9bd0 e7ba dc16 d73e 0c4f 8e9c 306b fabe
00000460: 0594 92a3 2b41 15bf c498 aa79 98f4 14bf
00000470: 67ee 7f01 1b42 14bf 74f1 6fbe ca18 f23e
00000480: 662f 9ac4 91ad e3be 840c 65af 080b e63e
00000490: 8c03 2f3f 8c1e fcbe 2f90 6754 451b c6be
000004a0: e874 69e0 fe31 93be 08fd f735 3fe3 e0be
000004b0: 2f56 0d14 d950 08bf df7e 240e fa06 8bbe
000004c0: c0b5 5244 f5ad 0cbf a451 8cff 6131 01bf
000004d0: 2e51 f30d 4860 d3be 1993 ca6c 8a4c ea3e
000004e0: 935a 4a71 6bca efbe f638 b8b5 0c45 f33e
000004f0: a4d7 4bc8 8aba 033f 951a d75b 083c d03e
00000500: 767f e897 4335 053f 4e97 0d73 fceb 11bf
00000510: 3588 b246 383f fdbe 723d ba3f b1d4 13bf
00000520: eb48 ce89 4ac3 f13e ac89 2a9e a8a0 e33e
00000530: 86f8 27dd c404 043f b436 c745 82c6 f13e
00000540: 7bc2 e60c e832 fd3e 03d9 a706 3960 12bf
00000550: ff11 d859 328d 00bf a792 3892 5e17 d53e
00000560: 3fad f242 8a05 f53e fc7a 3a43 59d5 d2be
00000570: 6cdc c5ef 9731 cf3e b9ac 041b 9eee fa3e
00000580: 2fc5 10f1 1472 05bf 898d ae4b 288b e23e
00000590: 7b3c b717 f871 d7be 3946 03d0 a9bf f1be
000005a0: bf80 583f f406 043f 985e 45ef 352b 0e3f
000005b0: df00 3a35 081b 1c3f 817c 2f94 19c4 1bbf
000005c0: 1d07 5d6d 3407 f4be 9a35 59da 59b5 0b3f
000005d0: 907c 3505 d74e e2be 3b1a d5d1 2deb cebe
000005e0: 566f 430d 46d3 08bf e421 548e 3df5 0fbf
000005f0: a556 94bb 7ca4 e63e d029 15ca f803 fb3e
00000600: 808e 1777 245d ff3e 0c9a 37da b48f e1be
00000610: b748 4430 0304 f33e 5957 26e9 0c95 11bf
00000620: 4a76 6980 e53a 003f 2d3d e807 bf90 f6be
00000630: cdfb 325f 65f8 eabe 54ca e134 fc8e f5be
00000640: 443f 7df4 b52f 12bf 75c4 f265 d12f 05bf
00000650: 15d2 40ef c2fa 13bf 1753 22d4 617a 15bf
00000660: 2db9 addc a925 e43e 8a2b 713b 335a 0bbf
00000670: 26fb f3a2 2c8b 10bf d45c c16c fc1a b3be
00000680: b2d4 ce06 ae1b f83e 7261 1f31 d876 113f
00000690: 79be b4b3 5544 1dbf fafe adfe a815 febe
000006a0: a02f c218 d21d 1ebf 89b6 6054 a6ca e7be
000006b0: 0138 1942 f66f 023f 8671 c4be b8f9 ff3e
000006c0: 7d6b aefd 1749 0c3f d3fc ef90 2300 e4be
000006d0: 6abe 146e c264 003f 92a0 e781 9438 09bf
000006e0: d31c 5fb5 65fe d4be d4a0 b41e 1748 df3e
000006f0: 621f 7010 84a6 f73e 9651 3eef d596 f0be
00000700: 2eb1 5031 1d36 f5be d80e d0d7 0a8f 143f
00000710: 6635 be28 f829 0f3f e80d 2525 f1d3 f7be
00000720: ac74 2b3c d4c0 0ebf 11fe 45b8 9574 053f
00000730: 5302 b577 85ff 073f 2e08 a3c5 7b32 e33e
00000740: 5bd9 a249 08d1 fdbe de26 c1c5 cc1c 7bbe
00000750: 936b 07e0 de54 e8be c183 1f52 4238 013f
00000760: 38d1 ad8b 3946 fdbe 97e9 bb1b 9c07 033f
00000770: 57c1 3242 7472 03bf 4fff 1f9e 117a f33e
00000780: 9425 f2ee a643 f4be f3f4 8234 9dc5 f53e
00000790: 7f42 4022 83a0 e03e 4340 3e34 0aca 06bf
000007a0: 2cdd 25f0 ed44 d03e 2363 368c 9541 cd3e
000007b0: 2f58 a18e 09ef a73e a82e 96ae 6fa7 eabe
000007c0: 1b6d f026 d9a3 e13e f3bc a460 731f b03e
-5.123328038850167e-07 4.055095180109485e-06 -1.406271163806752e-05 1.5072120075940917e-05 -3.1580336721884833e-06 7.564953258813178e-05 -0.00013778920004773554 -0.00010296618163013272
-3.6223552353881534e-05 -9.945216219500243e-05 -5.0946421554375595e-06 7.775082426625102e-06 -1.3068826185285415e-05 -2.1216386254465083e-05 4.005788011913727e-06 8.327548106158867e-06
5.352267673475204e-05 7.1954067087015186e-06 1.2241347457808194e-05 3.7120524926372106e-06 1.4617499467468402e-06 -6.19521120238553e-05 -3.0112255891221965e-05 4.3570695328456804e-05
-1.3487432122056685e-05 -6.845162529258841e-06 -1.1734324600091279e-05 -3.520703623992311e-05 3.052033473302423e-06 -1.727846620243342e-05 8.037161176423503e-06 8.567929487434267e-06
1.0555216387575359e-05 8.90830133424766e-06 -1.0043630878412372e-05 2.9695901322784724e-05 -3.733318925783339e-05 2.2619884423071734e-05 2.2595280285785046e-05 -4.620047137703275e-05
4.763169030029325e-06 -4.292157030639823e-05 4.631020955065572e-05 -1.8347916538493917e-05 -6.152378807359281e-05 5.421798240616961e-06 1.3799802054907927e-05 -1.0087516574634199e-05
-5.7709976888766244e-06 1.854729655683713e-05 -3.276715783907279e-05 5.9959444991171195e-06 6.141466569819498e-06 -1.470069445168313e-05 -3.7298651709903295e-06 2.0413702231130303e-05
-6.070396748609692e-05 -5.991512069219334e-05 -2.5154038698935915e-05 -5.892462602390146e-05 -2.6800709426864643e-05 7.0909472459953e-05 5.0706913109292115e-05 9.437839728526847e-05
-7.465501373376251e-05 0.00011108646500842704 8.74123758907927e-05 -7.703801552090214e-05 5.230510646479995e-05 -6.37232636723456e-05 -4.521098210543041e-05 1.9175600370610657e-05
3.9747810895446145e-05 -5.132758595915963e-05 5.549733054056012e-05 -2.0200082089378165e-05 -6.666096105096536e-05 -2.8118038084103885e-05 8.199066230031186e-05 3.3874112818315536e-05
-4.039046724554297e-05 2.0330166837155782e-05 1.66780911395534e-05 1.450455267567881e-06 1.7620605181222075e-05 -7.92096387634181e-05 -8.526926659668577e-05 3.145548309032083e-05
-0.00011799654707218599 -0.00010327187726514041 -3.913747102404091e-05 2.5809465811978754e-06 3.1187850775406697e-06 3.513063576233556e-05 -3.5099433710169935e-05 1.4978890237436877e-05
-7.805548862508906e-05 -5.925522779755356e-06 -1.874114565049415e-05 -5.316602245773967e-05 -6.42697864701263e-06 3.231993227249399e-05 6.184939837280533e-06 3.735800488944281e-05
-2.0843420839932523e-05 5.498046495364646e-05 -4.9051283550907675e-06 -5.86918836184489e-05 3.0280205323882426e-05 2.8508117700799237e-05 1.236731566136844e-05 6.0311594093391404e-05
-5.2208248875988366e-05 -3.587512939804522e-05 -1.3287139309739297e-05 -7.828691197016811e-05 6.706619034689187e-05 2.148356244210184e-05 -5.1764511415144683e-05 -6.802820830936995e-05
1.6953899162805226e-05 6.574460009476583e-05 -1.5023232622372179e-05 5.691342067693195e-05 -3.0988364469667858e-06 -1.0253764514923677e-05 -1.0775539657822667e-06 -1.2012000669192806e-05
-8.325387693774786e-06 1.802118604148734e-05 1.543944405329731e-05 6.769654977003356e-06 7.680068207606527e-06 2.8294352020032915e-05 -8.722820217026259e-06 -1.9186317874456004e-05
-2.7462133772336343e-05 -6.582612704202722e-06 5.504919427402325e-06 -2.5194845679601125e-05 -8.107975817724107e-05 -7.993870387199275e-05 -7.727899389913807e-05 1.7258494974457678e-05
-9.383204218303426e-06 1.0510969769789035e-05 -2.681668042803539e-05 -2.635303334873696e-06 -2.8603219029927027e-07 -8.052674899337964e-06 -4.6378731446122436e-05 -2.0136872708967286e-07
-5.470185036791529e-05 -3.27928573310738e-05 -4.619622102814808e-06 1.2540334318808477e-05 -1.5158987971814342e-05 1.837704199485979e-05 3.762947111411667e-05 3.870607029060826e-06
4.0451169287302366e-05 -6.836632088677333e-05 -2.789206739051854e-05 -7.564861146590831e-05 1.693997966218604e-05 9.359156085968243e-06 3.818250447194895e-05 1.6951966573411622e-05
2.7846196468397297e-05 -7.00983816058522e-05 -3.156957539477214e-05 5.028554628282048e-06 2.004779906587578e-05 -4.490230867708634e-06 3.7185817502411184e-06 2.5684452056012818e-05
-4.090429695969633e-05 8.84226971271139e-06 -5.589769326032959e-06 -1.6926464923744235e-05 3.819878467603695e-05 5.7542403655017396e-05 0.00010721433255334336 -0.00010591894265087229
-1.9100326276395082e-05 5.284958323823891e-05 -8.729919648230064e-06 -3.685792434513015e-06 -4.7350478469458904e-05 -6.095499137798494e-05 1.0796798835015326e-05 2.5764002775910584e-05
2.99108864448964e-05 -8.373905820269395e-06 1.813475957230449e-05 -6.707087803755947e-05 3.095639117554597e-05 -2.1520056629195976e-05 -1.2860439687732272e-05 -2.05598219555437e-05
-6.937549653440478e-05 -4.0410592867864375e-05 -7.621588503143484e-05 -8.193227862058856e-05 9.606896943484083e-06 -5.217045639279497e-05 -6.310901584425914e-05 -1.1387714265087918e-06
2.2991298852044393e-05 6.662077456043804e-05 -0.00011164448817590514 -2.869091978707683e-05 -0.00011488528088160347 -1.1344719165941378e-05 3.516645689370657e-05 3.0494189489181578e-05
5.395035233065387e-05 -9.53700194194913e-06 3.126829484256524e-05 -4.810527046911305e-05 -5.005297529287611e-06 7.458115287385838e-06 2.255482925408949e-05 -1.5820695764627567e-05
-2.0228751129434587e-05 7.842544250996218e-05 5.944050380355774e-05 -2.272405465332346e-05 -5.8657147311549695e-05 4.092294605850475e-05 4.577280102547169e-05 9.153938823284408e-06
-2.8435261449210946e-05 -1.0100193165263323e-07 -1.160217561928747e-05 3.2844089460366394e-05 -2.7918162895672008e-05 3.629632143816173e-05 -3.709237378169094e-05 1.8574553799054993e-05
-1.9325509978550934e-05 2.076333046895514e-05 7.928371879046797e-06 -4.346698418011875e-05 3.8788928143831365e-06 3.487609406338167e-06 7.132810229220109e-07 -1.2709640446549014e-05
8.411422838297677e-06 9.609970015969372e-07
