data/4SLQ6LX6K/ens_bio/bioneuron_48/ens_bio_weights.npz (npz, 2200 bytes, 1 tensors)

weights f8 [50, 5]
000000 7a c0 a2 1d 02 27 f7 3e 92 65 5f cf c0 de ef 3e
       2.207982638741154e-05 1.519686200517309e-05
000010 38 df 30 da fa 3f db 3e 3a e8 22 83 49 12 f2 3e
       6.496887553324002e-06 1.7234262664735297e-05
000020 f9 71 10 9a d3 a8 f3 3e 28 f5 75 11 b8 5b 01 3f
       1.874873999351161e-05 3.3108286681996564e-05
000030 74 94 25 35 5f 1c 01 3f 0d 99 c0 a7 a6 5c 17 3f
       3.263631392051098e-05 8.911864455338568e-05
000040 9a 44 4e 45 b9 02 00 3f 5d 71 8e 15 d4 86 f2 3e
       3.053787137397811e-05 1.7668412826675267e-05
000050 bc d3 d8 84 1a 7c d7 be 63 1f 69 5f 5d e2 e4 be
       -5.599207793906385e-06 -9.958380343580165e-06
000060 7b c3 a4 5b 40 55 f0 be df ef fd f3 d7 5b d6 be
       -1.5576375269779862e-05 -5.330744727301939e-06
000070 d5 46 c6 db da 9a f6 be e9 0e a5 f0 f5 f2 17 bf
       -2.1557714477155418e-05 -9.135843371149321e-05
000080 b1 ec 8e e2 5c 3d 13 bf f2 13 1b 4e 2c dc 0f bf
       -7.339362549789692e-05 -6.076822479664919e-05
000090 1b 05 9a 8d 29 50 13 bf 6c 89 57 5d db 45 10 bf
       -7.367375965296569e-05 -6.207610507361565e-05
0000a0 99 1d a8 79 21 0c ea 3e 2b 35 60 fb 56 31 f1 3e
       1.2420361419364713e-05 1.6396268357301055e-05
0000b0 59 0b 8d 77 0d 03 08 3f 7f 64 a9 2b b0 eb 0d 3f
       4.579911087045666e-05 5.7069124029759416e-05
0000c0 df 9c 06 4a 06 52 fc 3e 1b 4f 66 bd 0b 89 01 3f
       2.7008446183221574e-05 3.3445997973972743e-05
0000d0 ec d9 42 35 85 b6 e7 3e a8 5f c1 6f bc 1d 08 3f
       1.1307225271967176e-05 4.59979182500508e-05
0000e0 71 95 13 96 84 c3 02 3f 56 f2 88 3d 78 3e d5 3e
       3.578899737436803e-05 5.064969592680026e-06
0000f0 8b 1e 80 9b 9c 8d de 3e c1 14 17 63 ab cb dc 3e
       7.284443590556095e-06 6.865402200022578e-06
000100 f8 d0 c1 ca c2 1f e6 3e cd f2 21 96 d0 b8 ed 3e
       1.0549576778575296e-05 1.417252196155832e-05
000110 0d 51 75 ac 58 4e d5 3e 20 e2 e1 0d 29 d9 12 3f
       5.079755914867235e-06 7.190049243089485e-05
000120 d1 9a 3d f0 88 60 0a 3f 5a 79 fd cf 5c e5 d5 3e
       5.031030562357086e-05 5.220400680487571e-06
000130 81 bc ba b6 53 bc cf 3e f5 e8 2e f3 e8 56 e3 3e
       3.783184572579322e-06 9.221788422543174e-06
000140 5b a8 48 84 89 6f 0f 3f c0 a2 07 aa 4d 33 ff 3e
       5.995882432714767e-05 2.9755023776364574e-05
000150 f9 43 d9 62 74 8b 13 3f 95 0d 5f eb c2 67 17 3f
       7.455728401707652e-05 8.928420251579632e-05
000160 c0 f1 3c b7 7f a4 e5 3e f8 e7 bb 92 19 f9 f1 be
       1.031998338129551e-05 -1.714043280196667e-05
000170 9d 7f bf bb 6d ce 58 be 52 5c 96 6a 1c 62 d3 be
       -2.310272483030623e-08 -4.621325993345894e-06
000180 7d 96 07 fe 92 5e ac be 19 b4 e9 2e d5 09 e3 be
       -8.454749114677185e-07 -9.07822092451921e-06
000190 f5 ea bf 81 75 37 00 bf 01 60 08 fa ed e6 02 bf
       -3.093077995682494e-05 -3.605283496116441e-05
0001a0 c0 97 6c b8 a8 b9 03 bf 05 a8 4a 91 23 92 b8 be
       -3.762289184398816e-05 -1.46453709707695e-06
0001b0 4f 5f c3 dd e2 20 f5 be ca 27 66 3f 57 ff fc 3e
       -2.0149671272700575e-05 2.7654099505926105e-05
0001c0 01 2a 77 ae d0 9b 10 3f 91 46 50 10 27 2e f1 3e
       6.335698309737488e-05 1.638439518464888e-05
0001d0 dc 45 79 e2 a8 0d 11 3f 8b 5c c5 32 5d c7 03 3f
       6.50533989923411e-05 3.7725001990445815e-05
0001e0 f8 a0 0f b0 1a a5 12 bf cb 27 45 a8 4e 53 00 bf
       -7.112479580906664e-05 -3.1138265543420225e-05
0001f0 05 a1 77 51 9b b8 0f bf ba 0b 06 f4 2a 24 1b bf
       -6.0503234802502074e-05 -0.00010353576818115844
000200 fc 6e 3f 18 ec 65 14 bf 0a 4e 08 c0 85 e7 f9 be
       -7.78127051143627e-05 -2.470434628960679e-05
000210 c0 b4 f2 ec be 84 14 bf f7 54 8f ca 3f 97 11 bf
       -7.827201192141513e-05 -6.710364199532028e-05
000220 3b 9d 66 d2 7a e5 03 bf ac 38 cc 64 20 db 19 bf
       -3.794938156725455e-05 -9.863267150597943e-05
000230 0a f6 33 1b 92 6b 02 bf b8 cf ad 8a 9d ef 0a bf
       -3.513373976636251e-05 -5.1376338283142876e-05
000240 dd 37 cd ab b8 b9 07 bf fc a2 76 98 88 bc 0b bf
       -4.525275060150689e-05 -5.290309769218589e-05
000250 30 ef 14 50 a7 17 f2 be 64 da bf b7 58 f5 14 bf
       -1.7254254094142124e-05 -7.994989385893544e-05
000260 1b 94 05 78 e8 46 15 bf da f1 2e 88 5f 26 07 bf
       -8.116525532882205e-05 -4.4154920963521575e-05
000270 13 70 85 c0 2f 54 11 bf 70 3d 8d a8 f0 eb 05 bf
       -6.610433059023339e-05 -4.181221181076111e-05
000280 3c 40 be ee 23 16 02 3f 3e 5a e8 1b 2c eb 06 3f
       3.4497233939779066e-05 4.3713840103422056e-05
000290 2c 5d 51 f2 eb cb ea 3e 90 cd ee 8b ae d7 f1 3e
       1.2777599815701363e-05 1.7015940780585432e-05
0002a0 a0 6f ad 7e 92 38 fb 3e c1 a9 72 54 ce 24 ff 3e
       2.595995458008727e-05 2.970101675418293e-05
0002b0 c9 2c cd 56 92 4d 0a 3f e1 3e 14 b6 76 0a 10 3f
       5.016901818651884e-05 6.119107776591692e-05
0002c0 3b 3b ad ed 80 12 10 3f a3 5b 8e 0e 3b 92 11 3f
       6.131088177350763e-05 6.702886061159137e-05
0002d0 ed 3c 74 a2 c6 ca e3 3e 2e b6 72 24 2a 37 07 3f
       9.437605582833574e-06 4.428002699206585e-05
0002e0 bb c1 0e 47 02 9c e1 3e b7 9e 52 35 92 d0 0c 3f
       8.396820904228082e-06 5.495973770424988e-05
0002f0 c5 4d 28 49 5f 04 f1 3e 4f b2 b5 49 e9 59 0e bf
       1.6228751130565608e-05 -5.7890350229826256e-05
000300 69 f6 c0 38 cb 4d 0b bf 1e 18 30 b4 c2 ca e4 be
       -5.2078022321638846e-05 -9.914414141231532e-06
000310 24 8d 15 0f 02 5c 01 bf 00 b8 59 55 a2 b9 13 bf
       -3.3110440095263685e-05 -7.524541191525347e-05
000320 b9 b9 57 42 1e 00 f8 3e 02 f8 1f 59 cd de dc 3e
       2.2888623922351465e-05 6.8832208786045335e-06
000330 5f 0c 20 36 90 02 fd 3e a0 b4 cf 82 df f0 04 3f
       2.7666104308831835e-05 3.9941617025232275e-05
000340 84 26 d3 67 cd 8f 0b 3f 10 5a a2 b3 2e 57 0c bf
       5.256982420005516e-05 -5.405532142892602e-05
000350 8f 43 54 96 84 d8 11 bf 38 a8 2f 03 48 34 0e bf
       -6.807622192562937e-05 -5.760998501343244e-05
000360 37 f1 ac e4 15 82 11 bf e4 f8 c0 84 b8 24 f2 be
       -6.678827882650595e-05 -1.730293324463888e-05
000370 6f c5 da 9b 7c 3e 0d 3f c3 11 42 de 41 9f 07 3f
       5.57786729421622e-05 4.505557788639675e-05
000380 92 0e 85 d3 a4 92 d7 3e 71 9f 26 85 b8 b0 06 3f
       5.620200049630648e-06 4.3278342349239026e-05
000390 80 0e d6 7f 22 e1 0b 3f 54 c0 22 9a ed 18 ef be
       5.3175797783769525e-05 -1.4828384170634399e-05
0003a0 f0 9d 4b f2 cd 66 0c bf 22 e7 f3 d3 94 d7 04 bf
       -5.417171477067526e-05 -3.975317894773361e-05
0003b0 de 9f 51 6e 6f 35 f9 be 80 9d 9e 57 3c 6c 19 bf
       -2.404091982946543e-05 -9.698026943160375e-05
0003c0 e5 fe 3a 77 17 6b 0f 3f 1e 04 05 f2 0a c1 05 3f
       5.992570268409189e-05 4.149260189701568e-05
0003d0 67 12 89 d4 ef a2 e4 3e 80 7b 8e ff 61 eb d7 3e
       9.84023667272814e-06 5.7028446399921785e-06
0003e0 6a 96 67 6c 94 f3 f2 3e ca 2b 85 13 89 8d 0b 3f
       1.8073543083382838e-05 5.2552934394066076e-05
0003f0 ab 1f 33 2e bf a4 f1 3e 9e 76 c5 58 6c 97 07 3f
       1.6826193029811632e-05 4.499720953064539e-05
000400 00 13 32 0a 1d 7c 08 3f 39 71 a3 ef 08 22 09 3f
       4.67010843517076e-05 4.793729563498873e-05
000410 05 a8 16 58 e3 9e eb 3e 73 cd c4 0d 50 65 a6 3e
       1.3170555351067073e-05 6.67445444280119e-07
000420 75 ca b3 a5 0a 41 f4 3e 6a d0 91 da d8 25 fc 3e
       1.9315785135763008e-05 2.6843872238349968e-05
000430 57 9f 65 62 c6 ba f0 3e bd ff 0e 89 fd 61 02 bf
       1.595457993044889e-05 -3.506236055938982e-05
000440 2a b6 64 38 85 4b f2 be 23 96 e8 3f fe 24 f8 be
       -1.7447473078016435e-05 -2.3025993863742594e-05
000450 5f 99 4e 3c 32 bb d8 be 77 08 c2 6f 75 cb f4 be
       -5.896385975845359e-06 -1.9831429185497976e-05
000460 61 92 1f 71 38 4f 12 bf 79 1f 59 f4 c7 8f f2 be
       -6.984502786584183e-05 -1.770176392870647e-05
000470 a4 87 e6 02 8e c8 10 bf b1 02 93 26 0b 5a 13 bf
       -6.402365463611823e-05 -7.382100160936257e-05
000480 d6 fd f9 62 11 16 16 bf 1d 6d 27 11 8c 8a fc 3e
       -8.425217742490747e-05 2.7219009163787216e-05
000490 37 e3 45 a7 9d 83 f6 3e ff d6 1c ff 0f 6a fe 3e
       2.147114214909597e-05 2.9005343044028426e-05
0004a0 e8 fa 5f 2f 68 77 f5 3e 45 48 df 9c 60 80 02 3f
       2.047198628218452e-05 3.528876150905904e-05
0004b0 7b 95 e3 3a ba 3f f6 be cb 2b c2 1e 72 9c f3 be
       -2.121823825342515e-05 -1.8702617965032046e-05
0004c0 c5 0d e0 dd b5 40 ce be 51 4e 80 9a 9a 9b 09 bf
       -3.6064118225113625e-06 -4.8843055367478316e-05
0004d0 86 f1 2e e0 a4 63 f8 be 97 d2 ff c2 5a 34 f7 be
       -2.3259386590744546e-05 -2.2129545129661613e-05
0004e0 0c 02 f5 26 c1 10 f5 be 2d 8b 70 3f c4 fe 04 bf
       -2.0089576023398336e-05 -4.004513169088837e-05
0004f0 c0 08 b7 7b c5 0e f0 be 5c 02 e2 b2 b2 f5 0b bf
       -1.5313816886360727e-05 -5.3329006150630505e-05
000500 37 5b e9 b6 ba c8 e4 be 43 f3 9d 29 6a 09 f7 be
       -9.9106307206838e-06 -2.1969581758696286e-05
000510 2d c3 3d 75 30 1e 0e bf c0 59 40 c9 3c 41 0c bf
       -5.744538671493267e-05 -5.3891818567009236e-05
000520 86 81 b0 65 14 82 10 bf e8 58 0f 21 8c ea 0d 3f
       -6.297349447992846e-05 5.706062450598783e-05
000530 a5 7d b1 c1 5b de ee 3e bc 9e 93 8f ca c9 11 3f
       1.471928958646127e-05 6.785677750864144e-05
000540 e7 88 76 70 a0 19 e4 3e 68 d7 5b 6d 54 16 07 3f
       9.584476642403003e-06 4.403538848222929e-05
000550 ec cf 88 da c0 25 c1 3e 37 85 42 38 e7 4d 50 3e
       2.0441381887396136e-06 1.5184571392481705e-08
000560 0d 2d 9a 4e 1c 97 f6 3e 66 09 82 69 39 c5 e6 3e
       2.154376571765226e-05 1.0857776303167722e-05
000570 a9 40 7c c3 2d ad e8 3e f2 96 f6 9e b6 f1 04 bf
       1.176666238181274e-05 -3.994787754927992e-05
000580 f5 6f f9 8e 79 00 0a bf 8a 67 ef 35 d0 53 f5 be
       -4.959460227091365e-05 -2.0339389603530755e-05
000590 ac c7 98 68 87 03 04 bf 6a 5c 9a 93 a8 71 0c bf
       -3.817326530643149e-05 -5.425258355023432e-05
0005a0 79 5a 00 f8 73 83 12 bf e2 d9 2b fe 4d e3 11 bf
       -7.062335316763449e-05 -6.823695688837992e-05
0005b0 f7 12 b3 f6 7b f9 18 bf 70 6c 80 1c 63 af 11 bf
       -9.527033914753432e-05 -6.746332576350474e-05
0005c0 34 34 b7 77 be f4 00 bf 1b 95 bc 49 07 a6 0b 3f
       -3.2341063128528766e-05 5.2735421574726634e-05
0005d0 0d c8 c5 74 67 bf e2 3e f1 dc 03 9c e3 71 04 3f
       8.93958681367007e-06 3.8995512570078296e-05
0005e0 01 f7 2f 4f aa 4b 0f 3f 4e ea 4e 8c f9 ec 07 3f
       5.969155781569529e-05 4.563461838054794e-05
0005f0 ee 7c 74 2a 60 1d f4 be 72 e5 6e 7f 0a a7 df be
       -1.9182919143931444e-05 -7.546545012831822e-06
000600 f9 00 99 c7 ba 30 f1 be cd 62 92 0a cd 14 fb be
       -1.639399531527892e-05 -2.58266960924982e-05
000610 12 c2 bf 4d 74 85 e6 be ad 57 25 14 3d 00 06 3f
       -1.0738995506160763e-05 4.196344754585301e-05
000620 f0 79 bc 65 66 98 e8 3e 48 62 94 26 b7 3e 13 3f
       1.172795889875248e-05 7.341378081483177e-05
000630 5e 00 06 45 05 23 0d 3f 28 3f b3 de f4 2f f3 3e
       5.557403403866409e-05 1.8298463982101932e-05
000640 13 8b 7e 4c 77 3e f7 3e 3f c2 57 f7 d9 69 09 3f
       2.2167213301958646e-05 4.8472370433820255e-05
000650 2e ae b0 10 6a b2 e7 3e 8d 8c 18 46 89 d6 1d 3f
       1.1299577201104903e-05 0.00011382305958611474
000660 b7 29 1d ca 12 d5 20 3f c9 e8 89 e7 f8 ec 08 bf
       0.00012842039455514067 -4.754194828123085e-05
000670 f8 27 09 cf ef d5 11 bf b9 d1 f1 af 90 67 04 bf
       -6.803775955535596e-05 -3.8918593411904836e-05
000680 dc 49 63 0b c6 3d 05 bf ef 6b eb b3 00 e5 f8 be
       -4.051457055855346e-05 -2.3741285299343854e-05
000690 8e 7f 96 31 ad 2d 16 3f 1d cb 70 d5 85 1c f0 3e
       8.460397329779058e-05 1.5365044728275692e-05
0006a0 e4 fa 26 b5 c7 4f d1 3e fa c2 dc 20 5b 27 bd 3e
       4.127416860232327e-06 1.7376979743572111e-06
0006b0 e6 e5 d8 82 8e 37 72 3e b6 02 e7 7f 8c bb 02 bf
       6.786368152928057e-08 -3.57296230393314e-05
0006c0 2d d2 7f 12 53 5b e4 be 58 99 a5 85 af f9 f3 be
       -9.706848302906246e-06 -1.9049963478145804e-05
0006d0 b8 e6 62 43 d1 7c 0b bf c5 ae f3 1e c8 dd fc be
       -5.2428375441460615e-05 -2.752908215779175e-05
0006e0 06 74 0e 15 7d fe fe be 07 34 17 86 ac b7 f0 be
       -2.9558273414321427e-05 -1.594302773870809e-05
0006f0 4a ce e5 81 3e 7c f5 be a8 5e 10 a5 73 eb e4 be
       -2.049000624411286e-05 -9.97530620065687e-06
000700 f7 93 7f e0 1a 4e fe be 1e 1f 61 11 50 92 03 bf
       -2.8901193246517296e-05 -3.732973907283179e-05
000710 4c 11 bd 40 43 f3 0a bf a4 9b e4 79 91 51 fe be
       -5.140351285473857e-05 -2.8914094962885877e-05
000720 f0 14 ac 98 1f 7a e1 be 22 0d 34 2c c0 49 fe be
       -8.333704291550091e-06 -2.8884972164367206e-05
000730 9e f9 4a dd 8d bc fd be 53 bb 47 ef d3 8c 0a bf
       -2.8358974150982667e-05 -5.064031384793021e-05
000740 83 60 22 91 59 19 ea be 66 dd 16 2a 54 f5 01 bf
       -1.2444983927204167e-05 -3.4252768510818416e-05
000750 b9 2c 84 c4 5d 47 fb be 40 f5 fe c1 80 b3 ee be
       -2.601506665293456e-05 -1.4639465064076652e-05
000760 b5 0d ed 11 31 e7 c7 be 49 6b 40 89 8e 78 06 bf
       -2.849470674888653e-06 -4.28598879411353e-05
000770 74 8e 09 b4 37 71 f7 be 70 8f ae d8 03 e5 f4 be
       -2.235627767034486e-05 -1.992663377915711e-05
000780 04 16 5f 5f 3d fa 0c 3f 95 dd ab 5e 77 cc f2 3e
       5.527019304411507e-05 1.7927833975554098e-05
000790 9a 0b f4 46 99 40 0f 3f 18 1b 88 20 33 d8 f1 3e
       5.960910572790704e-05 1.701787008026164e-05
0007a0 f1 82 68 92 c5 72 f2 3e 92 59 46 1e 7d 34 e4 be
       1.7593695838982513e-05 -9.634511066985972e-06
0007b0 ef 71 00 52 3f b4 e5 be 4a a6 91 4d fb 47 c7 be
       -1.0349317165086475e-05 -2.7753327285676023e-06
0007c0 15 2c 7c d1 ee d2 e2 be c6 3d e5 ee ca 86 f0 be
       -8.97596196083008e-06 -1.576093102900551e-05
