data/4SLQ6LX6K/ens_bio/bioneuron_41/ens_bio_weights.npz (npz, 2200 bytes, 1 tensors)

weights f8 [50, 5]
-1.071794206024367e-05 -1.5456150742368514e-05 -3.094943805430123e-06 -8.03135949146569e-06 -7.377526921528629e-06 -0.00014792469811150653 -0.0001236494537605713 -6.12778943785448e-06
-0.00014496724121730492 -1.7480585586118257e-05 1.2505014728217206e-05 1.141715240851531e-06 1.738602142778802e-05 2.2601271395621755e-05 6.437203459343141e-07 7.936100738180569e-05
5.305857957149859e-05 6.49001674756037e-05 7.951435946162862e-05 1.2451300684607658e-05 -6.578291884858647e-05 -2.9712416772791147e-05 -4.3942382936739386e-05 -5.2228607207104335e-05
-1.3342120845481468e-05 -4.5433350993066375e-05 -3.3148071962660576e-06 -4.7994953853705626e-06 -4.0477323107524276e-05 -4.4444260832024575e-05 -8.714510803579866e-06 -1.1105575326493506e-05
-4.125894785311434e-06 -3.235883154807112e-06 -2.9576979997571447e-06 -6.367795079552443e-05 -8.93798268643902e-05 -7.828784455390003e-05 -3.402879167217567e-05 -8.03676599072648e-05
-5.69469900767895e-05 -2.3055175110521e-05 -6.3573207890974994e-06 -7.037252864931737e-05 -3.324655076557044e-05 1.5416147746387362e-05 1.6249579387526613e-05 1.5309359678558847e-05
1.2777520753495039e-05 1.985228770292617e-06 8.09285983624769e-06 9.289883316702137e-06 9.840029200437565e-06 6.695079512353602e-06 3.650943729179729e-05 -3.0094176694923602e-05
-6.036145231950105e-05 -5.079654063779387e-05 -2.598424180841707e-06 -7.19320886506761e-05 0.00010366241466094493 1.1649315587963102e-05 0.00010239082741573855 9.043773994070761e-05
5.040961826424756e-05 6.510970994781019e-05 2.4145170329237832e-05 4.562316984660045e-05 7.391317820742932e-05 9.440519353694895e-05 4.8754590621523146e-05 4.6659944351913306e-05
4.49969868947751e-05 1.4626302457137503e-06 6.0742665684998785e-05 6.638463021976604e-05 8.146343977405717e-05 9.004333175673385e-06 1.875930480812408e-05 8.155612706579794e-05
-3.326911154441386e-05 -1.0306445887752487e-05 -3.826303293702428e-05 -3.191319917179546e-05 -4.323709955303653e-06 -1.989582721184369e-05 -3.870196365047912e-05 -2.2605652971432575e-05
-0.00011416066640593172 -2.505678331072031e-06 -3.913964454562585e-06 -5.183544754528114e-06 -2.5306561007406737e-06 -2.758386734696753e-05 -4.749417012807064e-05 5.3111905712128865e-05
7.584991733551255e-05 4.810159641213199e-05 1.6656842214254288e-05 1.1085741449126205e-08 -6.945375347407282e-05 -1.9230690918848295e-05 -1.3984002270554474e-05 -7.173213501805407e-05
-6.939885105380696e-05 5.211337166381731e-05 2.360314082280315e-05 5.174554039686896e-05 6.8584872140796e-05 6.847339317507944e-05 -1.1082248261067984e-05 -6.125069184526829e-05
-4.556804476976109e-05 -3.087599692438003e-05 -1.3682691097763425e-05 9.512750732699363e-05 3.2699924452447176e-06 3.479885817296598e-05 9.140641329518377e-05 7.005645480092627e-05
-3.670548159402387e-05 -5.817018804976245e-05 -6.157533703564765e-05 -7.085575026030907e-06 -1.5974511004293567e-05 -1.1510171916780108e-05 -3.883160755993799e-05 -5.384159039494993e-05
-4.322496984359777e-06 -1.413824303176155e-05 -1.2037204031117725e-05 -3.725389479504607e-08 -1.8150366077939983e-05 -1.2760593939290948e-05 -3.5144034596794264e-06 1.8796932466288026e-05
3.48690783700409e-05 3.096324866727003e-05 3.462447013145988e-06 2.4695183218861273e-05 3.0018394154703257e-05 2.2938932313839828e-05 6.125636250570281e-05 7.681932184951144e-05
8.442139236859189e-05 -2.185655833714875e-05 -5.790681838358841e-06 -4.740389682620799e-06 -2.727272806114128e-05 -2.2440016369258083e-05 4.553229619186921e-06 3.491465188940094e-05
5.658474908387424e-05 7.633622894026951e-06 4.0852774271774294e-05 2.0590316351180723e-05 4.612364418606361e-05 5.130934109742072e-05 1.7139672633108e-05 5.0691313042194996e-05
8.566269576211758e-06 6.052310209308325e-05 3.450884582308818e-05 3.777737591105715e-05 3.1936003770190017e-06 -1.501382326135385e-07 -1.809746826358876e-05 -1.830290053189822e-05
-6.464921033527482e-05 -6.093028533490102e-05 -3.083807335817626e-05 -1.0553376691128606e-05 -1.3810608978387579e-05 -3.326377083316023e-06 -1.8782441160603475e-05 4.738176611940497e-05
6.943461325352813e-06 6.2433730894124e-05 5.7594923887556504e-05 4.629841855313435e-05 2.2260336049065823e-05 0.00010742994031875448 9.778031055690226e-05 9.917720133969953e-05
2.5119743980285965e-05 -6.248433384903e-05 -7.950390692508165e-06 -5.352173453703849e-05 -4.190070520007162e-05 -2.887201039768506e-05 9.418661734494744e-06 2.5791845959539047e-05
1.8600138366291764e-05 1.0150219033257407e-06 6.396184783691613e-08 -1.9083376587886434e-05 -1.3100925491504961e-05 -2.739789746080045e-05 -4.6200876720406375e-05 -5.3125055259996906e-05
-6.064972724928304e-05 -0.00011215858379358606 -1.4001805707152812e-05 -1.704075591032601e-05 -6.143391804606428e-05 4.520029526425657e-05 4.578643947439053e-05 5.967582254962487e-05
7.551944186889281e-05 4.032754613455485e-05 -9.93520391978084e-05 -9.748086469688154e-06 -0.00010099001760949682 -8.104101621936022e-05 -0.0001082117145540594 3.258971396097463e-05
3.598993534914634e-05 5.650639760310567e-05 6.074611085309905e-05 3.765403568492345e-05 1.4235994805125485e-05 2.685112309923435e-05 1.4692295266450046e-05 8.859266846073956e-06
1.7598827767746295e-05 8.981643097267299e-05 4.300035835305525e-05 7.222012023121064e-05 7.948334565432405e-05 9.851366561344547e-06 4.772574103970896e-05 1.9656278032444972e-08
1.50192647922882e-05 5.175925220752599e-05 1.3942415195639354e-05 3.727733056817696e-05 9.547106448650965e-06 4.431469774221001e-06 3.8603736488440576e-05 2.4889216642657157e-05
-1.2257567899956392e-05 -2.9294088265312517e-05 -7.4447145272298855e-06 -5.300988900616366e-05 -6.759738799080914e-05 7.0868034268367135e-06 1.4042551286738843e-05 3.936594980973362e-06
8.030090428360645e-06 6.712128398020105e-06
00000000: 4862 79bd 267a e6be bee9 6397 fa34 f0be
00000010: 1bf1 c659 57f6 c9be 3616 baa4 cdd7 e0be
00000020: 3ad9 9a28 8ff1 debe f7bb 377b 8763 23bf
00000030: 9415 5bb8 fc34 20bf 87b4 53ef a9b3 d9be
00000040: dde5 ba1e 4b00 23bf 39dc cbb1 6854 f2be
00000050: ed85 2c23 9439 ea3e da31 d42e a127 b33e
00000060: 3fa4 874b 063b f23e ed6b 3b8b fbb2 f73e
00000070: 2494 c202 8499 a53e a01c a2b9 d3cd 143f
00000080: 2281 89e9 66d1 0b3f 58da 2263 6003 113f
00000090: a37f 364b 1ed8 143f 40f4 46bc bd1c ea3e
000000a0: 9b75 bbf0 9d3e 11bf 1638 b2bb dd27 ffbe
000000b0: e8d5 edc7 d809 07bf 5fff 6947 0162 0bbf
000000c0: be15 4820 fffa ebbe 8948 a50d f6d1 07bf
000000d0: 5645 2f87 7ece cbbe 317c f43e 6b21 d4be
000000e0: 3100 583b c638 05bf 77ee 942c 354d 07bf
000000f0: d86f af3e 9146 e2be 2343 8ca6 424a e7be
00000100: 36cb a652 254e d1be 55a1 d193 0125 cbbe
00000110: 5aa5 ccab 9bcf c8be 339c 54dd 5ab1 10bf
00000120: 0f3a b4bb 2d6e 17bf 5825 9aed ce85 14bf
00000130: dc56 fb60 44d7 01bf c7bf 42e2 6111 15bf
00000140: abd9 0cae 4bdb 0dbf 33b4 d491 d32c f8be
00000150: b56a 4308 1faa dabe db8b 1ad6 9e72 12bf
00000160: b296 33c9 466e 01bf 5f1e 3e9b 3d2a f03e
00000170: 9797 ba97 f609 f13e 76a3 af2f 930d f03e
00000180: 6d51 9014 e1cb ea3e 8414 f10e 3fa7 c03e
00000190: 04c6 bd2f d2f8 e03e 8cd4 46d7 777b e33e
000001a0: 93cf c050 d3a2 e43e c334 7471 c914 dc3e
000001b0: 216c 9bb6 3624 033f a147 4513 588e ffbe
000001c0: cdd2 8eb5 93a5 0fbf 140a a8d8 cba1 0abf
000001d0: adb6 e4cc 12cc c5be a6ca 86df 47db 12bf
000001e0: e0d6 21b9 aa2c 1b3f d524 3abe 2d6e e83e
000001f0: 52eb 4805 55d7 1a3f d74c 9e8a 2cb5 173f
00000200: 8c60 774b dd6d 0a3f 2eca ac4c 7011 113f
00000210: 7b8d 8178 6b51 f93e 294e f02d 70eb 073f
00000220: db2f 8abb 3a60 133f f1b5 10e0 6cbf 183f
00000230: abd8 5dfa ba8f 093f d233 ee7a 9776 083f
00000240: 570d 72b2 6497 073f 783c 59f6 f289 b83e
00000250: bf39 c819 bed8 0f3f 7537 5443 ff66 113f
00000260: d0b0 143d eb5a 153f 6a5d dd20 2ae2 e23e
00000270: e098 3f9c a9ab f33e bdd3 1998 2361 153f
00000280: 532f e9f7 4d71 01bf 4c31 0723 3b9d e5be
00000290: b09f 06cd 930f 04bf 3426 8d2c 51bb 00bf
000002a0: 2a41 be57 8c22 d2be ad7c d1d5 bedc f4be
000002b0: f266 6958 7d4a 04bf 499c baa4 28b4 f7be
000002c0: c887 9750 31ed 1dbf b702 f13a e704 c5be
000002d0: 0d70 6c5b 966a d0be eecd c3ee c9bd d5be
000002e0: 7963 82e7 8a3a c5be 7b3d 31ee 7cec fcbe
000002f0: 6286 7542 8fe6 08bf 4d0a 3b2f 8fd8 0b3f
00000300: 0613 4ea8 33e2 133f 43cd 8e44 1638 093f
00000310: e648 257b 4977 f13e 2eac 7968 73ce 473e
00000320: 4454 2666 f634 12bf ce33 6804 332a f4be
00000330: 75a2 2da3 9a53 edbe 1973 26b2 dccd 12bf
00000340: 6677 c02e 4731 12bf 0a18 dbd0 8952 0b3f
00000350: 8059 967c ebbf f83e 45b6 d03a 2b21 0b3f
00000360: b022 a221 a7fa 113f 3305 f5ef 2bf3 113f
00000370: 3af2 659a bc3d e7be 43a2 92df 760e 10bf
00000380: 8f8c a218 0ae4 07bf 4daa 192d 1b30 00bf
00000390: 3da0 c2be d6b1 ecbe 17a2 b521 e6ef 183f
000003a0: 8044 af5b 416e cb3e 1b58 8ea9 9f3e 023f
000003b0: a5dd 1539 2ef6 173f 5f16 9eba 685d 123f
000003c0: 77a6 86be 863e 03bf ad7d 3471 787f 0ebf
000003d0: 263d 383c 4024 10bf 02c1 5b08 14b8 ddbe
000003e0: c65c 8e09 20c0 f0be 32c3 86fb 7923 e8be
000003f0: 2991 4ce0 e35b 04bf 9edd 93f5 7e3a 0cbf
00000400: 884a 80ec 3e21 d2be 9807 8353 69a6 edbe
00000410: b43f 8ab9 6c3e e9be b023 6fe5 2200 64be
00000420: a43f d1a8 3308 f3be aa08 3cad cac2 eabe
00000430: e788 fbbb 1f7b cdbe 15e2 025d c3b5 f33e
00000440: cf08 f168 0c48 023f 750c 8c1f d13b 003f
00000450: 0c8e 3160 8c0b cd3e 4c4f 9611 10e5 f93e
00000460: dc61 b956 007a ff3e d6e2 ec6c 9f0d f83e
00000470: 55b0 664b d80e 103f 1714 72e6 4123 143f
00000480: 7d52 2b7a 6c21 163f ddc8 8e40 13eb f6be
00000490: dfd0 e580 b249 d8be c8f7 e064 f4e1 d3be
000004a0: 6288 fd99 f798 fcbe 4ec7 ce2e b287 f7be
000004b0: c935 413a fe18 d33e 3670 db4d 2a4e 023f
000004c0: 997e 942c adaa 0d3f a70d 4a24 4502 e03e
000004d0: f4b4 b5a2 2a6b 053f 3e9e f6c3 2b97 f53e
000004e0: a7a9 c858 9c2e 083f 1d7c 3389 9fe6 0a3f
000004f0: adb7 b355 e5f8 f13e 12e0 ef40 ac93 0a3f
00000500: d6c3 2e20 fbf6 e13e addb 00f4 45bb 0f3f
00000510: 44ec f2e9 b217 023f 3c09 a6c0 64ce 033f
00000520: ee4d df5f 34ca ca3e 24e8 39dc b526 84be
00000530: 6a3f a08c 00fa f2be 8e41 4fbf 2531 f3be
00000540: 64ef f5f9 88f2 10bf 4beb aca9 ecf1 0fbf
00000550: 735a e221 042b 00bf a455 4b0c cd21 e6be
00000560: e0a6 11a5 83f6 ecbe 8e53 0724 57e7 cbbe
00000570: 8800 4487 dfb1 f3be 0dc1 5716 79d7 083f
00000580: de14 b61d 7c1f dd3e 1b88 5554 db5d 103f
00000590: 3d37 1f84 4232 0e3f 9bde 5f8c 1146 083f
000005a0: 01b7 2fa5 7657 f73e 8cfe 3452 8029 1c3f
000005b0: 210f b3f1 eca1 193f a547 5558 abff 193f
000005c0: 1542 7da9 0757 fa3e 0dbf 7bae 4061 10bf
000005d0: 9275 6060 55ac e0be 559d b2cb 900f 0cbf
000005e0: 41cd a244 d1f7 05bf 9773 6472 4546 febe
000005f0: 3b99 0b03 9bc0 e33e c993 8c28 720b fb3e
00000600: a478 97c6 ef80 f33e 7f73 9962 7c07 b13e
00000610: 5192 15ba 6c2b 713e 1b2d 4aa7 a702 f4be
00000620: 3180 337d 8179 ebbe 2b32 5b2d 91ba fcbe
00000630: 2f1b 5709 fa38 08bf c37a e0ff 52da 0bbf
00000640: 25ff a7c2 44cc 0fbf 97cc 24cc d566 1dbf
00000650: b77e ea85 295d edbe 15db 4fd4 57de f1be
00000660: 8a0a edac c21a 10bf 3692 c651 aeb2 073f
00000670: 55be c514 5a01 083f 5bc2 52a6 8d49 0f3f
00000680: 4efe d421 06cc 133f 822c 28ef ab24 053f
00000690: ed6f 5d09 670b 1abf 07ed 80cd 7671 e4be
000006a0: 4391 9a4a 5379 1abf 2bcf a30e 923e 15bf
000006b0: 33b2 a719 f75d 1cbf d260 910b 1e16 013f
000006c0: 79c0 31c3 7cde 023f a9b2 aa09 29a0 0d3f
000006d0: a31c cd79 34d9 0f3f edce 8bd0 d6bd 033f
000006e0: 1039 473a e4da ed3e ee30 1021 cb27 fc3e
000006f0: 4967 7eaf ddcf ee3e 4882 255d 4894 e23e
00000700: d1fa 403c 2674 f23e ca11 e188 7a8b 173f
00000710: 08cf 0f10 698b 063f b17b d037 9cee 123f
00000720: 58be 0b7b 09d6 143f df85 ad82 e9a8 e43e
00000730: 0035 bdf9 a305 093f 428c b099 131b 553e
00000740: 1cdb f308 687f ef3e 1165 2d5d 0223 0b3f
00000750: c873 0ff4 463d ed3e b21a 4c53 478b 033f
00000760: ce38 a951 9005 e43e 908a df22 4196 d23e
00000770: 9339 2849 4e3d 043f 116a adf1 2519 fa3e
00000780: a06c e54d bbb4 e9be e3d1 c36a 92b7 febe
00000790: 53d9 0a8c b339 dfbe 158e cbea ddca 0bbf
000007a0: 1fa8 6948 62b8 11bf 2c66 61b1 65b9 dd3e
000007b0: 8693 8c8d 0973 ed3e 48ae 25fd e282 d03e
000007c0: 31d5 8939 1fd7 e03e bdbe 20ce 1727 dc3e
