data/W49TSML50/ens_bio/bioneuron_0/ens_bio_weights.npz (npz, 4200 bytes, 1 tensors)

weights f8 [100, 5]
-0.00010819576503977425 -0.0001683169899958104 -0.00011437411561104251 8.283711421401172e-05 -0.00011018672129725881 0.00012119386163185064 -0.00012752176063133948 9.448589021978927e-05
0.0001220948905757601 2.859425192209455e-05 7.963748588462943e-06 9.207012789038668e-05 3.13042976387939e-05 -4.307269725284329e-05 9.051290989513458e-05 -0.00016563443522081623
-0.0002597159559248732 4.282921992955942e-05 -8.914350935750566e-05 6.044390388994794e-05 0.0002534298882244047 -0.0001529526466535634 0.0002874422310695188 -0.0002298526988978132
0.00012176768398814596 -0.00024665590501413896 -0.00023417077533694972 0.00013881965521666558 -8.093544998296064e-05 -4.4992312863404724e-05 0.00018358146095811151 -0.00016124800154733023
-0.00012565633622094088 0.0002736639060072121 0.00022688158540843078 7.909631353075603e-05 -0.0002861885456552887 2.2646035505309897e-05 3.146801250396119e-05 -0.0002485875456350028
-2.49504458334693e-06 -0.0001674201101313725 -2.9320118087549295e-05 -5.016269530785076e-05 0.000113684292181637 -1.2879170687645944e-05 0.0002630375104322776 -0.00011419798926821851
2.858942342015757e-05 -3.2940256825153293e-06 9.866003839914638e-05 -0.0001891377987530199 -0.0002810179606926116 -0.00025677221816799935 -0.0002076827741633321 0.0001657247681674184
0.0002789872377512824 -0.00016668024423704825 0.00010468161747726098 0.0002713072961007984 1.9961485524076165e-05 -0.00021843934986744623 -0.000275798996133024 -0.00025517745380225726
0.000254546100025118 -0.00024940968888937894 -0.00023535795649478786 -5.098545605473309e-05 8.998200485843097e-05 -0.00015749880982827508 -7.489972874643396e-07 1.071705080115754e-05
-3.92346263086052e-06 -1.51865867535139e-05 7.029718714925471e-06 0.0003734245991952407 -9.37081781529014e-05 6.69014589243791e-05 5.0912381462072436e-05 -0.00023253288184485184
0.0001943621663346222 -2.237109217855062e-05 -0.00014243542926779755 -0.000187493122678505 0.00016602413906313234 -4.8418333281029114e-05 0.00023559136108109084 0.00017189858199257702
0.00010573287158714502 0.0001918450315999545 -0.0002293384310697362 -0.0001148244246753833 -8.986201836705069e-05 -0.0001574927645492668 -0.00030552783123530004 0.0002590521935571701
-0.0002975977703767314 -0.00038369621634130446 0.00013026266992592655 -0.0004254320177651475 0.0001540106132012587 -0.00018120273719656697 -0.00016072308563089063 0.00015169996439328562
-0.00014950548165913765 -9.896829287628932e-05 3.1303522975933686e-05 -3.3283265855481374e-05 7.947244996225095e-05 -8.470126359152076e-05 -4.1683082224872636e-05 -0.00014234673794851562
9.66836036035367e-05 0.00014226342770129637 0.00013212200846715063 3.4302017156947546e-05 -4.92366113189822e-07 -0.00019652585215807378 5.298664474307203e-05 0.00020597732610677126
-0.00019928009525582225 0.00015012280623038718 3.358608587770647e-05 0.00018983068214427592 -4.999227046070897e-05 -3.6128507824504145e-05 -0.00014962368148923572 -7.913838054342528e-05
-0.00012026045622813932 -8.182990241691131e-06 -8.592667892142204e-05 -0.00022344999797925384 -0.00019086868865339802 0.00020912455827194661 -0.00010981065833901157 -1.769152710513229e-05
-2.374021396455327e-05 -1.3988907329938825e-05 4.572171267716714e-05 -5.995490608769796e-06 2.3822512100924966e-05 -0.00013660043675439842 0.00013566512844366763 0.00014774891129177458
5.65636733326837e-05 1.9569968436833115e-05 -0.00012171769909405413 -7.571049113316538e-05 -4.037252997409417e-05 -0.00015220544270775195 0.00021161730546363986 0.0001743783951868072
-0.00024330045646111275 -0.000253244352469026 -8.984129099089915e-05 5.718720076323985e-05 -0.00022451151672387942 -0.00018429648971870883 1.7760927241891858e-06 0.00030718375813116537
0.0002164097162146318 -6.128335010971686e-05 8.091831930413222e-05 -5.0469273674292674e-05 -0.00018719789798701323 0.00022123923972060768 8.526671480381135e-05 -8.583635022233397e-05
-0.00016784222982807432 -0.00011773244560284327 6.426444413159766e-05 0.00010368098348857894 9.273068775004608e-05 -0.00012614005716618662 5.6475551305231986e-05 -0.00026548957515892536
0.00014325930897565687 2.8654625961942226e-05 -0.00012437890578741878 -0.000162140210272194 0.00021984885579448085 0.00033854250983742163 0.00014239264566918077 -0.0001659663334304294
-0.0001551867989321485 0.00017184106214385606 -0.0002346371270751276 0.00020023612041682602 0.0001758671342674919 -6.149436402698341e-05 9.914703744085481e-05 -0.00024180725727679738
0.0002548637815982706 -2.177012721267668e-05 8.209918910148175e-05 0.00013922232826787256 9.30994949245101e-05 0.00015976818126759682 0.00014097859441908269 4.103082533393865e-05
-0.00021373266766144485 -0.00025324154085112926 -0.00023467983996373415 4.5137077029024244e-05 8.494845258552022e-05 0.00014840016505728148 -0.00014919206702266864 -0.000201194119110796
-0.00011591745809646536 0.00019027603916095306 -0.00010901351819426371 -0.00016987644214264984 -8.390700390168268e-05 4.004908915233178e-05 -6.727384147104167e-05 -0.00034650791171395186
-0.0003409058375171245 0.0002282512443637319 1.769273457557401e-05 4.074299051590039e-05 3.0601704139921176e-05 -9.071032207273798e-05 0.00025208869228793035 0.00031485883978178757
-0.00012968332735744913 7.146589690402579e-05 3.4448138603300406e-05 -0.00012173554286128468 -0.000167317452756795 0.00021942915411294586 -0.00023258080589440614 0.00020220897842685402
-0.0001338674405845432 0.0002623933669634984 2.598285729664879e-05 4.247907785856061e-05 -2.5081279529573844e-05 0.00028731853947843746 1.7107730762051407e-05 -0.00026301285062540596
-0.0001736539226777341 -5.044406735196046e-05 -1.2926464571450902e-06 -0.00012997393369912775 -6.65279492559e-06 -0.00013251580268917483 5.88535420430288e-05 -0.0002948476447674476
0.00021387706036631466 0.0003436114261687709 0.0 -0.0 -0.0 0.0 0.0 6.081804964177684e-05
00000000: 5b0c f316 e55c 1cbf 2b28 4eef c70f 26bf
00000010: 26ae 1f58 84fb 1dbf e8aa 28c9 1ab7 153f
00000020: bce0 2b75 81e2 1cbf d132 51b0 2ec5 1f3f
00000030: c39d 3795 ebb6 20bf 3467 d43b d7c4 183f
00000040: b69a c21f d300 203f 7a48 9d07 b6fb fd3e
00000050: b3f2 8e45 81b3 e03e 5cc6 bec0 b822 183f
00000060: 6a95 067a 9769 003f a5df c09b 1e95 06bf
00000070: a2fc 92f3 37ba 173f 1986 f8f6 c4b5 25bf
00000080: e656 7589 4f05 31bf 9aaa 91ca 7074 063f
00000090: 7e3d 51d4 515e 17bf 37cb 3db9 a4b0 0f3f
000000a0: 9bbf ed14 d99b 303f 374a fd3a 3d0c 24bf
000000b0: a9f3 5ffb 7ad6 323f 6b49 3aa6 9320 2ebf
000000c0: 14b2 bae1 b0eb 1f3f 8a66 9f0b 332a 30bf
000000d0: 8091 bca4 77b1 2ebf 3a2f 26c2 0332 223f
000000e0: cc14 6c71 7c37 15bf 4915 3b19 c496 07bf
000000f0: a262 efbd f80f 283f 6559 50c9 9522 25bf
00000100: e0ab 8eb5 5378 20bf 5ced c186 51ef 313f
00000110: 5cd4 91fa e1bc 2d3f 8adf c351 10bc 143f
00000120: cc2d af71 72c1 32bf f721 c7b5 ffbe f73e
00000130: 0177 35ad 907f 003f eb2b f260 9b4a 30bf
00000140: 0dac fe43 11ee c4be 403f a0cb aff1 25bf
00000150: c38b 3d2c 8fbe febe 102b 2c16 b94c 0abf
00000160: 56c6 9844 39cd 1d3f 5372 abbd 7302 ebbe
00000170: 4bf4 4281 093d 313f c3b3 4684 b2ef 1dbf
00000180: 4bc2 b537 6afa fd3e 5b99 22c5 dda1 cbbe
00000190: 49b0 aa8d f6dc 193f d738 f651 69ca 28bf
000001a0: 993a 65f3 b26a 32bf f6c7 9047 ecd3 30bf
000001b0: 1ba8 2972 ad38 2bbf 1d9b 38eb ccb8 253f
000001c0: ca9c e80f a148 323f cd7f 5165 dcd8 25bf
000001d0: 89c8 857e 1071 1b3f 3d67 c3f6 c7c7 313f
000001e0: b0fd 0fd7 5eee f43e b242 49ba 9ba1 2cbf
000001f0: 805d 2dab 2313 32bf 2a13 9ad1 2ab9 30bf
00000200: c05b c82c 93ae 303f c68c 0375 6658 30bf
00000210: 7513 b673 4dd9 2ebf 93b4 3cee 26bb 0abf
00000220: b69e 8712 9796 173f 52bd 8879 c8a4 24bf
00000230: ac3a 1774 d621 a9be 2235 153f ac79 e63e
00000240: cc61 2932 c974 d0be 504f 1897 3cd9 efbe
00000250: 243b e45d 1a7c dd3e 9baa e970 0679 383f
00000260: 63be fc3d a690 18bf 1598 0250 ae89 113f
00000270: 2691 521b 58b1 0a3f 987b db3e 827a 2ebf
00000280: dcf0 c44b b679 293f 0c31 9fbf 3175 f7be
00000290: e9d9 5f05 57ab 22bf 44ae 06a9 3993 28bf
000002a0: 5e67 c87e d8c2 253f ee2b 8543 9962 09bf
000002b0: 4710 d361 22e1 2e3f 2be9 6593 f587 263f
000002c0: 722b fee6 9cb7 1b3f f54d f345 4025 293f
000002d0: be6c 501f 520f 2ebf 9f45 5598 bc19 1ebf
000002e0: 0d27 5cb8 898e 17bf 1234 d38b 94a4 24bf
000002f0: cf69 0d0b e805 34bf 4b59 04b3 2cfa 303f
00000300: 02ef edb0 dc80 33bf b0a2 66b3 5a25 39bf
00000310: 0a56 7fd0 e312 213f 8b69 5c9a 90e1 3bbf
00000320: 4a09 0818 bd2f 243f 229f 10a9 27c0 27bf
00000330: b1a3 01cb f810 25bf ff36 91c5 34e2 233f
00000340: 0b3e 004f 9298 23bf a5c9 3153 a6f1 19bf
00000350: 3ce6 04dc 7c69 003f a435 8c4e 3473 01bf
00000360: ae0d 494b 4ed5 143f 5125 d3a0 3434 16bf
00000370: 8acb b3cc 9bda 05bf e6ca 192b 5da8 22bf
00000380: 606e 82a9 5358 193f 4000 ee89 91a5 223f
00000390: 3c83 3069 4751 213f ec0a c355 f0fb 013f
000003a0: 8387 7c88 6485 a0be a678 3637 50c2 29bf
000003b0: 8b41 1840 bfc7 0b3f 3da7 39c2 73ff 2a3f
000003c0: 4c0f d6fb ba1e 2abf 84df 1616 49ad 233f
000003d0: 0fd6 a11f d99b 013f 570e a724 a9e1 283f
000003e0: 8220 5d55 d935 0abf c8f1 9313 16f1 02bf
000003f0: 2917 2da3 899c 23bf c684 7106 e3be 14bf
00000400: 101d f0e7 8a86 1fbf 5f83 769d 3529 e1be
00000410: d6ec 701a 7186 16bf c869 02de bc49 2dbf
00000420: 6f04 1b8d 7d04 29bf de71 f246 0e69 2b3f
00000430: 6838 cabe 44c9 1cbf f049 3e7c 088d f2be
00000440: 3c75 cc14 b7e4 f8be a4dd 9cc8 3c56 edbe
00000450: bfd0 d715 aaf8 073f 603c dee8 9b25 d9be
00000460: 3bc1 ec90 cefa f83e 2f38 24d1 8ce7 21bf
00000470: 4e42 6a94 2ac8 213f 0ac1 e97b a15d 233f
00000480: f0e3 4f04 d9a7 0d3f 24c6 9ffd 4585 f43e
00000490: 1618 d725 56e8 1fbf 18d7 6155 d8d8 13bf
000004a0: d7aa 3191 b52a 05bf 94cc 22cc 2af3 23bf
000004b0: 4de6 fdcf b2bc 2b3f a418 4802 2bdb 263f
000004c0: d92a d801 cfe3 2fbf 0253 3536 bc98 30bf
000004d0: 4146 65a0 258d 17bf 28d8 9741 89fb 0d3f
000004e0: 8b41 6a3e 5b6d 2dbf c3db ceca f627 28bf
000004f0: 8457 2d9a 42cc bd3e 8fdc ed31 b021 343f
00000500: 42f2 ae4e 815d 2c3f bc88 23f0 a710 10bf
00000510: 5962 e623 5636 153f 1f9a 000a df75 0abf
00000520: 4b5b 10b3 5189 28bf bdae 2f99 8eff 2c3f
00000530: 4663 8e01 275a 163f 6309 9f44 6180 16bf
00000540: f5d7 a7c6 d9ff 25bf 7598 a003 e4dc 1ebf
00000550: 0f0f 4dbe b6d8 103f 8624 b3bb e92d 1b3f
00000560: b63a bb15 0d4f 183f 3244 2ad7 8e88 20bf
00000570: 9fe4 c22a 059c 0d3f cdc7 f00a 2d66 31bf
00000580: f003 0318 fcc6 223f daa4 f4e6 ea0b fe3e
00000590: 049f 53aa 764d 20bf 0e74 0ccd 8540 25bf
000005a0: 533b 994a e7d0 2c3f 270e 1002 cd2f 363f
000005b0: b100 3f83 e7a9 223f 8a2a daf2 e7c0 25bf
000005c0: 9c74 ce73 3457 24bf a7c0 e97b 0786 263f
000005d0: 82da 0d93 1dc1 2ebf 9bea 652d cf3e 2a3f
000005e0: 6439 242e 1f0d 273f b853 2921 d11e 10bf
000005f0: 6e61 1a22 a5fd 193f 86e8 1c86 b4b1 2fbf
00000600: 50c3 5d9b e7b3 303f a9d1 22c0 dfd3 f6be
00000610: 9936 3154 9585 153f 009b 8db1 863f 223f
00000620: ed99 d624 cd67 183f 26cd 1a3a eef0 243f
00000630: e89f a9e7 747a 223f a450 6a6c 1083 053f
00000640: 869f a8a2 ad03 2cbf 043e cd22 b098 30bf
00000650: 4e81 b079 8cc2 2ebf e440 4c28 32aa 073f
00000660: 5876 844d cb44 163f 2db6 16b6 7b73 233f
00000670: 963d ed18 0e8e 23bf 8410 ce52 f45e 2abf
00000680: 7f3e 28c4 1663 1ebf abd9 16bb 9af0 283f
00000690: 1a82 5bfb c593 1cbf 3b95 d786 1b44 26bf
000006a0: 2559 c459 e7fe 15bf 0e7c a339 4cff 043f
000006b0: f730 c5cb aba2 11bf 1ebe 0b26 70b5 36bf
000006c0: c8a8 536c 7357 36bf 5ceb 7642 d7ea 2d3f
000006d0: 5fb8 4976 5b8d f23e 30af 947e 6e5c 053f
000006e0: c0b9 408c 4a0b 003f 305c 8377 77c7 17bf
000006f0: d2c3 66b0 5885 303f 0bb9 726b 74a2 343f
00000700: 9165 b74c 73ff 20bf ceaa 8ac2 febb 123f
00000710: 28b7 9807 8d0f 023f e9f4 8eb3 88e9 1fbf
00000720: a402 acf9 3dee 25bf 2829 d714 d2c2 2c3f
00000730: 78f2 f4e8 1d7c 2ebf c0c4 0ae6 0181 2a3f
00000740: e8b2 018f d88b 21bf d214 07ee 3a32 313f
00000750: 5135 875b b83e fb3e 8d6d 5700 7245 063f
00000760: 305d b767 b44c fabe 9e3b 08bb 67d4 323f
00000770: 2621 5d4e 52f0 f13e af63 8497 9f3c 31bf
00000780: c8db 62d6 dbc2 26bf b1ab d8f4 7c72 0abf
00000790: d786 6bcf dfaf b5be 9ee8 d196 3309 21bf
000007a0: 1470 2f58 62e7 dbbe 7075 d713 7e5e 21bf
000007b0: 8c35 7f4e 30db 0e3f ed1b d8fd b852 33bf
000007c0: 9e1a 93f5 8508 2c3f be5e 82d6 d784 363f
000007d0: 0000 0000 0000 0000 0000 0000 0000 0080
000007e0: 0000 0000 0000 0080 0000 0000 0000 0000
000007f0: 0000 0000 0000 0000 a20d 1446 dce2 0f3f
