data/MBZL1TC8X/ens_bio/eval_89_bioneuron_2/ens_bio_weights.npz (npz, 600 bytes, 1 tensors)

weights f8 [10, 5]
000000 21 fd 75 90 f4 13 17 3f ef 65 03 76 aa 99 13 3f
       8.803539468792535e-05 7.476904784500087e-05
000010 86 d8 c2 75 e1 80 18 3f a4 0f 4a af fb 2f 22 bf
       9.347320650729589e-05 -0.00013875911067284558
000020 29 3e 98 dc eb b7 01 bf e4 c8 52 af 91 2d 35 3f
       -3.379524748592058e-05 0.00032315069922640564
000030 77 fc 43 92 eb 1d ac 3e eb 88 33 17 fb 75 ed 3e
       8.379481966357557e-07 1.404803399513264e-05
000040 5a ef 33 04 e0 03 43 bf bd e3 d9 97 ac 4a 35 bf
       -0.000580295928016987 -0.0003248854990043867
000050 3d 45 c9 00 73 cf 43 3f c2 7a cf 66 8b 9c 4b 3f
       0.0006045638597901648 0.0008426361724750075
000060 a3 28 73 d1 26 ec 25 bf 00 cf fd 3a 6e 4f 42 3f
       -0.00016725515226873486 0.0005587852701709195
000070 4f 91 76 f7 e3 a0 4d 3f 2d 14 78 26 49 61 45 3f
       0.0009041894071982001 0.0006524665049602079
000080 4e fd db ef 04 81 4a bf 61 ea 8a 3e 44 d9 27 3f
       -0.0008088373285487867 0.00018195112285986344
000090 14 66 41 40 53 45 46 bf 13 40 b1 57 43 5d 2c 3f
       -0.0006796509264958583 0.00021640250256149736
0000a0 49 4a ba dc 6c 09 35 3f 28 cf 9e b9 a8 86 36 bf
       0.0003209963585756632 -0.00034371966614375965
0000b0 9a 17 96 5f d6 30 40 bf 44 b5 eb db de 25 2a 3f
       -0.0004941031212843839 0.0001994928879506618
0000c0 ed 3b 2a 84 38 58 13 3f c0 35 2c 3e ff 5d f3 3e
       7.379383991178131e-05 1.8469978281967494e-05
0000d0 96 7d 3e b7 f5 03 db be 42 48 be ca aa 4b 02 3f
       -6.440989512329108e-06 3.489603963581545e-05
0000e0 16 b2 4e 47 aa 04 19 3f ce 5b 87 82 7a aa 12 bf
       9.543694780118241e-05 -7.120487919763595e-05
0000f0 75 0c 9d 5e ba a3 31 bf 0e f2 6f f3 94 9c 44 bf
       -0.0002691583637110592 -0.0006290175723502893
000100 5f 62 68 c3 d7 01 32 bf b3 f8 45 66 26 19 00 bf
       -0.0002747680440804752 -3.070496021261148e-05
000110 4a 3f db be 0f 2d 33 bf fa 68 2f 27 7b ec 47 bf
       -0.00029260286724496333 -0.0007300950368247787
000120 15 04 b3 7c ec 18 45 3f 83 e3 1e ad 80 f2 30 bf
       0.0006438402864646942 -0.0002585949088103544
000130 82 bf cb 07 a3 fd 45 bf bd d5 27 2e 7f 1a 2a 3f
       -0.0006711050078518218 0.00019915392392959126
000140 ca e9 3d 00 a1 b4 3d bf 3c dc de 42 e9 fc 22 bf
       -0.0004532712048256586 -0.00014486644198338945
000150 05 f5 d5 68 91 8b 3d 3f a3 b9 9f 35 42 c1 3d bf
       0.00045082378422718644 -0.00045402399484730844
000160 4a c7 e3 9c 9e ae d5 be bb fe 8d 70 fa 4f 27 bf
       -5.169417319305007e-06 -0.00017785961270177182
000170 2e 53 40 94 46 4b 36 bf d2 88 80 22 c0 cd 4d bf
       -0.00034018014071195396 -0.0009095371397090052
000180 53 dc e7 7e d2 ca 50 bf a5 20 52 5d f1 c7 50 3f
       -0.0010249190923994525 0.0010242325854808245
