data/MBZL1TC8X/ens_bio/eval_89_bioneuron_2/pre_weights.npz (npz, 4200 bytes, 1 tensors)

weights f8 [100, 5]
1.1162718832894824e-05 -4.026871722845675e-06 2.8069946106031456e-06 -1.6812188148054907e-05 1.5529593306416868e-05 -3.2301880100955474e-06 -8.344901792584463e-06 1.6784564071046976e-05
1.8154697707759974e-05 -2.492520653751476e-05 -1.5480629569120033e-05 2.8038488756402546e-05 2.670824206779098e-05 8.783511707145195e-06 1.5208498097215938e-05 2.4007846682945376e-05
-2.241715377044205e-05 -9.37442283437426e-06 -2.5118685026023698e-05 1.9689229286545097e-05 -1.4725992446900898e-05 1.4808306197999852e-05 -7.765315516415719e-07 4.3113047185616225e-07
-2.1032976791273976e-05 -1.5338668755956805e-05 2.3277159164217797e-05 1.501505922074261e-05 -5.240216762542345e-06 2.5602143453529214e-05 2.0569915250268026e-05 -1.7510144676295504e-05
2.299698580446242e-05 2.8189520069588642e-05 -3.081056360509618e-06 2.2614296206497587e-05 -5.876140761389438e-06 2.5092057315756202e-05 -2.1562958388056356e-05 -9.040893245304856e-06
-1.1642606812395753e-05 2.463372202422934e-05 1.742629718847875e-06 -1.4636605283385193e-05 2.1697277622649478e-05 2.6235600918068634e-05 2.5069609323555536e-05 -2.1794123689800754e-05
-7.077145806980252e-06 1.6289495491304283e-05 8.245358659619577e-06 9.722914598503495e-06 5.2960716826348e-06 2.0730239795586697e-05 -7.399812632101022e-06 -1.9399922467810158e-05
6.376758752999047e-06 -1.6218528621408392e-05 -1.3355641546183609e-05 -1.1606562564937899e-05 -1.1591049116857032e-05 -1.4273225792137922e-05 -2.6358393475402472e-05 -2.7810390681508194e-05
3.073688876548297e-05 2.3485701772963552e-05 1.0653009846888804e-06 9.739654064673493e-06 1.416144864118497e-05 -1.0314094209270164e-05 2.0084657530594303e-05 2.917595611517148e-05
-1.1096425527663551e-05 -1.1271262373847445e-05 -2.3487565487415856e-05 -2.9490715114809417e-05 1.5129803734438059e-05 2.943319371894695e-06 8.188714713180998e-06 4.330542480511297e-06
1.929790304604646e-05 3.2136128089341553e-06 -6.412482931969588e-06 1.967263205754214e-05 8.502770614429418e-06 -3.2494576934920873e-06 1.389358414950811e-05 -1.6355706932479252e-05
1.2076724103685935e-05 2.369671080034587e-05 1.975897394170051e-05 9.495812328660955e-06 -1.8510206776621694e-05 -1.1343390015914854e-05 -4.707772188180367e-06 3.4355748664513954e-05
-5.881725357496935e-06 3.181105988931693e-05 -1.5387256442624358e-06 3.827715440266892e-06 7.245937022250481e-06 2.4611994387030107e-05 -2.3405058599115795e-05 2.3024002763203405e-05
-1.3982459046773447e-05 3.6174558526691353e-06 2.979570779381779e-06 2.125716870930719e-06 4.5467638896990775e-06 -2.08941733739028e-06 2.8587191687392016e-05 -1.41413507057173e-05
-2.0287274993249665e-05 1.9827689395328108e-05 6.325972380558414e-06 3.2763586754429696e-06 1.8191016382221472e-05 -2.1088725730682816e-05 2.4857862134557622e-05 4.047413267534262e-06
-1.4050580851385947e-05 -6.6821742616336805e-06 -1.7317478166336564e-05 1.3331823397634877e-05 -1.9425170022946258e-05 2.6156623351318806e-05 6.510434071698398e-06 2.130198702011889e-05
8.599657412455667e-06 -2.057968837423171e-05 1.1141833268988358e-05 -7.347510035550406e-06 1.6001832636872344e-05 -7.425463865964962e-07 6.788497796118266e-06 -5.178156561064627e-06
1.2113623030702014e-06 4.874208954822258e-06 -6.31903744763196e-06 2.3371454872659132e-05 3.225830443725276e-06 5.155942743103334e-06 9.576379464917345e-06 -3.489339439048235e-06
-9.694754593810689e-06 -1.3631837396778794e-05 2.5068223419754947e-05 -1.2965391209342038e-05 1.2431958949136048e-05 1.732182276337294e-05 1.89321057738087e-05 1.4842093880891733e-05
4.317494278987459e-06 1.541320903640561e-06 1.8450569746223739e-06 -1.6837546617851854e-05 2.2198729014896542e-05 9.185349131741927e-06 -1.6573374214211134e-05 1.784251215333149e-05
2.1520254802954114e-05 -1.9528063584850523e-05 1.9320745480514082e-06 -1.2741386181634684e-05 1.8582668625349795e-05 1.2335112213367492e-05 -1.7850268671186942e-05 -2.1925068726055397e-06
-2.037263613638949e-06 6.767316892665805e-06 -1.0619512078381222e-05 1.934390923912389e-05 -1.4267089499528534e-05 1.4031064779606257e-05 -2.3198563525650755e-05 -2.2049064788009615e-05
-6.912421119064115e-06 -1.8910144082435006e-05 1.1345412856171634e-05 2.391574610436301e-06 -2.169782228546751e-05 2.7420719306345517e-05 3.043164608139861e-05 -1.7779596619892976e-05
5.88443701499682e-06 2.1655693478230622e-05 -1.5082570280911919e-05 -1.947984492449306e-05 2.170551473728408e-05 2.0837540326695107e-05 2.5804936597311394e-05 2.433146789063998e-05
-2.242338892642322e-05 -1.91044119028229e-05 3.435526733533849e-06 -1.0222488849252353e-05 8.13463231858902e-06 -1.0060526456001101e-05 1.0822609314392352e-05 -1.4004868762295242e-05
-5.821743814549562e-06 -6.28645850042555e-07 -3.998361529227568e-06 -2.1388035498786693e-05 5.856121066582838e-06 -1.1741694541534435e-05 -1.9578149144308147e-06 2.0915671170495126e-05
1.4824808314586191e-05 -1.6100436998491425e-05 0.0 0.0 0.0 -0.0 0.0 -1.2045505201308598e-05
7.399988922392325e-06 -1.6024316022729108e-05 7.825014652500832e-06 1.9782478395367003e-05 -7.175756480149468e-06 -3.0073766211067424e-05 -8.115183904941293e-06 -5.91187602032347e-06
4.533332948332255e-06 -8.577558307649542e-06 1.8425855306153363e-05 7.434673103340169e-06 -2.340683781604504e-05 1.912693652858674e-05 -2.275490643275247e-06 -1.9663251229561895e-05
-3.717740902447414e-06 1.4414898589525307e-05 -1.5734839499862383e-05 2.8905274663466638e-05 -3.1342906172781315e-05 3.3272615559974e-05 -1.687152151510502e-05 -2.7641234114846624e-05
4.845892147309322e-07 -2.2293806082216257e-05 1.9627574022535285e-05 2.678917803891482e-06 7.65828759981854e-06 8.141913102400786e-06 3.3750410461054953e-06 -2.1678346636264693e-05
1.3197982758557226e-05 -1.8517539448325496e-05 -2.6740111130820656e-05 2.9200377886824166e-05 -1.903457934806373e-06 1.4150856808143716e-05 2.4854369835261262e-05 2.925989774155306e-05
00000000: 9388 f064 f068 e73e 02e8 1912 d2e3 d0be
00000010: 1dbf 529b f98b c73e dddc b6c5 fca0 f1be
00000020: 8efe a386 b148 f03e d8d2 74a3 c618 cbbe
00000030: b50d b791 2280 e1be 81f1 cf75 9299 f13e
00000040: 1bb1 a753 5d09 f33e f07b 9a26 cf22 fabe
00000050: 1df3 76c3 8c3b f0be c95d 9b46 8666 fd3e
00000060: 7639 606b 7001 fc3e 639b 26a8 9c6b e23e
00000070: 23f9 f60f 00e5 ef3e e247 5fa9 8e2c f93e
00000080: 1a45 b713 8f81 f7be 1c67 1fdd daa8 e3be
00000090: b83c 2be4 be56 fabe c518 ae88 49a5 f43e
000000a0: 180c a1fd f4e1 eebe c699 461b 260e ef3e
000000b0: 4ca9 d3f0 5a0e aabe 0e91 19de c3ee 9c3e
000000c0: 7cac c728 ff0d f6be c1af 6d4a 7115 f0be
000000d0: 0a37 9a32 6a68 f83e f6f6 8e06 267d ef3e
000000e0: 5d81 ccd0 a3fa d5be 3d33 c5e6 85d8 fa3e
000000f0: 5726 00d0 b191 f53e 2f5e cffa 575c f2be
00000100: 1d9f bbd4 341d f83e 0c27 9111 118f fd3e
00000110: f5c9 a8a5 84d8 c9be 1cd4 209a 7ab6 f73e
00000120: f07a fd45 75a5 d8be e232 890c 994f fa3e
00000130: c474 a137 439c f6be 824d f5e7 caf5 e2be
00000140: 7ada 2bb2 936a e8be 5111 d17c 90d4 f93e
00000150: 2e2b 87a3 893c bd3e f771 68b6 f7b1 eebe
00000160: 8251 9890 51c0 f63e 7774 56c4 9082 fb3e
00000170: 7de3 476f 9249 fa3e d040 a0c6 50da f6be
00000180: d7a6 cc06 07af ddbe fcb0 409b ad14 f13e
00000190: 65ff 1577 b14a e13e 0e8d 0535 f363 e43e
000001a0: 1ec4 6119 9d36 d63e 8db4 3a3b bbbc f53e
000001b0: a72a 1202 7d09 dfbe dd0b 4d85 a057 f4be
000001c0: 2c5a 5f19 febe da3e 60df dfcc a001 f1be
000001d0: 725f a565 4102 ecbe 6a03 f5cf 3957 e8be
000001e0: 5905 07a9 e54e e8be d1b1 2d37 e1ee edbe
000001f0: 51e8 d901 87a3 fbbe aa44 d67e 4b29 fdbe
00000200: f560 cb74 6f1d 003f d540 f922 65a0 f83e
00000210: 8eea dad1 6edf b13e 1dc3 a0dc ef6c e43e
00000220: 21ef 4eae deb2 ed3e 0d11 6b50 56a1 e5be
00000230: 06a6 ea27 6f0f f53e d776 0070 dc97 fe3e
00000240: 600f 9f1c 5945 e7be 7ab5 4581 36a3 e7be
00000250: 57f7 c835 e5a0 f8be f5f1 e182 5aec febe
00000260: 3d35 3964 c0ba ef3e 7efa d3ef bab0 c83e
00000270: b9d9 6561 482c e13e cf2b f673 e229 d23e
00000280: f134 a7cc 3d3c f43e 9ea1 4653 2ef5 ca3e
00000290: 69c0 fbe2 59e5 dabe 60be 23fb d4a0 f43e
000002a0: b385 15e5 e3d4 e13e 8989 4c42 2842 cbbe
000002b0: 7621 5daa 0f23 ed3e 9e7e 3e9f 7326 f1be
000002c0: ba6e 7a52 a453 e93e 1558 0a91 09d9 f83e
000002d0: d510 a159 02b8 f43e 12e0 4182 06ea e33e
000002e0: 8abe 55b9 cb68 f3be ae95 11a7 efc9 e7be
000002f0: b5bc c190 eebe d3be 0dc5 1989 2603 023f
00000300: 7246 015b 74ab d8be e6e4 ebb1 9bad 003f
00000310: 0003 e2bc c6d0 b9be 76dd 9968 fa0d d03e
00000320: ed6d a500 4464 de3e 0646 2e60 bbce f93e
00000330: 0190 4161 bf8a f8be acf0 186c 7524 f83e
00000340: 538b d189 c652 edbe 27e1 f062 6d58 ce3e
00000350: 7efb dd5b 94fe c83e d48c 5e35 f1d4 c13e
00000360: c38f fdf0 0c12 d33e 12bd 3054 fd86 c1be
00000370: 5ae8 a6da d0f9 fd3e 6091 1171 14a8 edbe
00000380: 44f6 03ec d245 f5be e86a ac70 74ca f43e
00000390: 0f5b 1f0c 7688 da3e 3ddb ee3a ed7b cb3e
000003a0: 9576 8820 1d13 f33e f66b 7e32 f61c f6be
000003b0: be6b 5647 bb10 fa3e 44ed cd7c e0f9 d03e
000003c0: 1448 bd20 5977 edbe 66df 2a13 ee06 dcbe
000003d0: f9e8 b809 a028 f2be f083 0bdb 77f5 eb3e
000003e0: 05f3 fc84 675e f4be 1145 4a78 5d6d fb3e
000003f0: cb48 ad7d 864e db3e ff0e c666 3556 f63e
00000400: a07f 3cea e708 e23e 4297 9d6a 5194 f5be
00000410: 5de1 7ce7 b95d e73e bad2 082e 54d1 debe
00000420: d0a9 cc90 75c7 f03e b766 bfc5 6cea a8be
00000430: be03 c410 1879 dc3e c981 5bd6 00b8 d5be
00000440: 647b 0bf0 c252 b43e 61a7 025b a471 d43e
00000450: 66fb 99c9 0381 dabe 319d 3f26 ba81 f83e
00000460: 8b92 820a 6b0f cb3e cd55 e2bf 26a0 d53e
00000470: 3c85 5b92 4715 e43e 05bc aba4 4c45 cdbe
00000480: b944 f0ec d454 e4be 2f04 3977 8996 ecbe
00000490: 790c 3432 3349 fa3e 0536 96cc bd30 ebbe
000004a0: faa0 756d 5b12 ea3e 1081 ae98 ca29 f23e
000004b0: 8043 fc66 0cda f33e 8cc3 aed9 4920 ef3e
000004c0: b316 68ca df1b d23e 2bb4 7441 ecdb b93e
000004d0: c02f f698 75f4 be3e b0fd a164 cba7 f1be
000004e0: 3196 c70a ed46 f73e 32f6 9dc5 5843 e33e
000004f0: 9f64 8f9a e160 f1be e518 4d19 90b5 f23e
00000500: 9580 37a6 cc90 f63e 0b00 ac4f 067a f4be
00000510: 3040 3537 1935 c03e 4c96 57c8 7ab8 eabe
00000520: bcac a843 3f7c f33e e363 dfe9 5cde e93e
00000530: 5005 681f a5b7 f2be dac9 7366 5f64 c2be
00000540: 32eb 1984 fd16 c1be 5e6e 30e7 5962 dc3e
00000550: ba1b 5ea0 4e45 e6be 0135 2952 9748 f43e
00000560: f879 93d9 95eb edbe 9117 02dc de6c ed3e
00000570: caa6 8125 5153 f8be e525 db31 c01e f7be
00000580: 2d2e 60d9 27fe dcbe 3b2d d334 27d4 f3be
00000590: 88d6 6eab 05cb e73e 081e e30b de0f c43e
000005a0: 2d95 67fe 76c0 f6be e449 827b b1c0 fc3e
000005b0: 2575 80cb eee8 ff3e d225 8893 aca4 f2be
000005c0: 6e19 f0ba 5dae d83e 5502 97ec 27b5 f63e
000005d0: f8ce d1ac 64a1 efbe 972e 07c0 146d f4be
000005e0: a7b7 729d 87c2 f63e 2c9f 22de 88d9 f53e
000005f0: 8bf8 7bbd f50e fb3e d5a9 ddbd 6d83 f93e
00000600: 5f6c bd8d 3b83 f7be 89af 7630 4d08 f4be
00000610: 22b7 a7cb bcd1 cc3e 7a95 582b 2870 e5be
00000620: 4696 4d5a 3f0f e13e 8fcb 3c3a 3419 e5be
00000630: 9df2 1619 58b2 e63e b97d 9681 ce5e edbe
00000640: 5868 27c1 0c6b d8be 36fd ffd7 0618 a5be
00000650: ba7c 943f 35c5 d0be cf85 9e9b 4e6d f6be
00000660: 2832 354d f68f d83e c4e7 b335 c69f e8be
00000670: 67ba b821 606c c0be 4ba5 79fa 81ee f53e
00000680: 9dd1 e223 0217 ef3e 7be8 129b ede1 f0be
00000690: 0000 0000 0000 0000 0000 0000 0000 0000
000006a0: 0000 0000 0000 0000 0000 0000 0000 0080
000006b0: 0000 0000 0000 0000 9f34 00a1 e142 e9be
000006c0: 3dba 6577 ad09 df3e 73d4 b49c 7ecd f0be
000006d0: c457 22d3 0569 e03e f8d6 5990 51be f43e
000006e0: 0769 08ec e818 debe 69ca 3d7a dd88 ffbe
000006f0: 5eac 1462 ce04 e1be e5c1 481b d4cb d8be
00000700: 126c 8312 a103 d33e 8a28 1ca3 0afd e1be
00000710: 64c6 9222 2752 f33e 044c a761 eb2e df3e
00000720: 1743 92a5 398b f8be e3e1 de11 590e f43e
00000730: 991d e935 9416 c3be ef58 de55 509e f4be
00000740: b860 f7ac c92f cfbe 44bd 9893 f03a ee3e
00000750: 9650 dcef c97f f0be 216e 8b59 334f fe3e
00000760: 2239 480e c66e 00bf 35c5 8e5d c671 013f
00000770: ac99 5821 eab0 f1be 14af 0b25 e3fb fcbe
00000780: c77a dcf3 9642 a03e 0b8a 3cb0 7260 f7be
00000790: a513 ce9d bc94 f43e 1ae5 3aa3 ee78 c63e
000007a0: 80ad 7908 830f e03e 3b1c 1c04 2813 e13e
000007b0: 84ce ec6f d84f cc3e 1217 29a3 3cbb f6be
000007c0: 0bf6 32f0 9cad eb3e 134c 0f9f c36a f3be
000007d0: 0c9c dc71 fe09 fcbe d22d 5ab0 6a9e fe3e
000007e0: e28c de21 4aef bfbe 3242 50f3 2ead ed3e
000007f0: 729c 284a cb0f fa3e d6c1 b5dc 64ae fe3e
