data/4SLQ6LX6K/ens_bio/bioneuron_42/pre_weights.npz (npz, 4200 bytes, 1 tensors)

weights f8 [100, 5]
000000 e1 31 39 a1 3c cf f4 be 6d ed f1 87 cb ea be be
       -1.984550369931056e-05 -1.8428068242749485e-06
000010 cf cf fe d0 c9 84 cc be f5 57 12 eb e7 e9 e6 be
       -3.3996944992179465e-06 -1.0926101227586702e-05
000020 da a3 0a d4 1b 34 f1 be ab 3d ba 79 76 08 f5 3e
       -1.64065834293048e-05 2.005868701232336e-05
000030 4d 8f 46 9d 41 2e ee 3e fb 4a 71 0f 2b f7 ec 3e
       1.4391273830245384e-05 1.3811827086628636e-05
000040 a4 8f 45 13 88 0d a5 3e 21 e0 8f fd b7 7f d3 3e
       6.274240491985293e-07 4.648900323360489e-06
000050 94 02 f3 1f c6 57 d8 be 6c 38 8d 5b 55 39 64 be
       -5.803791736259116e-06 -3.767005857820329e-08
000060 17 00 ca 60 da 03 f0 be ce bc 1a db e8 ae ca be
       -1.527314275273647e-05 -3.1808901546841883e-06
000070 9a 49 d9 cd 2e cd fa be de dd 94 1b 86 83 c9 be
       -2.5559897826996082e-05 -3.041477807965339e-06
000080 b9 f6 4f 3a c0 15 fa be 47 8b e0 b2 d2 83 ce be
       -2.4876560605227862e-05 -3.637663573933915e-06
000090 38 87 0a 15 47 ea f3 be 05 28 11 55 d5 6a e7 be
       -1.8992564323589578e-05 -1.1166247221212214e-05
0000a0 aa 90 69 38 a9 9a d7 be 9c d4 a3 79 e5 fd ed be
       -5.627666615913024e-06 -1.4301196462155386e-05
0000b0 6f c9 3f c0 9f db dc be 54 d0 3c 7a 28 83 fb be
       -6.880261029339854e-06 -2.623780859707687e-05
0000c0 71 b5 40 42 fd f7 e9 be b9 b6 0b cd 23 5f f5 be
       -1.2382845007231497e-05 -2.038158419541997e-05
0000d0 bd 0f c6 1b fc 5e ee be e3 07 8c 45 4d ea f9 be
       -1.448203772081563e-05 -2.471470029075791e-05
0000e0 7f ca 6e 8f ea 3f ee be 5a 63 6b b7 d0 e7 f1 be
       -1.442416804118174e-05 -1.707604266240905e-05
0000f0 d6 34 62 97 b4 37 f2 be e9 ec 1d ee ed a4 d8 be
       -1.737365661163146e-05 -5.8756483854963365e-06
000100 ee 96 70 6e c5 e0 fe be 09 7b 03 27 b4 5c c2 be
       -2.9447567524118938e-05 -2.188935745647286e-06
000110 03 b6 bb aa 5a 52 bb be f9 cc d9 61 66 7f fe 3e
       -1.6284999828046623e-06 2.908483121761855e-05
000120 96 94 17 8c 46 94 f4 3e f9 77 c1 df d0 54 fc 3e
       1.9625855889677893e-05 2.7018844761854375e-05
000130 95 b4 c1 d2 fb d4 f8 3e 7e 15 f3 3e 48 52 00 3f
       2.3681609647875445e-05 3.113062836627554e-05
000140 cb d6 11 29 da df da be b3 2f 65 3a 98 cb f6 be
       -6.407361653795131e-06 -2.1739284102026152e-05
000150 ef 4f e4 07 b5 cb f9 be 65 ec b4 bb 7e e4 f8 be
       -2.4600726185999786e-05 -2.3739393993010486e-05
000160 0b cc ab 22 8d 37 00 bf 05 d4 a1 19 16 40 60 3e
       -3.0931467639570906e-05 3.026861179834988e-08
000170 69 5a 6a 12 94 7f f9 3e ce 82 e5 20 79 21 fa 3e
       2.4317124508311397e-05 2.492022945810545e-05
000180 96 2e 17 7b 5f f2 dc 3e 19 f3 0d 51 ae 4e f4 3e
       6.901447635109358e-06 1.9366595612069126e-05
000190 e0 49 96 07 20 8f f4 be 5d 7e 63 39 55 25 f6 be
       -1.960666893336706e-05 -2.1119910876941896e-05
0001a0 83 bf 45 14 83 31 f0 be ec e1 7a 64 29 c6 61 be
       -1.5443235740375115e-05 -3.310678359014327e-08
0001b0 0f 4c b0 7d be c9 ef be 74 dd d5 d9 ef 0b 69 3e
       -1.5157729583525581e-05 4.6652981237672626e-08
0001c0 77 35 b1 60 8a 2d c1 3e 9f c6 1c fb 0e eb f3 3e
       2.0477643878693787e-06 1.8995473232758156e-05
0001d0 fe 5d 11 a7 e5 1b fc 3e ff 34 6f 0d e2 fe f8 3e
       2.6806805582728e-05 2.38376968260583e-05
0001e0 42 d5 6f 05 0e cf e2 3e 3b 9b 90 65 3d 59 cd 3e
       8.968738411478165e-06 3.4986249315584575e-06
0001f0 e2 a4 f6 3e eb 77 f1 3e 8a a0 c5 92 a3 d7 d4 3e
       1.665919620355984e-05 4.96920101187443e-06
000200 31 32 b3 22 45 96 fb 3e fd 6e f2 e6 89 f3 eb 3e
       2.6309006142354554e-05 1.332822941284934e-05
000210 a0 95 a0 55 fd 76 f3 3e 41 ff 42 af 4a 52 f9 3e
       1.856308276883755e-05 2.4148418518831668e-05
000220 b0 4a 7c 93 8f 24 db 3e ba f0 72 5b 15 de f0 3e
       6.47135157529298e-06 1.608611429725134e-05
000230 90 20 ed 0b 73 75 f9 be 8f 2c 5b 67 03 6e fb be
       -2.427939102325798e-05 -2.6159038006662096e-05
000240 b6 96 56 63 bc 1a f0 be 3a 79 00 27 38 d7 fe be
       -1.5358388017047967e-05 -2.9411984030608083e-05
000250 9c 28 3f 1d bb d0 f6 be 01 78 01 46 d4 8d fc be
       -2.1758418213648463e-05 -2.7231235776851995e-05
000260 9f 76 15 65 c4 23 f3 be de a8 89 03 d2 3f ee be
       -1.8253055093500806e-05 -1.4423989442142697e-05
000270 e5 95 81 51 cf c2 fc be 3d 4b 77 83 a1 c0 d2 be
       -2.7428604056819578e-05 -4.470935940986348e-06
000280 eb 90 35 fc 35 67 e9 be c2 90 c7 e2 81 97 e4 be
       -1.2113174199420272e-05 -9.818947625591152e-06
000290 ed 20 d7 89 ec 1e de be 87 1b 08 78 65 69 f1 be
       -7.181357572112946e-06 -1.6605095426693312e-05
0002a0 56 5f 60 14 ab 6a da be 2b 37 d1 0d d4 12 e9 3e
       -6.298225633492716e-06 1.1955999463488298e-05
0002b0 02 2e 77 37 24 22 ee 3e 12 19 2b ff 52 11 e5 3e
       1.4368708192067339e-05 1.004584917064765e-05
0002c0 49 4e 4a 6f 64 46 d6 3e dc bf 0f 24 4c a9 d9 3e
       5.310766699867842e-06 6.118134991503457e-06
0002d0 56 e4 90 4c ec a1 e0 be 4a b8 63 6f 8f 86 df be
       -7.930999702409285e-06 -7.516294991056764e-06
0002e0 44 d5 fe f4 bd 1d c7 be dd b2 13 d0 fa b3 ee be
       -2.755663366794477e-06 -1.4640353131112192e-05
0002f0 e4 c8 83 96 b9 94 f4 be b5 e5 84 05 08 c1 eb be
       -1.962752995238953e-05 -1.3234152149809974e-05
000300 3d 40 a5 99 35 b1 dc be d0 6d 01 1f 9c 68 fa be
       -6.840759306861506e-06 -2.518523427884144e-05
000310 ca a8 c9 f0 fa 95 c0 be 76 94 f7 47 3f 58 fd be
       -1.9771886228719763e-06 -2.798530158356181e-05
000320 65 26 5b 46 37 42 a9 be 53 55 86 1a 5f 29 f3 be
       -7.527666070147181e-07 -1.8273932853659258e-05
000330 f6 23 cb f2 d2 e6 eb be a8 47 3d c3 4c 8c e5 be
       -1.3304546507513279e-05 -1.0274909164973412e-05
000340 ad 7a ec a3 27 d8 ed be 51 62 76 a7 56 a9 de be
       -1.4230897361464568e-05 -7.310266134118673e-06
000350 02 c1 dd 4d 6c c8 b0 be 6f 74 05 17 fc d3 d8 be
       -1.0003389472012227e-06 -5.919472059493215e-06
000360 dd c2 0f ce c5 75 ce be d2 22 68 d6 38 9d cd be
       -3.631120862206438e-06 -3.5302816059383795e-06
000370 a7 4c 55 87 68 5c e1 be 5c 4a 20 4c 84 4c f4 be
       -8.27835558917516e-06 -1.9358533570888007e-05
000380 92 de 73 42 0a 0c f6 be 5a 4d 5f df bb 11 cb be
       -2.102568774106515e-05 -3.2269087979292553e-06
000390 08 cd 44 64 a4 c2 f5 be b0 fd 43 33 44 53 e6 3e
       -2.075225917614907e-05 1.0645513250028379e-05
0003a0 d9 94 d1 4e 27 cf d8 3e d8 ab 66 58 55 cf e2 3e
       5.914972672637155e-06 8.969257362453494e-06
0003b0 09 35 df bd 19 81 ed 3e f1 2f 8d e3 98 39 68 3e
       1.406874610756583e-05 4.512255852867772e-08
0003c0 bc 86 5d 7d 89 d8 c9 be 36 ee 1c 83 61 af db be
       -3.081065169150585e-06 -6.600637833472118e-06
0003d0 5b e5 67 ab dd fb f1 be 8f c5 d0 96 b7 07 e8 be
       -1.7150736960379813e-05 -1.1458466099597743e-05
0003e0 f2 5e db ed 28 71 cf be 9b 65 de 11 98 2a 7c be
       -3.748182151191184e-06 -1.0492795296384869e-07
0003f0 be 1b ce b2 f9 7c fc be 28 2d b3 02 56 e7 ed be
       -2.716845044716995e-05 -1.425917442645379e-05
000400 07 6e 5e cd af f2 f8 be 11 41 fa 3e 7f 6e ff be
       -2.379226210501124e-05 -2.997553741451812e-05
000410 fa 52 46 d5 8e 4e f8 3e 1f ce ac e3 d6 29 c5 3e
       2.3180834732255768e-05 2.5228780748066992e-06
000420 76 06 c8 27 ec 21 e2 3e 8e 9b e0 b9 3b e5 e4 3e
       8.646254394231749e-06 9.963723467688327e-06
000430 19 00 f1 d4 c9 a8 fb 3e 63 20 b9 79 f0 78 dc 3e
       2.6377992352388886e-05 6.788353768501316e-06
000440 44 cd 08 fd 4d 23 d9 3e 32 a1 64 a2 52 83 e0 3e
       5.993344487853592e-06 7.874002289812684e-06
000450 0b 9d 5d d0 04 87 d3 3e ea cb 15 6e d6 e6 e8 3e
       4.6556990634723766e-06 1.1874060364935495e-05
000460 72 73 1e 51 17 f6 d0 be 16 03 45 4e 27 c1 e3 be
       -4.0438874452625705e-06 -9.419682506563116e-06
000470 c8 e8 24 61 5f c2 96 be 4f 65 a5 24 cf 58 e3 be
       -3.391395192623898e-07 -9.22532594376199e-06
000480 ce 33 fd 9f fb 81 d3 be d9 55 f3 6f 2b fc ce be
       -4.651009021317119e-06 -3.6937043429256895e-06
000490 59 8a 4a 14 2a 78 fd be f2 a9 36 ba 19 4b fe be
       -2.8104202345455947e-05 -2.8890000647466574e-05
0004a0 ff ba 0f 31 ff 28 f2 be 89 d6 3c bb 23 8a 02 bf
       -1.7318862834454597e-05 -3.536149543352264e-05
0004b0 81 0d ab 19 11 08 d1 be ab 65 6e e8 10 f8 f0 be
       -4.06062863572991e-06 -1.6182907099348474e-05
0004c0 20 fd f1 1e 79 1b cb be 54 dc c6 e2 70 45 ba be
       -3.23144399022559e-06 -1.5658887476519092e-06
0004d0 8a f7 d1 7c 5f 4c f0 be 1b e1 ad 2a 91 17 2b 3e
       -1.5543300652335767e-05 3.153930746285894e-09
0004e0 41 cb 38 17 fc 2d ce 3e 75 60 6b c2 91 9d b4 3e
       3.5976919947831576e-06 1.228779874009833e-06
0004f0 67 9f b8 05 eb cf ef 3e 99 20 a7 08 41 b9 db 3e
       1.5169229462832797e-05 6.6098329036327805e-06
000500 cc 20 9e 28 0f 04 f5 be 29 42 69 c1 bd 24 db be
       -2.0042282393301772e-05 -6.471519574960862e-06
000510 87 ad 71 31 df f5 9c be 4f 9e d1 08 a1 7e de be
       -4.3154413859629954e-07 -7.270489857359363e-06
000520 da 65 1a 49 b8 5a c4 be 22 33 3b 48 20 10 d5 3e
       -2.426430520352459e-06 5.021808764116272e-06
000530 14 08 19 5e 9d d4 e4 3e 0f 14 3c 50 26 96 ef 3e
       9.932768935464637e-06 1.5061627443477649e-05
000540 6a 44 93 29 b9 d4 d6 3e 94 aa 0d 2f f8 41 f2 3e
       5.443322742952186e-06 1.741189311436438e-05
000550 20 ee eb 22 43 73 f2 3e 40 fd 9d 5e 83 7f f7 3e
       1.7595523043019185e-05 2.2409532824505364e-05
000560 f0 0d ed b3 5e 53 ec 3e 2f 41 6c 63 30 de f2 3e
       1.350672903089372e-05 1.799385628503783e-05
000570 4b 56 e1 49 a8 55 c0 3e f6 19 1a 6d 92 a7 c2 be
       1.947235957404011e-06 -2.2237989945634143e-06
000580 92 29 b5 d2 23 97 f8 be 17 94 6e ad 8a eb de be
       -2.3451223723194833e-05 -7.371922683773095e-06
000590 2f 01 dd a1 10 b0 fc be f7 f7 f6 59 cf 07 f6 be
       -2.735877398341127e-05 -2.1009929353381332e-05
0005a0 f1 e6 91 c7 13 d4 fe be ae 74 a6 82 fb f3 aa be
       -2.9400278866087896e-05 -8.032636789505039e-07
0005b0 bb cb 2f 2b f0 9c e3 be 49 fa a6 eb 79 35 f3 be
       -9.352226106406716e-06 -1.831902657455979e-05
0005c0 d7 5d 44 95 e8 f3 ea be 30 78 5d 16 92 ae f3 3e
       -1.2852081149135781e-05 1.8770138374584074e-05
0005d0 9b 59 78 b7 01 bc 9e 3e 1a 19 fa 21 97 92 c7 3e
       4.579782663950358e-07 2.8100751164355523e-06
0005e0 47 3f 37 c4 51 6a 65 3e 03 42 3c 16 bf c6 d3 3e
       3.988912358374833e-08 4.715050042639494e-06
0005f0 cd 2b c7 cf 38 d4 da 3e 33 64 1e a7 13 f5 e9 3e
       6.3965301219754465e-06 1.2377420009633977e-05
000600 07 70 e5 56 40 b2 f1 3e 99 79 1d 94 47 ac f3 3e
       1.687650131408649e-05 1.8761603548406167e-05
000610 39 7d 28 b4 bf bd fc 3e 2b c4 41 5a e8 0b bb 3e
       2.7409750382398712e-05 1.6120978694434723e-06
000620 5c 7e b5 73 43 9b e6 3e e1 59 cf 9d e9 8a dd 3e
       1.077961825640612e-05 7.043511200918789e-06
000630 74 68 cd b4 52 77 b4 3e e8 76 68 cd 7d a6 ee 3e
       1.2198749630072395e-06 1.4615229173616182e-05
000640 33 9f 9d c6 c0 5b ea 3e 8e 7e e9 2f 34 31 dc 3e
       1.25686694507212e-05 6.721544876769589e-06
000650 d6 19 bb 6a d0 a7 be 3e 76 5e cc a0 f4 ef eb 3e
       1.8272116148340806e-06 1.3321555365971459e-05
000660 c2 72 2a c3 a8 67 bd 3e 72 4a f2 82 61 35 b8 be
       1.75266974326083e-06 -1.4429401849243406e-06
000670 3c db d1 e7 c0 70 f8 be 28 53 ca 87 78 5d 4e be
       -2.3308223252328816e-05 -1.4139861053983665e-08
000680 0e aa cf e4 f3 e1 f0 be da c6 66 36 b7 b4 de be
       -1.6100528501464656e-05 -7.32086195969077e-06
000690 00 00 00 00 00 00 00 80 00 00 00 00 00 00 00 80
       -0.0 -0.0
0006a0 00 00 00 00 00 00 00 80 00 00 00 00 00 00 00 80
       -0.0 -0.0
0006b0 00 00 00 00 00 00 00 80 b9 cb fc 10 6c d6 dc 3e
       -0.0 6.875416388929289e-06
0006c0 ce e7 5d e8 b1 89 f4 3e 2d d9 fd 01 54 f5 c9 3e
       1.9586439996534086e-05 3.0944720634209595e-06
0006d0 54 85 a8 73 a5 f9 ec 3e 78 93 2f 06 7e 23 f4 3e
       1.3816442892058502e-05 1.920570538151446e-05
0006e0 8a 0d fc 58 27 e6 d8 3e 34 63 21 c3 eb 99 e5 3e
       5.9363932363194975e-06 1.0300280426077392e-05
0006f0 11 b0 0d 98 af e8 d0 3e ab 52 36 5f b6 80 fb 3e
       4.031402910036772e-06 2.622869756193034e-05
000700 5c eb f8 d6 46 c4 f3 3e 99 db 84 33 c2 fe 00 3f
       1.885099976404611e-05 3.24156775967567e-05
000710 18 f4 a4 d8 11 d6 f3 3e 79 c5 82 3f 5d bf dc 3e
       1.891728383295399e-05 6.853942061167483e-06
000720 ec f1 91 f5 14 ac ff 3e 11 53 32 81 ac a5 fb 3e
       3.020495873727769e-05 2.6366389715609557e-05
000730 e0 c0 cc c2 cd 1e eb be 62 bb 31 87 a7 9c d7 be
       -1.2931979733816037e-05 -5.629523104662802e-06
000740 58 74 63 bd d0 39 d8 be bb 3a 56 b7 61 18 d3 be
       -5.7758906761548305e-06 -4.552660234037854e-06
000750 4b 25 69 83 28 33 9f be 33 42 46 b3 ab 75 d5 3e
       -4.6491379937905224e-07 5.1163795443819654e-06
000760 33 a4 a6 eb 11 35 f4 3e 33 bc 33 19 59 68 ed 3e
       1.927118749170762e-05 1.4022640959924798e-05
000770 3b fe 62 20 ac f1 ac 3e 09 46 d5 35 9e 27 02 3f
       8.625993934904339e-07 3.4627452559232086e-05
000780 c0 4e 6d 2c 36 45 ec 3e 21 9a 7f fb 77 56 c1 3e
       1.34803571093864e-05 2.0668230398147043e-06
000790 51 81 ff 42 62 42 e9 3e ad a2 c7 b4 86 89 e0 3e
       1.204457848297315e-05 7.885557033086627e-06
0007a0 1a 4f 37 db bd f9 f6 3e 11 03 4a 1d 24 d0 ca 3e
       2.191119501822247e-05 3.1963647678104883e-06
0007b0 35 56 0f 43 8d 00 e4 3e de e9 e8 ef 5f 31 c5 3e
       9.537770980043353e-06 2.5263869922996103e-06
0007c0 13 8a b2 28 f9 33 f6 3e 6c 70 ce 90 18 a5 d0 3e
       2.1174450506431375e-05 3.968454859750678e-06
0007d0 7b 91 af 4a 3d 48 fd 3e 13 ec 52 4e 40 a2 e4 3e
       2.7925667989496424e-05 9.838959565624768e-06
0007e0 27 72 d5 b2 d1 f1 b0 3e 3b ab 40 98 db 29 e9 3e
       1.009977221264695e-06 1.199889516819362e-05
0007f0 53 97 9e e0 b9 71 ce 3e 3a 02 c4 29 f8 a0 e2 be
       3.6292365210463837e-06 -8.882897696072944e-06
