data/UE7GEKCGH/ens_bio/eval_364_bioneuron_9/pre_weights.npz (npz, 4200 bytes, 1 tensors)

weights f8 [100, 5]
00000000: ec30 804c df29 e4be 0881 5e19 4f44 e03e
00000010: 720f 509f 4c8d ebbe ced0 295b 888a f63e
00000020: c4da 4e19 a6f3 e2be 2940 e5d3 ceeb dcbe
00000030: 1588 4235 f698 e4be 70fe ec3f 742e f03e
00000040: 08cd 4339 3c77 d13e 4b35 f02e 1ff0 e83e
00000050: 0764 3556 6ab4 cc3e 54f0 2a3d da38 d33e
00000060: d25f 8fb3 0765 eabe 374b a57d 2747 ebbe
00000070: 3424 00de d49c c33e b75e fc68 f351 d93e
00000080: d7f9 c548 d721 ecbe 9d15 6fcb b290 d0be
00000090: 2d07 5d35 a857 e4be 71db bc49 9133 e03e
000000a0: ff03 839c 69e8 f7be cdc8 5d0b da25 da3e
000000b0: 97f2 e2be 2d60 f43e a906 0cf7 8691 d9be
000000c0: 8991 f30f 83ea ddbe e1de 2fc8 856b d6be
000000d0: 5c5b 1812 8058 ec3e af0c 045f 06f7 df3e
000000e0: d36c 3141 90ce f0be 7521 d85c bdca db3e
000000f0: 425e 0441 e1d7 c23e 700e e877 5119 f4be
00000100: 9f79 c394 e47d f8be f5bf dd11 dcd1 e83e
00000110: c19d 9c28 8166 e5be 348b 2f9b d2d9 d4be
00000120: 45b1 a2b3 e913 f0be 3c2e 3580 904b eabe
00000130: 8504 61ea de8c e4be b093 91b7 aeb1 c8be
00000140: 06ac 8adf 3ab8 ea3e 6567 ad3e d8e8 c6be
00000150: 2a77 23e7 b4d7 f73e ce58 4be6 bc05 f6be
00000160: 14bc 933b 1fc4 f7be d703 eb5e 6ac6 f73e
00000170: 1910 b590 210c bd3e 035d 9824 260f c23e
00000180: c185 fe85 b3e0 f1be c6ec 2fc9 f2f5 b2be
00000190: f00e 8a0a 1f7d a4be da11 1e84 69ed b63e
000001a0: 7d06 86f5 8cd3 e93e 4887 025b 4936 003f
000001b0: 13fd adc4 e599 d6be b850 3b26 c8ff d1be
000001c0: 2561 ee26 28ba f7be 8e5b 5a87 3d27 f5be
000001d0: 90b3 1836 275c f1be 87ab 94fe a740 b6be
000001e0: 9a5c e5c7 3611 e7be 2280 9f3e 570c dd3e
000001f0: 23f6 7046 7e39 ac3e 33fe 4f65 846e f23e
00000200: b8b2 a5a0 9267 bdbe 4599 b30b 3257 e8be
00000210: b704 22f9 1721 c4be 8292 b310 42b4 bf3e
00000220: 68fe 4262 29c0 f9be 4a8a 3900 946d ecbe
00000230: c23c 9999 76a5 d03e 2c69 bc72 09c4 f6be
00000240: 5ccb 938b ff74 e9be a625 3437 0ffb f83e
00000250: 87f9 623d 8bb0 013f caf5 295d 5104 fe3e
00000260: 2258 9911 fc0e bcbe cb9d 27e5 a879 dc3e
00000270: 0ae4 1af2 7a4e b2be d542 1bf5 07da f1be
00000280: 33eb 5e19 4711 f13e f8ae 3310 a9cb ea3e
00000290: d1e6 4043 a3af dcbe eb3d ad5e be8f f0be
000002a0: 786c d725 3fd7 d53e 9569 2f91 40a5 d9be
000002b0: 3b45 a88f 2033 c9be 289d 9425 ff03 bb3e
000002c0: 1e3e 4025 4cbf ed3e 857c 2c41 2e0e f5be
000002d0: 9ac9 11c4 b75f a33e 8704 f0d6 5054 f2be
000002e0: 3dec 85c7 3618 f73e 2cff 3789 1346 81be
000002f0: 2d92 32b5 84bb e8be f6a9 6a79 5d30 f0be
00000300: c15b 906a 9aa6 d0be 09f6 237a 48db c2be
00000310: 0fd7 abe2 6dd6 ea3e f208 5fc9 a39d f7be
00000320: adc1 4bea c621 d0be bb49 2459 f40c f93e
00000330: cc2a 3116 d926 ea3e 6a60 7a53 7cba d13e
00000340: 2c77 dd5d 32fe d1be a975 c855 8c7d ca3e
00000350: 5890 e33e eecf dcbe 4bd5 f1b3 6c5b b13e
00000360: 9469 dcec 58a6 bf3e 3897 eb85 9f5e d23e
00000370: d5ee b1d3 94d0 ea3e a9e0 4c99 0a77 f4be
00000380: 21cc a5d3 e1d2 eb3e df48 0eb7 e34a f43e
00000390: 93df d71a dfb5 f33e 8075 edfc 222a d7be
000003a0: 2e0b 115c bbed e5be 6150 4a32 19ad ef3e
000003b0: 094f c136 ab56 f3be adfc 086a 6b80 f03e
000003c0: 6935 33a1 f826 b43e 726b 00e6 4211 e4be
000003d0: c059 e50d cbff e2be 6fa8 944c 5127 e6be
000003e0: bd67 a58a 2f7b e4be b82b 1642 d8e0 e6be
000003f0: 10ae fd5a d308 fabe cc4f aa9d b960 b1be
00000400: 10c8 0897 41c4 b6be 2646 96bb 8a38 fabe
00000410: d90f b811 9a07 d6be d15d 43dd 1895 f03e
00000420: 7762 f68c 9283 ec3e 3f16 cfee 9cc6 e5be
00000430: 948f 6231 bea2 f03e 2e72 66de 12e9 f33e
00000440: ee23 4ff6 4826 9e3e e71e 7a47 2d1c f83e
00000450: 8acc 0b8e 1bd6 f83e 90f0 23c5 4e2d e33e
00000460: c35f 9c6d 6f36 b4be 1464 dd16 d5e1 c33e
00000470: 5268 51fc 44e4 b93e 7079 a494 0e9e e03e
00000480: ae66 147c 7fa4 923e bc99 6737 3f2e e4be
00000490: 2323 0197 a576 02bf 39a7 c5aa 2b88 d8be
000004a0: 0457 be07 91d0 e43e a02e b99f 3fc3 fb3e
000004b0: 3c89 2b9f 9c67 d13e d64c 357a ce4b c4be
000004c0: 9c67 7ab0 dcaa da3e 9c31 b494 72a5 e43e
000004d0: 3d77 9328 38ba ecbe d122 f63e a08c e03e
000004e0: de0d 3bf3 0a85 ebbe 5e94 722e d891 c5be
000004f0: b3df 5ce4 326d e5be d218 38b1 a87f f3be
00000500: 4d6c ce72 5dc3 c5be 85c1 5bcb 4d84 df3e
00000510: d1a3 69a6 88fc adbe b4aa 4416 9165 e0be
00000520: 02ec 4b82 f71b e73e e516 1885 f1ff e43e
00000530: 630f 7a64 f8a4 ea3e f47c 8932 769f e43e
00000540: 2a0e 4569 296e d4be 566b 627e 0aa2 d3be
00000550: c4bc 23b7 c0d5 e4be 6322 6520 8449 f4be
00000560: 0bb6 2eec 6949 f9be 4843 43b0 7a47 e93e
00000570: 10ac e3ca 0b94 f8be 2244 5c4f 275c aa3e
00000580: 011f 9d79 ad3f f2be dfa4 0628 ce8c ecbe
00000590: 38b4 253d 1b7e e33e d9d6 bd4d 7056 003f
000005a0: c7dd 8b1e 3b1f d9be b390 4a75 d5a8 b0be
000005b0: 9597 f98a cc79 b8be 4e4b f0d9 9295 f63e
000005c0: f812 9440 cc47 f1be 5412 5c81 afb0 acbe
000005d0: ab8d 9896 cf28 e13e 7d44 d557 5c67 cfbe
000005e0: 3d57 490f 5e5e dd3e 535e ca0a 9d7b c53e
000005f0: 1273 b6b1 ea82 d93e 3600 3a26 203a efbe
00000600: fe38 4452 fdd1 eabe 4078 b719 f190 e03e
00000610: 7e4c f732 a425 d7be eca8 56b5 8e35 e3be
00000620: 6936 f0b5 e54c c3be 8b19 9c68 1e8c b23e
00000630: 9f48 fa11 4a99 eebe 40f5 2043 8020 ba3e
00000640: 788d b289 0989 f0be ceb5 5117 ac34 f43e
00000650: 2b4c 0b63 3996 cf3e 36e4 d029 319d e33e
00000660: 9b59 f578 3df7 dfbe 1592 4d3a b905 d5be
00000670: 01b5 9782 dc54 f43e bda4 8ad1 fe6e f6be
00000680: c9ff 1a73 7147 e8be ed3e 31fc b254 cabe
00000690: 0000 0000 0000 0000 0000 0000 0000 0000
000006a0: 0000 0000 0000 0080 0000 0000 0000 0080
000006b0: 0000 0000 0000 0000 5168 f967 ea28 ebbe
000006c0: 6c6b 1dc1 63c8 d5be 636c 281d 3765 f23e
000006d0: 121a 1551 f833 f4be e82a 718d a158 dd3e
000006e0: 3581 5b24 ae29 f1be c2c1 f738 b8fe f83e
000006f0: 784b 1004 2fd2 e4be 726b f799 bc79 e53e
00000700: 6440 0e64 0113 e7be e303 5645 761d fe3e
00000710: d654 db1c 7472 c5be c7ce 7b80 c607 f03e
00000720: fd75 1942 79c5 b43e 8075 50ab 96bf 80be
00000730: 6dcd 0ba0 aea5 f23e d46e a93d af58 b23e
00000740: b292 3620 8840 b23e 0903 e96d 28f4 b43e
00000750: abf3 fd7e 8ea8 ea3e 09b3 a7ce e346 f5be
00000760: f6a9 df21 baf8 fcbe f405 def1 7105 01bf
00000770: 814d 66ed 475d e5be 140d 0083 6fca d9be
00000780: 800a eea2 af5c 803e 4949 de02 5a5b c4be
00000790: 91a7 a1a3 931d e53e 3452 052e 8291 f5be
000007a0: 9e01 eff3 84f7 cebe 0497 b16f 3035 f1be
000007b0: e1a1 32e3 8f6a e43e df85 b320 19ca f7be
000007c0: 4cc1 3a4f 8211 cabe 4a79 6acb df2b e1be
000007d0: bf7c e9d5 fe28 fc3e 7658 f23f d0d6 fd3e
000007e0: 07b0 7bbc cfcf c23e 49f7 ea5c ef8c df3e
000007f0: 38bf 862f cd53 efbe f23a 7817 16c2 f8be
-9.61473632801092e-06 7.756629923084016e-06 -1.31377937382449e-05 2.1496909264632356e-05 -9.036900147180677e-06 -6.895333454728959e-06 -9.821656626055783e-06 1.5431844072154343e-05
4.164162323616655e-06 1.1891353521443568e-05 3.421872564562687e-06 4.582901015733819e-06 -1.2585949308460609e-05 -1.3007138410491704e-05 2.3380068654472013e-06 6.036787126871278e-06
-1.3414474118841994e-05 -3.949458167567223e-06 -9.700017169603562e-06 7.725446543466984e-06 -2.2800313474350544e-05 6.234135232806824e-06 1.9431779883604698e-05 -6.09599725076715e-06
-7.132545078312652e-06 -5.345346951727871e-06 1.3516285039689366e-05 7.621035806207296e-06 -1.602829804557284e-05 6.626117693205352e-06 2.2462941232750443e-06 -1.916780410661376e-05
-2.3357171173959986e-05 1.1834985851527628e-05 -1.0204509880275684e-05 -4.971234761593988e-06 -1.5332970385515945e-05 -1.2538515881253054e-05 -9.799135408996313e-06 -2.943762805562214e-06
1.2740921179718253e-05 -2.7310311358331697e-06 2.2738079174958844e-05 -2.100221026320945e-05 -2.2665120671779766e-05 2.26736646549186e-05 1.731359193638855e-06 2.15282151284533e-06
-1.7049540815277648e-05 -1.1301479261305993e-06 -6.106124788716912e-07 1.366579013923754e-06 1.2314972693830455e-05 3.0922044403482315e-05 -5.388536986283197e-06 -4.291331240320068e-06
-2.2627997562447593e-05 -2.0173342326925167e-05 -1.6555760686088087e-05 -1.326356136320123e-06 -1.099931818930441e-05 6.925632058923965e-06 8.411581234946222e-07 1.7577846239900766e-05
-1.7526496117428475e-06 -1.1606506055317068e-05 -2.3995962204486747e-06 1.889713589880608e-06 -2.4557715861515955e-05 -1.3555545599068818e-05 3.968796954702943e-06 -2.171112934865845e-05
-1.2138855128606615e-05 2.3823452875359378e-05 3.3740281354155284e-05 2.8626314654269816e-05 -1.6724189379111502e-06 6.789024683296695e-06 -1.0911562146455442e-06 -1.702469246006834e-05
1.6276827942122984e-05 1.27771131758973e-05 -6.839295611677045e-06 -1.5794275820822238e-05 5.2072542451000295e-06 -6.114367596200123e-06 -3.0040401928296942e-06 1.6102559555282987e-06
1.4184596842908031e-05 -2.0079987801510414e-05 5.773871479943481e-07 -1.748023845138784e-05 2.2024713389506358e-05 -1.286993592669538e-07 -1.1793372016130177e-05 -1.5438963226680238e-05
-3.969858576111563e-06 -2.2478788689317707e-06 1.2797171696981033e-05 -2.252176326301368e-05 -3.846154559936451e-06 2.389011712817535e-05 1.2470126142490565e-05 4.226794139271329e-06
-4.289855011522543e-06 3.1579044572754736e-06 -6.869370720450565e-06 1.0345654144737922e-06 1.8864747519166727e-06 4.3796590875938956e-06 1.2786279162783402e-05 -1.951695010690759e-05
1.3267401858673964e-05 1.9352471500485503e-05 1.8797336158698682e-05 -5.5228701530662385e-06 -1.045639044339671e-05 1.5104372843390166e-05 -1.8442678467358305e-05 1.5737189303030478e-05
1.201166587350264e-06 -9.568894881841728e-06 -9.059520775051076e-06 -1.056365217040977e-05 -9.766194427985345e-06 -1.0909223479035421e-05 -2.482841017529934e-05 -1.0357995196318374e-06
-1.3569966449520006e-06 -2.5006167310664744e-05 -5.252288498794994e-06 1.5814219140290236e-05 1.3596513240441935e-05 -1.0383525898559276e-05 1.586505376195665e-05 1.898807922772106e-05
4.4926331660123786e-07 2.2993150621291195e-05 2.3685796693717394e-05 9.14429816533554e-06 -1.2047670935929354e-06 2.370137898316275e-06 1.5432642481911715e-06 7.923798552908408e-06
2.777959445407523e-07 -9.622884800952805e-06 -3.521626320030491e-05 -5.848864628491169e-06 9.925228589040536e-06 2.6476564001050502e-05 4.1496118565485e-06 -2.4194859677223496e-06
6.3580107575680736e-06 9.84491329927215e-06 -1.369830103431122e-05 7.891330794833174e-06 -1.3122414748939955e-05 -2.5713091989670744e-06 -1.0216978931873325e-05 -1.8595378675122943e-05
-2.5943690133540545e-06 7.5141935462628115e-06 -8.936661515915316e-07 -7.818577338077538e-06 1.1019346922483065e-05 1.001347496566323e-05 1.2705047210965781e-05 9.833763742138413e-06
-4.870967718343129e-06 -4.680865435836528e-06 -9.934888769851087e-06 -1.93473552141686e-05 -2.411534547846175e-05 1.2054069437190986e-05 -2.343969816191385e-05 7.85588467807256e-07
-1.7403355378391685e-05 -1.3613710735454368e-05 9.294797483428316e-06 3.116159652353867e-05 -5.9895505521915425e-06 -9.929840036138786e-07 -1.458870013148929e-06 2.153804018340958e-05
-1.6479931251661494e-05 -8.550339340723217e-07 8.182247898841742e-06 -3.7436190597835853e-06 7.002025303201086e-06 2.5609570769127414e-06 6.0823902247292e-06 -1.4890219240060268e-05
-1.2788902104901315e-05 7.899369669436243e-06 -5.51868360739165e-06 -9.159664538700413e-06 -2.300784600623233e-06 1.1055075525581684e-06 -1.4590638385745666e-05 1.5572879985681077e-06
-1.5769292627821366e-05 1.9269705678606236e-05 3.7654415553172596e-06 9.352699004693427e-06 -7.621236263707921e-06 -5.0121206286208105e-06 1.9389619557876225e-05 -2.13943249912959e-05
-1.1577165057174894e-05 -3.1388826485025335e-06 0.0 0.0 -0.0 -0.0 0.0 -1.2950814606661197e-05
-5.193417580285887e-06 1.7543194028229655e-05 -1.926708961732567e-05 6.996682905111995e-06 -1.636773438107413e-05 2.3837088120205877e-05 -9.928240730904792e-06 1.0240332641344686e-05
-1.1002655016218058e-05 2.871998397813495e-05 -2.556691675129935e-06 1.52877546772529e-05 1.238070815998983e-06 -1.247852502725046e-07 1.778335172537614e-05 1.0935320832382706e-06
1.0879085728745107e-06 1.2489403428269077e-06 1.271172729366297e-05 -2.0291245997161446e-05 -2.7629461435122218e-05 -3.246549589076475e-05 -1.0187329661437733e-05 -6.14899731488378e-06
1.2190680950478937e-07 -2.4267246975874865e-06 1.0068671248048506e-05 -2.0569222102766706e-05 -3.691538864342323e-06 -1.6410608605708067e-05 9.73523046916917e-06 -2.2687383574365268e-05
-3.107594801786547e-06 -8.187953750845998e-06 2.6855600817274292e-05 2.845679773296651e-05 2.2425369684466625e-06 7.522231909971364e-06 -1.4938044373774212e-05 -2.361121138788175e-05
