data/W49TSML50/ens_bio/bioneuron_70/pre_weights.npz (npz, 4200 bytes, 1 tensors)

weights f8 [100, 5]
0	0xbf2250910dc9ebde	-0.00013973017384558047
1	0x3f234cf37d2c7650	0.0001472518184408183
2	0x3ef948bd33ffd0fe	2.4112832079440677e-05
3	0x3f2e8bf7cf7ec00d	0.00023305320769173612
4	0x3efa2822208b729c	2.4945040453571752e-05
5	0x3f011f4c79b31283	3.2658120483063296e-05
6	0x3ef27185e31b16e6	1.7589043813235216e-05
7	0xbf314cb002fb03c1	-0.0002639703479694854
8	0x3f0d001864e59520	5.5313820314132353e-05
9	0x3f1832d3d1285d9d	9.231012180809522e-05
10	0xbeeaebd21488d875	-1.2837016258076598e-05
11	0xbf0a076c7fdbd0bf	-4.964637626683884e-05
12	0x3f232dc9a38af5a6	0.00014632307445154347
13	0x3f26018f9b6aec9a	0.0001678932000766839
14	0xbf0afa46f9977370	-5.1455775245768244e-05
15	0x3f246d568a410a83	0.00015584641835360646
16	0xbf2b9b363cecdcc6	-0.00021061932644681462
17	0x3f23756d4b66b3b3	0.00014845809137167612
18	0x3f23be6f7802010e	0.00015063391402137704
19	0x3f2b3fecb3e5fcb0	0.00020789875447844086
20	0xbf2da423c29fa7de	-0.0002261441853186876
21	0xbf23495413955508	-0.00014714385342055208
22	0x3f0e83acaeea08fa	5.820151078685279e-05
23	0x3f2ab7417cd64dc6	0.00020382570657471853
24	0xbefa40f9513e2ed9	-2.5037578850680253e-05
25	0xbf308dd856ed34d5	-0.00025259525039163
26	0x3eecd416e5205d77	1.3746487784556682e-05
27	0xbf27e01194f4e6e9	-0.00018215384123170607
28	0x3f306f74557a5c39	0.0002507838266664928
29	0x3eeabf5ab028a878	1.2754191179704453e-05
30	0x3f3495c0c86a7c75	0.00031410175908236994
31	0xbef63a269516a891	-2.119746324572757e-05
32	0xbf0a1ed744da04f6	-4.982084702210593e-05
33	0xbf13a2fcffb24281	-7.490796262944224e-05
34	0xbf29411db38fc469	-0.00019267547193594088
35	0x3f2856027d5ae79f	0.00018566875831088362
36	0x3f222337baa29d3c	0.00013837867056063792
37	0x3f1e6c39649d66a9	0.00011605358409152534
38	0xbf2722ed733362bc	-0.00017651699599842928
39	0xbf18c2cffadbdcb5	-9.44556656711112e-05
40	0x3f29552882cc8e60	0.00019327277677759751
41	0x3f344b0b97a32cbb	0.00030964882865864755
42	0x3ef15962906e093d	1.6545448513046976e-05
43	0x3f194f34b028445b	9.654769022683764e-05
44	0x3ef84ae670606219	2.3167208404202987e-05
45	0x3efdd05478e00cb4	2.8432644789699784e-05
46	0x3efcdb5fcacf1cca	2.7520113395043668e-05
47	0xbf1273e359ae68cd	-7.03914178487336e-05
48	0x3f26eeae05fd8905	0.00017495989140587517
49	0x3ef1edaeb5e026ac	1.7097899551321807e-05
50	0xbf1157c92763e2c0	-6.615796323562306e-05
51	0xbf22c78a9235b612	-0.000143275895520587
52	0xbf099d7029e54566	-4.885672136601786e-05
53	0xbf0cef7b19c84ab7	-5.519003318367937e-05
54	0x3f2391c00e7c8e95	0.00014930219116947711
55	0x3f15e1110f0ea76c	8.346239680059674e-05
56	0xbf14271f91b20439	-7.687692816384172e-05
57	0x3efb8bb21d306022	2.6269613794566275e-05
58	0x3f222cdc18d5f82c	0.00013866602641238299
59	0x3efa69a7198cb4c3	2.518911933007264e-05
60	0xbf281cb53020a89c	-0.00018396102683599237
61	0xbf333ef1db615e63	-0.0002936687918739576
62	0xbf22148f07fcb01f	-0.00013794179903337062
63	0xbf222cfb6d6b1888	-0.0001386696737510388
64	0xbf05f87fc03690d1	-4.190578331567249e-05
65	0x3f2013807a85da5f	0.00012265151350350758
66	0xbf019ca4cb34e4ff	-3.359201346104546e-05
67	0x3f16f348e2686f39	8.754856444464784e-05
68	0xbf115b3f145d1b14	-6.620953089707073e-05
69	0xbf20ab1c57fa6748	-0.00012716980926513245
70	0xbf306c11cad17913	-0.00025058206921881146
71	0xbf2a86b4c005207f	-0.00020237881109097866
72	0xbf13c8620b74224a	-7.546518724067214e-05
73	0xbec3ba4fa1c64631	-2.351734350543982e-06
74	0x3f2d7b62f2dc762e	0.00022492964620195302
75	0xbf2c4e6703d3a5ad	-0.00021595962053959136
76	0x3f043f3235f43a06	3.861782055923986e-05
77	0x3f2e58e04252ece8	0.0002315305475003367
78	0x3f2e3e08e7fdcc74	0.00023073061674558674
79	0xbf352dbe7ae49175	-0.00032316112892007777
80	0xbf163b79657d3d50	-8.480957455713378e-05
81	0xbf229b3ed2564d00	-0.0001419557749327907
82	0xbf2801b21e69c361	-0.0001831560068299666
83	0x3f1dfc82e7b03603	0.00011438893299971918
84	0xbedb7965baf44ab4	-6.550361759910073e-06
85	0x3f299338f79af2f5	0.000195122436528104
86	0xbf19da2364824ef3	-9.861794490212041e-05
87	0x3f30d4ea9eef0194	0.00025683143661228117
88	0x3f214ae30b51cb3d	0.00013193151031351018
89	0xbef6d708e7d59bd3	-2.1781901968689052e-05
90	0xbf1c8f6b0eeb4437	-0.00010894862110012801
91	0x3f2792e4fafac2c7	0.00017985387011300853
92	0x3f24322406f0a187	0.0001540822008519011
93	0x3f0487cdc711b814	3.9158789953627895e-05
94	0x3f1d4889645b62d8	0.00011170710157716189
95	0x3f366f5f92a4ddb5	0.0003423317272281638
96	0xbe98aca511e4d8ce	-3.6767711887891357e-07
97	0xbf0e2b5fa4427e9a	-5.754361748810701e-05
98	0x3f0b94e51ce836ce	5.260776707781204e-05
99	0xbf31c50eae9fd506	-0.000271144947532179
100	0xbf274835d0f6b808	-0.00017762810646843063
101	0xbf1e896d9457494f	-0.00011648875541617653
102	0x3f29abcec58db565	0.00019585513180279536
103	0x3f220d56a2012176	0.00013772661714229654
104	0xbf210f8c125cc508	-0.00013016304836236552
105	0xbf0c1013748f4600	-5.352553723237882e-05
106	0xbf05f0b78d302058	-4.184780268451431e-05
107	0x3f0916bb9e9a1981	4.7853089040694574e-05
108	0x3ebdcd70555b038b	1.7763671470857034e-06
109	0x3efd5d7fc26289eb	2.8004866316275466e-05
110	0xbf134d82c976f402	-7.363425026248041e-05
111	0x3f335ac3a141cafe	0.0002953269588551881
112	0xbf077358285069d5	-4.472840104359817e-05
113	0x3ef69c35e86db602	2.1562764711038566e-05
114	0xbf0d735d81517114	-5.617264847821067e-05
115	0xbf2b70babde1e2ea	-0.00020935325204953582
116	0xbf12fa5dc16c1e16	-7.239529837132388e-05
117	0xbf30cefbf42e080c	-0.0002564778443955313
118	0x3f1007c06ea61be9	6.115066540789107e-05
119	0x3f31b3df3cd4bffa	0.00027012062203635135
120	0xbf2394d31ad3b6bc	-0.00014939381563954478
121	0xbee083f15f22974f	-7.875157255487047e-06
122	0x3f0c56b26af51529	5.405170429155011e-05
123	0x3f1372f12d846b80	7.419201881868169e-05
124	0xbf26ffb4cf8f6bac	-0.00017546732104175894
125	0xbf21f590e044fdc8	-0.00013701814180853825
126	0x3f32f7885bfffd87	0.00028941229902553666
127	0x3f1a9415945b1698	0.00010138875685602523
128	0x3f2fe85ed1d3869c	0.0002434364077208887
129	0xbf0259d526f92150	-3.500158061037434e-05
130	0x3f32efef8034e7eb	0.0002889594763534331
131	0x3f208c8827b27406	0.00012625848817018908
132	0xbf233d10be9e92e6	-0.000146778387088229
133	0x3f19765bc14bac50	9.713110950897272e-05
134	0x3f2b1a108da40dab	0.00020677043978177315
135	0xbf33f03a0c079be0	-0.0003042356220518943
136	0xbf207f40a968fae9	-0.00012586273506261868
137	0x3ed566f745399f87	5.102684628256646e-06
138	0xbf2b3a468b82c857	-0.0002077303995569625
139	0x3f19ae96779c377e	9.796899203370725e-05
140	0xbee49126cb630ae2	-9.80710897769327e-06
141	0xbf18e78496c873a2	-9.500262030610757e-05
142	0x3f1808df98f57d70	9.168495875177206e-05
143	0x3f11e19f900f41fd	6.821190255768685e-05
144	0x3f0a9bb7939eafba	5.075124722905785e-05
145	0x3f2907db312c5b80	0.00019096899685485877
146	0x3f2bc7040a1161f2	0.00021192478473853988
147	0xbf294de3d91094d5	-0.00019305616709278683
148	0x3f1a2fb53db2696f	9.989303309724193e-05
149	0xbf33a309bf446d1b	-0.00029963481871826827
150	0xbf283932487072c6	-0.0001848100548337476
151	0xbf28b4580f8825d0	-0.0001884801383911631
152	0x3f246aa7bb437d06	0.00015576646331447885
153	0x3f1a59a0045b6781	0.00010051764646892664
154	0xbf190465119396b3	-9.54329192555902e-05
155	0xbf14e78538fa0cad	-7.974386812219471e-05
156	0xbf327f4cb816e1a3	-0.00028224585556870847
157	0x3f0b95d2c0fafcc1	5.261468333860867e-05
158	0x3f1ad090f8edc3ef	0.00010229000893759143
159	0x3f31eab1a70f2311	0.0002733882639032607
160	0x3f22a3478245c51f	0.0001421952048406361
161	0xbf2cc61cd1401144	-0.0002195272614927778
162	0x3f0c6f1002228729	5.423324206900303e-05
163	0xbf16e821dc7700c8	-8.738238022143734e-05
164	0x3f29838e2123f85e	0.00019465551356029597
165	0xbf097dbd249ac4be	-4.862054318034149e-05
166	0x3f165e1b77643c98	8.532564774931179e-05
167	0x3f238f105947bfff	0.00014922213144030747
168	0xbf0bd4776b713ff1	-5.308141174309434e-05
169	0xbf1f4d09d6f6cb1c	-0.0001194035773924126
170	0xbf0cf09071dbbbd6	-5.519810495779153e-05
171	0xbf0e0430c5a75105	-5.7251680761235094e-05
172	0x3f265f37dc36c318	0.00017068440329872574
173	0x3f2c34ee90779395	0.00021520054018178401
174	0x3f204076c21a5c8b	0.00012399148640860157
175	0xbf32c3488e44cb35	-0.0002862980020551965
176	0x3f20e83a1f00cdfb	0.00012899121748120843
177	0xbf168ad400073e24	-8.599204011904747e-05
178	0x3f30060d0208393a	0.00024450128151522514
179	0x3f23ff477143b513	0.00015256640529718503
180	0xbf10241f5bfffd94	-6.157342340883657e-05
181	0x3f08fd4101c42c3f	4.7663256028306494e-05
182	0x3f0cbcaf2eaf8c6c	5.481156934885535e-05
183	0xbf011d7236b8d6f1	-3.2644317652969874e-05
184	0x3f059844669feee1	4.1188800267348e-05
185	0x3f171345844721b2	8.802520557716387e-05
186	0xbf2388d66d9ff82d	-0.00014903657466897158
187	0xbf222ba1cb84683c	-0.00013862943684089964
188	0xbf21be5e271f9476	-0.00013537310911640774
189	0x3f14465bdffc8df3	7.734237442185553e-05
190	0xbf256dadda84c809	-0.00016348597751797447
191	0x3f2d1308787ac1c1	0.0002218196716419329
192	0x3f277d2e61b81f09	0.000179206764059574
193	0x3f2643f0a65cbeae	0.00016987145061752223
194	0xbf29a5ec40f0b49f	-0.0001956797500225803
195	0xbf0265e1962c22d7	-3.509134946539309e-05
196	0xbf20972148079b1f	-0.0001265743376414824
197	0xbf16222643cef426	-8.44322066333036e-05
198	0x3f108e74f2b863ec	6.315792841639329e-05
199	0x3f032bb14dc01601	3.656515920628587e-05
200	0x3f0024bfcb7c8df2	3.079138099184785e-05
201	0xbf25804b1d0b377d	-0.00016404072677861015
202	0x3f1152ff1eec9e35	6.60865987184227e-05
203	0x3f2ad1e32909cab8	0.00020461938813161828
204	0xbf179e632a62d0c0	-9.009819277389346e-05
205	0x3f274fc05346a9c0	0.00017785284729872168
206	0x3f204dc580cff643	0.000124388083719328
207	0x3f296a3968df8968	0.00019390059281849535
208	0xbf221a687f40b75a	-0.00013811612700592274
209	0x3f1c92c0f67e9a66	0.00010899832488906746
210	0x0000000000000000	0.0
211	0x8000000000000000	-0.0
212	0x0000000000000000	0.0
213	0x8000000000000000	-0.0
214	0x8000000000000000	-0.0
215	0x3f0c940087746213	5.45084630465023e-05
216	0x3efb84a6c5e0e4b7	2.6243371728383517e-05
217	0xbeed8a06f8134460	-1.4085373324953198e-05
218	0xbf1d827a26e81cd4	-0.00011257048183931372
219	0xbf2347e0f13a092b	-0.00014710064771256948
220	0x3f1778ca102541fd	8.953793807121159e-05
221	0x3edd9b840130cab2	7.05897402313259e-06
222	0xbf2c194f8e984a74	-0.0002143773665897634
223	0xbf05b772c8529dff	-4.142111814902857e-05
224	0xbf31965370d865d6	-0.0002683595383544379
225	0x3f2b4d13aacedde8	0.0002082907207332362
226	0xbf1c50d5ab5a1a53	-0.00010801605352570827
227	0x3f2d4f6e8e86e89a	0.00022361969537404853
228	0x3f25b816f727a483	0.00016570358600568125
229	0x3f295401ca608c50	0.00019323846680760698
230	0x3f221cba8ba5e5f6	0.0001381852833437916
231	0xbf1d3d339a03cd5c	-0.00011153819514557933
232	0x3eb5b4a5b4158d85	1.2937577625542597e-06
233	0x3f149df6fc25c5c5	7.864780403623376e-05
234	0xbf17722fac99c44a	-8.943954449038105e-05
235	0x3f23bbc04e69588f	0.00015055391777946513
236	0x3f11a7e0d3e8cb2a	6.735143413364995e-05
237	0x3f2929dd01887c36	0.00019198248698246303
238	0xbf2be5b0d6cdc8d7	-0.00021283897094865362
239	0xbf31eeb6814bca26	-0.0002736278122902634
240	0x3f0ddf395ae3f561	5.697625907606186e-05
241	0x3f1ba31a73c61fe2	0.00010542725516959854
242	0x3f19ff4accfc0724	9.917158172003928e-05
243	0xbf214ac75b4e8f14	-0.00013192828705854058
244	0x3f2b21aa6f3ed52d	0.0002069969701758238
245	0xbf26c8fdfa1403a6	-0.00017383671096385145
246	0x3f2a7e46e2365595	0.0002021276023752959
247	0x3f30ff62c0816a29	0.00025936280190355876
248	0x3f291b42869337d9	0.00019154727059461535
249	0xbef479162ba12b67	-1.9524569076427754e-05
250	0x3f2e2c7b63e555e2	0.0002302075026345127
251	0xbf24bfcb4a95ce8b	-0.000158303800428795
252	0x3f21dd5d4c859e1b	0.00013629688170201177
253	0x3f1adbb1f986055b	0.000102455842698764
254	0xbf2aa422590b682f	-0.00020325583729780122
255	0x3f2f123417b1e49a	0.000237053736643654
