data/4SLQ6LX6K/ens_bio/bioneuron_10/ens_bio_weights.npz (npz, 2200 bytes, 1 tensors)

weights f8 [50, 5]
000000 03 ad 8c 31 9d 41 d3 be 0b 4e e2 1b 6f 99 b3 be
       -4.591060837093365e-06 -1.1682123921872408e-06
000010 d5 99 17 6a a0 77 f6 be 23 71 0b 40 a0 9f eb be
       -2.142647884353386e-05 -1.317192982369008e-05
000020 c2 9b 4d b9 9b 31 f2 be c3 12 0e 1c 8b 0d 11 bf
       -1.7350943000062553e-05 -6.50516658549745e-05
000030 03 4c 8c 2e ce 9d 17 bf 44 d3 36 95 9a 72 18 bf
       -9.008952077875502e-05 -9.326046465825156e-05
000040 31 0a 14 49 6d b6 1e bf 12 51 2a dd 61 43 02 bf
       -0.00011715929055714708 -3.483431250575672e-05
000050 e5 2b ab b0 fb e9 d9 3e 73 1f 98 db e3 d9 e6 3e
       6.178378280717404e-06 1.0896269361473681e-05
000060 d3 88 7e c4 63 62 f7 3e f2 e3 76 13 94 ab f7 3e
       2.230103953560702e-05 2.257368870825847e-05
000070 a0 30 90 71 18 2e f8 3e bd 3a 6d 75 fb 9d 15 3f
       2.305990264876766e-05 8.246276170818363e-05
000080 51 d7 ae 24 48 8f 05 3f 28 d3 d8 15 96 f5 15 3f
       4.112185396058669e-05 8.376816318718101e-05
000090 e5 35 28 e7 e9 5d 14 3f 15 c2 1e 3a c7 ab f6 3e
       7.769336824755382e-05 2.1620758736852904e-05
0000a0 92 e8 91 84 fb b8 12 bf 0f 11 d2 5d e4 69 f3 be
       -7.142100470672517e-05 -1.8514290662811436e-05
0000b0 2b a9 8e c6 6e e8 11 bf 1f dc e1 03 16 87 f9 be
       -6.831337090199413e-05 -2.434509246326485e-05
0000c0 8e 77 de 53 4d 26 d7 be 35 39 a1 cc 3b c5 ed be
       -5.519298893389813e-06 -1.4195653779716484e-05
0000d0 56 ed c1 18 cb c9 04 bf 2b 6b a0 4e d4 5f 00 bf
       -3.965045024841944e-05 -3.1231562232578114e-05
0000e0 e6 b5 58 3e b2 f5 f4 be 23 f1 4e 02 b9 3b fc be
       -1.9988776236148485e-05 -2.692536522251697e-05
0000f0 6c 5c be 30 63 57 ee be 57 77 02 22 c5 0c 93 be
       -1.4467886579257019e-05 -2.838653774347519e-07
000100 85 f7 99 b7 b4 2c 29 be bc f4 8f ca 9d bd be be
       -2.9307129473343317e-09 -1.8322878452264323e-06
000110 14 03 02 0b 63 d9 ee be 5d f2 4d 65 d4 57 ec be
       -1.4710029376142855e-05 -1.3515035939931278e-05
000120 a7 61 17 af f5 99 e7 be b3 ab 48 93 9a 5d 08 bf
       -1.12540269325147e-05 -4.647376991714167e-05
000130 fc 97 3d 60 c5 d8 11 bf ce 98 74 ba c3 ca 17 bf
       -6.807999312527507e-05 -9.075946455947283e-05
000140 40 0c 33 49 ea 9d 14 bf c6 93 1a 38 cc a7 18 bf
       -7.864706485620574e-05 -9.405311541373006e-05
000150 02 a3 57 5b 85 10 00 bf cd a3 44 69 6d 91 15 bf
       -3.0640668608422294e-05 -8.227567952147283e-05
000160 3f 7f f3 44 7d 67 fd be fa d3 4d f6 e6 89 e8 3e
       -2.8042082985346063e-05 1.170095465295207e-05
000170 14 ce bd d6 6c bb ea 3e a7 c2 9b f3 75 b9 f4 3e
       1.2746872662928176e-05 1.9764381454958704e-05
000180 62 e2 d6 44 bb 61 a8 3e bf 8a 60 12 4b a6 df 3e
       7.266331835598404e-07 7.54584860909968e-06
000190 52 72 85 ff da 62 eb 3e 9e 5a bf ff 5d a9 c5 3e
       1.305873591722035e-05 2.58226282133106e-06
0001a0 18 7b 81 a7 7f 5c 03 3f 07 80 eb 73 b9 e3 f6 3e
       3.692879266802544e-05 2.18291745522903e-05
0001b0 b1 20 1c eb 65 ae 04 3f 53 87 46 a5 74 d8 da be
       3.944633989588895e-05 -6.400473087005343e-06
0001c0 cf 65 33 59 56 ee 06 bf a7 09 8e d9 64 af d2 be
       -4.373742117431587e-05 -4.454882763906693e-06
0001d0 f2 5e c2 89 09 9e f7 be 20 4a 85 85 d8 30 11 bf
       -2.2523243942445177e-05 -6.557771246677073e-05
0001e0 3a 24 0e f5 67 b8 f2 3e 40 ff d7 6f fe df 1a 3f
       1.785310388727568e-05 0.00010251989802867196
0001f0 8c ed d7 7b 43 13 07 3f bc 31 54 b1 2b a8 18 3f
       4.401254362204195e-05 9.405867270490578e-05
000200 68 33 34 58 f8 56 13 3f ec b2 8d b0 72 7c 19 3f
       7.37752034646995e-05 9.722185144562704e-05
000210 c3 1a 46 e3 e7 2f 19 3f 5a 63 0a 07 84 e0 06 3f
       9.608128386249651e-05 4.363444248162733e-05
000220 e4 59 17 e6 4e 05 01 3f 55 2b 48 3d db 64 fa 3e
       3.246447591791541e-05 2.517125160931705e-05
000230 93 0d 92 9b 2f 3d ce 3e f0 c8 cf 51 28 a9 cd 3e
       3.6047706229462024e-06 3.535839495410612e-06
000240 b4 2b 60 31 cf 86 ea 3e 74 75 a6 cc fa 9d 09 3f
       1.264886808984519e-05 4.886075619768118e-05
000250 8c 65 7e 47 ef fe 0d 3f 64 bc 79 08 64 f8 d2 3e
       5.7212521766557186e-05 4.5228663406580106e-06
000260 b4 ce 54 e3 a6 be e0 3e f5 e0 a8 a7 62 bb 01 3f
       7.984511379711394e-06 3.382105656552114e-05
000270 e4 40 bc 12 9b d7 16 3f e2 f7 e1 5a a7 68 0c 3f
       8.713611594779767e-05 5.418549277268183e-05
000280 11 ff 34 4d 63 29 05 bf ea 46 07 9a 87 02 cf be
       -4.036268515017321e-05 -3.6966659566561035e-06
000290 cb ee 50 5d 13 d3 f9 be 6f 19 3f 0c 75 60 d6 be
       -2.4628175953929695e-05 -5.335041524950865e-06
0002a0 60 cd 39 bd 31 c4 f4 be 2c a9 30 a5 98 29 e8 be
       -1.9804367026710567e-05 -1.1521570888535318e-05
0002b0 4c e1 18 7b 5a 6c 10 bf 9b 9e a0 02 ca c5 10 bf
       -6.264974833747778e-05 -6.398244355009868e-05
0002c0 0c ce 0c 60 18 d2 00 bf 01 9e 80 7f 23 dc 83 be
       -3.208290946190789e-05 -1.4796790970379934e-07
0002d0 d8 d7 58 35 7c 74 c9 be 1a 0c 0d 21 93 93 bd be
       -3.034474881836811e-06 -1.7628946162452262e-06
0002e0 21 f9 69 26 85 f3 ea be 67 38 52 7a f0 f8 b2 be
       -1.2851357678697402e-05 -1.1308443188837214e-06
0002f0 96 48 72 44 45 15 e6 be 4b 8c 5b c2 f4 e6 03 3f
       -1.0530037015042242e-05 3.796038099126343e-05
000300 cd a8 ef 1e 6f c0 fa 3e 5a a9 27 c5 e3 1e 02 3f
       2.5512404984975174e-05 3.456242179196668e-05
000310 2a f8 7e bb eb 75 01 3f 1f 37 87 be fa b5 0b 3f
       3.330350540363431e-05 5.2854265792141727e-05
000320 49 9f 7b e3 26 76 11 bf 9a f4 ca 10 b5 0b e1 be
       -6.661045415123664e-05 -8.128038211702768e-06
000330 76 de 83 ed 7d 67 10 bf 1c 99 14 fc de 89 12 bf
       -6.257730581526476e-05 -7.07189892819909e-05
000340 36 a9 87 a3 cf 06 10 bf 70 e8 57 5e 65 07 08 3f
       -6.113664938537243e-05 4.583147146415632e-05
000350 f3 49 3b 41 10 de fb 3e b1 43 b8 dc 5c b4 10 3f
       2.6576457527857947e-05 6.37227705555649e-05
000360 43 cf d3 bf 06 04 05 3f cc 2b 61 ca 3e e4 05 3f
       4.0084320042681306e-05 4.17548811105433e-05
000370 35 86 07 1c dd e8 c0 be 53 63 1e 55 2c df e1 be
       -2.015784247286885e-06 -8.521924119085698e-06
000380 34 02 6f 46 80 e7 0d bf b5 f5 b7 74 26 c9 0f bf
       -5.703792776712673e-05 -6.062649353209428e-05
000390 2e 05 68 df c1 51 d0 be ad b4 1b 74 6e 96 0d 3f
       -3.890839698873507e-06 5.643391206242832e-05
0003a0 92 cc a5 11 d4 dc 11 3f 2a de 9e d6 d3 24 d7 3e
       6.814045301499681e-05 5.517925595492236e-06
0003b0 a9 c4 1e 7d 8e 69 f4 3e d8 bf 3d 7e d2 02 ef 3e
       1.94667152936852e-05 1.4787208733685263e-05
0003c0 30 ff af e3 47 8b ec be 08 24 cb db 36 40 b7 be
       -1.3610871169688824e-05 -1.3858578846051676e-06
0003d0 2d 8f ef 3b 03 de 61 be 5a 4c 3f 2a 5b 3d df be
       -3.3280322046611403e-08 -7.448118285641084e-06
0003e0 85 b2 c8 32 66 7e f3 be 33 09 85 09 85 c1 0b bf
       -1.859068577141295e-05 -5.294024703285591e-05
0003f0 93 ba 03 a1 93 b0 f1 be d3 40 17 7d b0 7e e6 be
       -1.6870262755592515e-05 -1.0726394893107252e-05
000400 af ce 49 01 ea c5 00 bf c8 b8 f1 97 fc f7 ed be
       -3.199215294538476e-05 -1.429018879958408e-05
000410 4f 23 ee 1b ec f9 f5 be 8b 4f aa 7d 70 6b cc be
       -2.0958193768491712e-05 -3.387890484882492e-06
000420 1f 50 fb a8 28 5e fa be e1 8b 1b e6 22 8a e0 be
       -2.5146301196724113e-05 -7.886693484454188e-06
000430 8d 5b 63 cc 7f 4f ec be 8b c7 b1 51 8b eb 05 3f
       -1.3499519252153382e-05 4.180926244935688e-05
000440 99 aa 5f 9c 76 5d 03 3f ee fe c4 67 b0 04 05 3f
       3.693598004857641e-05 4.0089257682838583e-05
000450 7a 3e 23 63 4d a9 c7 3e 70 5e 8d 56 fd 9a 05 3f
       2.820651183822577e-06 4.120908380994277e-05
000460 26 fa ae 0d 19 63 11 3f 70 85 d4 8c d1 26 0c 3f
       6.632652677660746e-05 5.3694982492534233e-05
000470 e0 76 25 bd 54 99 f8 3e 21 6f 3b cc 4f 5d 14 3f
       2.345938612201878e-05 7.768439814575787e-05
000480 05 a7 c7 c4 81 b1 07 3f 51 d1 e5 ae 06 00 ec be
       4.5191548085755615e-05 -1.335148905632551e-05
000490 5c 2c df da c7 3e f0 be 77 14 e0 d1 03 fb cd be
       -1.5492665333554818e-05 -3.573957328308895e-06
0004a0 27 1c aa b5 9a 3d cc be af 07 84 6c f1 32 01 bf
       -3.366546861119645e-06 -3.280448214761034e-05
0004b0 8b bb 16 17 d7 be 0a 3f 8c 2d d3 d9 8d a7 0d 3f
       5.101293471498129e-05 5.65614857151688e-05
0004c0 25 5f 61 b3 7b 78 f8 3e 4c 53 22 89 78 87 ff 3e
       2.3337018511731346e-05 3.006857202388366e-05
0004d0 c9 c4 79 33 e9 5d 0c 3f a2 96 5b a7 7f a8 06 3f
       5.410545275886522e-05 4.321708267500153e-05
0004e0 2b 56 ac 02 49 ab 02 3f 18 8d ac 0e 38 d7 fd 3e
       3.560844955622881e-05 2.8458308331325265e-05
0004f0 d9 62 60 b5 a8 85 e7 3e eb 7a 4e f7 d6 9b 09 3f
       1.1216213959429191e-05 4.884481214805454e-05
000500 e4 64 4b 50 04 c1 cd 3e a4 f7 4a 53 9d 34 e5 3e
       3.5469498719074595e-06 1.0111582562695992e-05
000510 91 2b f6 b8 f2 86 f2 3e f7 78 28 99 83 9f 04 3f
       1.7668858672641492e-05 3.93354449850103e-05
000520 30 d1 cd dd f0 8d f8 3e 8f 1f 58 54 ae 4a f1 be
       2.341695459358409e-05 -1.649067168865665e-05
000530 29 27 15 eb 03 b7 fc be 48 fa b6 f8 90 b7 0d bf
       -2.738466600263955e-05 -5.668078582797949e-05
000540 1f 7e 1c 32 54 dd 09 bf 6b 57 14 28 dd 6f 0a bf
       -4.93327445509862e-05 -5.042451540242142e-05
000550 50 78 1a cc f7 ed ef be ca 4b d5 03 cb 19 f0 be
       -1.5225201767162796e-05 -1.53548755766444e-05
000560 92 91 93 88 f2 0f f6 be 0d 3e f4 ea 98 ed ef be
       -2.1040243642371478e-05 -1.5224511428018326e-05
000570 e5 7b d9 57 09 aa e6 be 17 d4 c4 d2 df 19 11 3f
       -1.0807135136290831e-05 6.523541077714554e-05
000580 91 36 8e eb 5e 04 0f 3f cd 68 c8 99 62 ed 0b 3f
       5.916037247920032e-05 5.326707034587902e-05
000590 2c ea 5d f3 9e 5a 00 3f 9d db 81 34 0a 3e 0e 3f
       3.1192756451543395e-05 5.768269198907288e-05
0005a0 0b f0 84 4b 93 ee c3 3e d4 ab ef ab 14 94 f1 3e
       2.3760718158832202e-06 1.6764107154825504e-05
0005b0 67 7f a9 21 2b 36 e2 3e 70 f8 fd 06 4c ee f0 3e
       8.683965508626564e-06 1.6146514496544575e-05
0005c0 87 6e d2 0a bc 7e 1f 3f da bd 8c 97 82 c3 0a bf
       0.00012014410704568923 -5.104772839669885e-05
0005d0 88 3a c3 10 ab c2 0a bf af 43 1e 83 8e 00 fd be
       -5.104145574962466e-05 -2.7658629000951593e-05
0005e0 ea 78 82 2a 94 ac db be f7 78 3a 6d 3a 83 f0 be
       -6.598028143538066e-06 -1.574765231159792e-05
0005f0 8d 4e 1d 6d 65 f1 d7 3e e7 29 02 af ae d6 fe 3e
       5.708445046287804e-06 2.940998359738682e-05
000600 e3 45 72 d7 ed 24 f2 3e ed ff 5c 47 64 17 e9 3e
       1.730370919667501e-05 1.1964499417538267e-05
000610 83 f5 2e d4 3a 11 f1 3e 74 00 c3 2d a8 bb b8 be
       1.6276649386295146e-05 -1.4742037626608552e-06
000620 fc 77 e9 e8 e1 79 04 bf 91 01 5d f6 82 56 fc be
       -3.9055067749357825e-05 -2.702516157815496e-05
000630 78 29 6e 8f 84 88 14 bf ce 37 e2 71 8d da 06 bf
       -7.832821925838295e-05 -4.3590013079172424e-05
000640 b7 23 ad c0 4d 25 18 bf f8 da 4c 9b 7d 1f fe be
       -9.210860313858716e-05 -2.8727541308638604e-05
000650 ca 1d e1 06 ee e2 1f bf e3 89 9b 01 12 ab 8c be
       -0.00012163713265166752 -2.1359505879895335e-07
000660 3f c4 2d 32 d7 64 0d bf 5c 96 73 be 3e bb c4 3e
       -5.6064431439469414e-05 2.4713785823245832e-06
000670 f1 1e 55 f8 30 bf f7 3e 81 82 5a 7c 80 b9 07 3f
       2.2646752332349443e-05 4.5251115392779165e-05
000680 d8 19 b2 b1 c2 92 12 3f 08 d0 0a ab 8e 0f f0 3e
       7.085145300509495e-05 1.5316744511564866e-05
000690 ee 16 95 20 5e 3e 15 bf 8c 2b a6 03 ed e9 1a bf
       -8.103799350064517e-05 -0.00010266789550976272
0006a0 cc e6 db ff 19 53 0a bf b0 51 4d db bc d9 7f be
       -5.021021932623062e-05 -1.1865250011445288e-07
0006b0 6b bf 7e f1 41 4c fd be 7f 71 07 14 13 86 0f 3f
       -2.7940636840361794e-05 6.0126740666996234e-05
0006c0 14 d0 57 76 e0 d1 11 3f a6 31 5f 75 b5 d7 e3 3e
       6.797726162927092e-05 9.461694997180852e-06
0006d0 24 92 13 1f 3e 0f eb 3e 19 30 99 e4 e4 8d f3 3e
       1.2902994941340713e-05 1.864840877478799e-05
0006e0 21 82 82 01 3d 8a d5 3e 69 2d 1c 4f 59 da e9 3e
       5.135534614592503e-06 1.2327635406281499e-05
0006f0 97 fd 12 e6 63 52 ff 3e aa 44 d3 1b 01 8b f6 3e
       2.987083133087833e-05 2.1498666446022212e-05
000700 67 41 22 a5 92 29 c7 3e 89 cb 8a ae 33 0b 00 3f
       2.7611725182467983e-06 3.060103865006661e-05
000710 bd e4 41 5d 43 09 f6 3e eb ed eb e5 d0 be f6 3e
       2.101534285301321e-05 2.1691679985542526e-05
000720 66 c1 df 13 6d 90 17 3f 8b 69 37 dd 8d ca 0a 3f
       8.989015347516324e-05 5.1100210523197144e-05
000730 80 6b b4 e2 00 e4 06 3f cc 81 2d 37 8f 9b 01 3f
       4.36604280713215e-05 3.358393487107626e-05
000740 53 f6 9c 70 78 d3 07 3f 97 be a2 11 14 ff 05 3f
       4.544459632292428e-05 4.1954803422836525e-05
000750 71 64 74 01 6d c8 09 3f 9c 39 e1 05 fc 54 0b 3f
       4.9177004422592474e-05 5.2131596689808396e-05
000760 5b 84 8d 20 51 48 01 3f 23 7b d8 ea 0a ce e1 3e
       3.2963729671883e-05 8.49001602448507e-06
000770 a7 a6 5a 70 48 c2 0d 3f 64 3f 33 06 13 a7 06 3f
       5.676063123634156e-05 4.32064705592195e-05
000780 de cc 60 71 90 cf 0d bf e0 df a4 18 8d c9 ff be
       -5.685958437631212e-05 -3.0314740379483343e-05
000790 48 ed a5 97 e1 1f fd be d6 4a b1 93 b9 00 0f bf
       -2.777532197615937e-05 -5.913320861652075e-05
0007a0 ec a3 b5 4b e0 34 ff be a2 c2 da 06 dc 8c d8 3e
       -2.976088283671359e-05 5.853231511629991e-06
0007b0 81 74 13 28 36 d0 e5 3e de d5 2b ef a6 dc e8 3e
       1.0401404554045156e-05 1.1855088336325028e-05
0007c0 1b 96 6b 44 18 db e1 3e 22 c0 c4 a5 b9 20 e1 3e
       8.51432754473817e-06 8.167187097812891e-06
